ios/GSSDKSimpleDemo/GSSDKSimpleDemo.xcarchive/Products/Applications/GSSDKSimpleDemo.app/Frameworks/GSSDK.framework/backbone.tflite (tflite, 868056 bytes, 104 tensors)

model/mobilenetv2_0.50_160/block_1_project/Conv2D f4 [16, 1, 1, 48]
0.6229345 0.75304604 0.11061307 0.41373628 -0.94171715 0.70889306 0.49542913 -0.0074652904
-0.148451 0.6333248 0.48516107 0.49659067 -0.2952278 -0.4209477 0.5019313 0.8516543
0.75791335 -0.8721043 0.39992055 -0.07530343 0.39731443 -0.5912265 0.6853125 0.47483242
-0.77801067 -0.15442121 0.50088215 0.23230286 -0.13287365 -1.026973 0.39976698 -0.1885968
0.5574321 1.2108836 0.23307984 0.6991697 0.68531036 0.6815358 0.33868182 0.21690094
0.1537018 -0.19994628 0.25544924 0.2544665 0.8392107 -0.8915031 -0.025196197 0.96714175
-0.80945706 0.69570845 0.024479626 -0.3676857 -0.07296733 -0.36285874 -0.3361703 0.017645188
0.17411137 0.2656448 -0.04702004 0.25252798 0.07764114 -0.7301355 0.28191012 0.24821746
0.093273155 0.024286212 0.5031594 -0.33835006 -0.06998109 -0.39016953 0.05479128 0.18698387
-0.18715803 -0.05033166 -2.088072 -0.23401062 0.42199185 0.16109945 -0.0021924828 -0.07994319
0.08144761 -0.1728746 0.33863172 0.13753702 -0.07400205 -0.06343646 0.07407177 0.14268424
0.016876424 -0.5175159 0.1864772 0.26964733 -0.053157676 -0.2694285 -0.103560194 -0.12546277
0.5869758 -0.5487883 -0.2058185 -0.044562656 0.030082464 -0.32134795 0.31768808 0.012180149
0.14447415 -0.074331276 -0.008729768 -0.111050166 0.268101 -2.059456 -0.11140615 -0.44391364
0.09882309 0.044922244 -0.8512082 0.4165476 -0.22293237 0.4028548 0.15722243 0.07487083
0.012643882 -0.19847754 0.9129541 0.3809715 0.4415718 0.14587316 0.28998992 0.07443559
-0.16142732 -0.3997056 -0.36739638 -0.25563148 0.046231564 0.038662463 0.14494143 0.06165109
0.077855706 0.6272648 -0.46070313 0.078798525 0.04431631 0.4124532 -0.31323057 -0.091236256
-0.24179313 -0.17703776 -0.93928057 -0.15692645 0.8308235 0.07613996 0.041684795 0.616255
0.09766769 0.9159309 -1.6641736 -0.50876606 0.42367524 -0.09824715 -0.16373591 -0.19477141
0.9121411 0.037405204 -0.2835325 -0.14156671 0.9844014 0.109455384 0.5533983 1.2785094
-0.3943896 0.36701214 0.22776148 0.51664853 -0.17013526 -0.4588149 1.0365399 0.93495965
1.4356341 -0.37515554 -0.15940191 1.1626943 -1.5615093 -1.4989792 0.5486528 0.89356816
0.6968791 -0.8159164 -0.2604077 -0.09134848 -1.5470669 1.1082625 0.74946845 -0.77099943
-0.090574645 -0.21973836 0.13405658 -0.33205506 -0.02181484 -0.18579814 -0.18032849 -0.24443278
-0.6560147 -0.0013142601 -0.16844928 -0.050767 0.24476717 -0.027077464 -0.5135272 -0.5929214
0.58377606 -0.26792124 1.3575153 0.08980948 -0.2826021 0.45668864 -0.059833698 0.1463074
0.2319087 -0.6919741 -0.03670233 -0.32042032 -0.4584472 0.1381933 -0.122270055 -0.013886334
0.11452537 -0.75499463 -0.13742311 0.0669489 -0.0736479 -0.10878236 -0.50817376 0.15489611
0.31288174 -0.09434864 1.387263 0.03212293 -0.06523779 -0.274073 -0.42863983 0.12457738
-0.22477001 -0.5791992 0.11808004 0.31500632 0.20325086 -1.2269063 -0.8653549 0.8260452
-0.1519637 0.063552625 -0.13106212 -0.17151369 1.0340794 0.3326044 -0.2113002 1.2639269
00000000: a378 1f3f a0c7 403f 1b89 e23d 3ed5 d33e
00000010: 6014 71bf 047a 353f e3a8 fd3e 659f f4bb
00000020: 8a03 18be 9321 223f 0867 f83e 2241 fe3e
00000030: 1928 97be 7586 d7be 927e 003f 0406 5a3f
00000040: 9c06 423f 3a42 5fbf 63c2 cc3e af38 9abd
00000050: cc6c cb3e 9f5a 17bf a470 2f3f 3c1d f33e
00000060: b52b 47bf 9820 1ebe d039 003f cde0 6d3e
00000070: 0810 08be da73 83bf 42ae cc3e 851f 41be
00000080: dfb3 0e3f 3cfe 9a3f 7bac 6e3e c9fc 323f
00000090: 8070 2f3f 2179 2e3f b467 ad3e 481b 5e3e
000000a0: 0164 1d3e b8be 4cbe 3eca 823e 6f49 823e
000000b0: 83d6 563f 8c39 64bf 4168 cebc 9a96 773f
000000c0: 9438 4fbf f319 323f 7f89 c83c 4d41 bcbe
000000d0: e56f 95bd 9fc8 b9be 831e acbe a48c 903c
000000e0: 404a 323e 9802 883e 1698 40bd 594b 813e
000000f0: 5102 9f3d 29ea 3abf 8656 903e b82c 7e3e
00000100: ff05 bf3d e1f3 c63c 0ecf 003f 383c adbe
00000110: 3f52 8fbd 4dc4 c7be d26c 603d b378 3f3e
00000120: 5ba6 3fbe 9228 4ebd f9a2 05c0 7ba0 6fbe
00000130: 510f d83e 41f7 243e c2af 0fbb 41b9 a3bd
00000140: 01ce a63d 0a06 31be 2361 ad3e 81d6 0c3e
00000150: 638e 97bd faea 81bd f1b2 973d d11b 123e
00000160: 6d40 8a3c ec7b 04bf e1f3 3e3e 370f 8a3e
00000170: ddbb 59bd 88f2 89be 5e17 d4bd 5079 00be
00000180: 0c44 163f 647d 0cbf 16c2 52be 5587 36bd
00000190: 806f f63c b887 a4be 03a8 a23e 3f8f 473c
000001a0: 08f1 133e ff3a 98bd 4d07 0fbc 456e e3bd
000001b0: 8944 893e 21ce 03c0 e828 e4bd a648 e3be
000001c0: c363 ca3d 6300 383d c8e8 59bf ba45 d53e
000001d0: 6248 64be fc42 ce3e ebfe 203e e155 993d
000001e0: 4928 4f3c b23d 4bbe 5cb7 693f b20e c33e
000001f0: b315 e23e c65f 153e 8f79 943e b071 983d
00000200: 344d 25be 36a6 ccbe 611b bcbe 21e2 82be
00000210: 4f5d 3d3d 885c 1e3d 876b 143e da85 7c3d
00000220: d072 9f3d 6d94 203f 48e1 ebbe 1f61 a13d
00000230: 0585 353d 112d d33e c25f a0be 13da babd
00000240: 9e98 77be 6349 35be b174 70bf 54b1 20be
00000250: d9b0 543f 44ef 9b3d adbd 2a3d e3c2 1d3f
00000260: ff05 c83d 737a 6a3f a403 d5bf 7e3e 02bf
00000270: f6eb d83e cd35 c9bd 63aa 27be 2872 47be
00000280: 1482 693f 3336 193d 2c2b 91be ddf6 10be
00000290: bb01 7c3f 252a e03d 83ab 0d3f 32a6 a33f
000002a0: 6fed c9be 04e9 bb3e 4e3a 693e 1443 043f
000002b0: f037 2ebe c9e9 eabe 57ad 843f 8459 6f3f
000002c0: dcc2 b73f 6314 c0be 413a 23be 2bd3 943f
000002d0: 89df c7bf 8dde bfbf 8374 0c3f e2c0 643f
000002e0: ab66 323f e6df 50bf 2854 85be e914 bbbd
000002f0: 4a06 c6bf 8cdb 8d3f 2add 3f3f 3860 45bf
00000300: 337f b9bd 1803 61be 2146 093e 1f03 aabe
00000310: 09b5 b2bc de41 3ebe 08a8 38be 964c 7abe
00000320: 94f0 27bf 4043 acba f87d 2cbe 0ff1 4fbd
00000330: 3fa4 7a3e 8fd1 ddbc 8576 03bf b2c9 17bf
00000340: 5972 153f f92c 89be 10c3 ad3f 08ee b73d
00000350: 39b1 90be 18d3 e93e 2e14 75bd 9bd1 153e
00000360: 7979 6d3e 3725 31bf 2f55 16bd 220e a4be
00000370: 97b9 eabe 8b82 0d3e b968 fabd 8283 63bc
00000380: 478c ea3d 5447 41bf a5b8 0cbe 811c 893d
00000390: b6d4 96bd 49c9 debd ad17 02bf 169d 1e3e
000003a0: 0932 a03e dc39 c1bd d591 b13f 5593 033d
000003b0: 649b 85bd 4c53 8cbe ae76 dbbe 6d22 ff3d
000003c0: 1c2a 66be 6646 14bf f3d3 f13d 8248 a13e
000003d0: fe20 503e 440b 9dbf e687 5dbf b377 533f
000003e0: 5f9c 1bbe e127 823d 2635 06be 49a1 2fbe
000003f0: b75c 843f 204b aa3e 145f 58be 5bc8 a13f

model/mobilenetv2_0.50_160/block_1_expand/Conv2D f4 [48, 1, 1, 8]
-4.26565e-05 -0.024882026 0.08280031 -0.0052283593 -0.04971804 0.0041428246 0.032322228 0.0017103535
0.000933798 -0.055715512 0.04280607 -0.011899302 -0.03222009 0.0027495192 0.0752711 0.0067673693
0.00039702727 0.17446168 -0.96253026 -0.034251194 -1.3259412 0.051940016 -0.038113102 0.05528265
-0.3266531 -0.0038695026 -0.0051820204 -0.023004431 0.0049740034 -0.4007305 0.026425028 -0.002141334
0.015994608 -1.2531592 -0.29203236 0.008643896 0.12259373 -0.03369626 -0.697603 0.049887642
0.030869793 0.044348028 -0.085529014 -0.07633606 0.042738035 0.01516784 -0.06761566 -0.0068467963
-0.0030596498 0.066157386 -0.0610908 0.027727555 0.03210072 -0.003280398 -0.09184608 -0.011229584
0.033289783 0.1535322 -1.4855595 0.017898649 -1.8232641 -0.0033830013 -0.09956337 0.073787645
0.024728734 0.055786494 0.06406408 -0.44766435 -0.057713863 0.03366837 -0.0109864855 -0.3932147
-0.016704105 -0.09789826 0.09676104 0.19465594 0.15577814 -0.039661024 -0.028434938 0.28397778
-0.009802339 -0.0037152013 -0.0026349514 0.1959461 0.008584726 -0.01002347 0.09515941 -0.047045838
0.022780973 0.13728267 0.122387946 -0.17896493 -0.012878075 0.010533379 -0.07255879 0.21556537
0.026514256 0.023447726 0.25099388 -0.19866252 0.14756642 0.022803893 0.03286617 -0.21119423
-0.38035363 -0.011311422 0.0038406784 -0.017823204 0.0069650006 0.32982567 0.009518811 -0.0028072095
-0.0022049483 -0.013715255 0.044226494 -0.058777556 0.008444895 0.002421897 0.08054673 -0.14384106
-0.002778788 -0.052630864 0.072275445 -0.032291688 -0.024849415 0.0030203653 0.042708535 0.031747427
-0.0019570168 0.01577375 0.018714514 0.16149586 -0.0039051552 -0.025624642 -0.0029155526 0.16073528
0.007838082 -0.16182636 -0.1682126 -0.44637784 -0.16077235 0.025155451 -0.16278806 -0.012346804
0.12432527 -0.012688957 0.022141716 0.019412236 -0.01794098 0.14281344 0.01571981 0.0041917865
-0.014803223 0.011376912 0.104523554 -0.22869423 0.14274393 -0.029572554 0.05852668 -0.16729388
-0.004931915 -0.0031223146 -0.12292598 0.21350423 0.024432685 -0.00051778945 0.16005272 -0.18789539
-0.002480775 -0.036076076 0.052651986 0.05941607 -0.022887662 -0.0027266783 0.14622812 -0.0017225556
0.0044584093 -0.011106923 -0.03429449 -0.004018671 0.01941206 0.0034689247 -0.0026792653 -0.0628278
-0.014503056 0.095171124 -0.1956199 -0.16456765 -0.37453145 -0.012468322 0.03431473 -0.07431384
-0.023545511 -0.046897486 -0.05335518 0.29851428 -0.045260273 -0.045812532 -0.025657635 0.31039998
-0.15896276 -0.1008595 0.01404651 -0.048023578 -0.06522106 -0.15222088 0.044283893 -0.090341754
0.6697979 0.019841941 0.022322562 -0.0006822795 -0.0048070843 -0.56456643 -0.0080596795 -0.022737162
-0.016839758 -0.055906996 0.097026296 0.12789562 0.12985452 -0.021816751 0.049911186 0.20022456
5.5146516e-21 3.9370295e-21 2.4091864e-21 2.8419632e-21 1.7212502e-21 -4.4745604e-21 -1.1001556e-20 3.0691814e-21
0.03289218 -0.06851192 0.03625713 -0.10142497 0.022110924 0.0074198744 -0.047814876 -0.21251969
0.0064410483 -0.059220884 0.20814015 -0.023622975 0.19547227 0.0032872867 -0.0061155916 -0.045867894
0.005475239 -0.089082964 0.008382127 -0.11080388 0.016162463 -0.0015966633 -0.13302742 -0.048477538
00000000: 11ea 32b8 64d5 cbbc 3593 a93d a852 abbb
00000010: 25a5 4bbd 88c0 873b 5064 043d f12d e03a
00000020: 1fca 743a f335 64bd 6b55 2f3d 4af5 42bc
00000030: 37f9 03bd 4731 343b bc27 9a3d cfc0 dd3b
00000040: 1928 d039 15a6 323e 6268 76bf fb4a 0cbd
00000050: 71b8 a9bf 0ebf 543d 7c1c 1cbd 0f70 623d
00000060: 133f a7be 7b97 7dbb f0cd a9bb ca73 bcbc
00000070: f7fc a23b 8c2c cdbe 4d79 d83c 9f55 0cbb
00000080: 2007 833c 8567 a0bf 4485 95be 219f 0d3c
00000090: 6c12 fb3d 1705 0abd 1c96 32bf fc56 4c3d
000000a0: a6e2 fc3c 47a6 353d d629 afbd 1556 9cbd
000000b0: 140e 2f3d 8882 783c 147a 8abd 175b e0bb
000000c0: 6884 48bb 867d 873d 593a 7abd e624 e33c
000000d0: 0b7c 033d f2fb 56bb cc19 bcbd 4afc 37bc
000000e0: de5a 083d 8c37 1d3e d026 bebf 30a0 923c
000000f0: b860 e9bf 58b5 5dbb e1e7 cbbd fa1d 973d
00000100: ea93 ca3c 6180 643d 0734 833d 4334 e5be
00000110: 5f65 6cbd d8e7 093d a900 34bc 7053 c9be
00000120: 0cd7 88bc e27e c8bd a72a c63d e353 473e
00000130: 4e84 1f3e 9973 22bd 63f0 e8bc 8965 913e
00000140: fd99 20bc bc7a 73bb 26af 2cbb 18a6 483e
00000150: f3a6 0c3c 7b39 24bc f0e2 c23d 23b3 40bd
00000160: 2a9f ba3c d493 0c3e 88a6 fa3d 9542 37be
00000170: 90fe 52bc 3294 2c3c b499 94bd 2bbd 5c3e
00000180: 6d34 d93c 7215 c03c 4582 803e 306e 4bbe
00000190: a71b 173e 3bcf ba3c ad9e 063d 4d43 58be
000001a0: b6bd c2be 8b53 39bc e4b3 7b3b f801 92bc
000001b0: a93a e43b e9de a83e c9f4 1b3c 29f9 37bb
000001c0: e580 10bb f3b5 60bc d726 353d bcc0 70bd
000001d0: 755c 0a3c b0b8 1e3b aff5 a43d 124b 13be
000001e0: 541c 36bb 7693 57bd 2605 943d 4a44 04bd
000001f0: 0091 cbbc 52f1 453b 25ef 2e3d 9709 023d
00000200: 4b41 00bb f437 813c 2e4f 993c 2c5f 253e
00000210: a2ed 7fbb c5ea d1bc db12 3fbb ca97 243e
00000220: 4c6b 003c cfb5 25be ec3f 2cbe a38b e4be
00000230: 82a1 24be ce12 ce3c eab1 26be 404a 4abc
00000240: 3f9e fe3d 58e5 4fbc 8b62 b53c 6906 9f3c
00000250: f6f8 92bc b03d 123e d5c6 803c 415b 893b
00000260: 3889 72bc 3a66 3a3c 7210 d63d d22e 6abe
00000270: 772b 123e 2442 f2bc acb9 6f3d 164f 2bbe
00000280: e79b a1bb bf9f 4cbb 9ec0 fbbd daa0 5a3e
00000290: 0e27 c83c 43bc 07ba dce4 233e a667 40be
000002a0: 7f94 22bb 82c4 13bd 9ca9 573d 445e 733d
000002b0: e87e bbbc 12b2 32bb d3bc 153e 60c7 e1ba
000002c0: d917 923b d0f9 35bc 6178 0cbd 0eaf 83bb
000002d0: 0a06 9f3c e656 633b 9d96 2fbb ddab 80bd
000002e0: 3a9e 6dbc 14e9 c23d 9550 48be 6c84 28be
000002f0: 96c2 bfbe ef47 4cbc 9a8d 0c3d db31 98bd
00000300: 84e2 c0bc 9417 40bd f68a 5abd ddd6 983e
00000310: d662 39bd eca5 3bbd f62f d2bc bfec 9e3e
00000320: 22c7 22be 6d8f cebd 5523 663c 5fb4 44bd
00000330: 9e92 85bd cadf 1bbe 0763 353d 1905 b9bd
00000340: e077 2b3f 918b a23c cedd b63c 01db 32ba
00000350: bf84 9dbb 6d87 10bf bf0c 04bc 4943 babc
00000360: 88f3 89bc bcfe 64bd b9b5 c63d 12f7 023e
00000370: 95f8 043e 0bb9 b2bc ac6f 4c3d ab07 4d3e
00000380: 7056 d01d 9dbc 941d 7108 361d 90bb 561d
00000390: d20d 021d 4b0b a99d 43d0 4f9e 9ae6 671d
000003a0: f3b9 063d fa4f 8cbd 5b82 143d e5b7 cfbd
000003b0: f821 b53c 6b22 f33b 88d9 43bd c39e 59be
000003c0: 6e0f d33b 9991 72bd b122 553e f884 c1bc
000003d0: e229 483e 856f 573b 4d65 c8bb f9df 3bbd
000003e0: a269 b33b 2171 b6bd 3055 093c 25ed e2bd
000003f0: 2467 843c 2147 d1ba 5738 08be 6290 46bd

model/mobilenetv2_0.50_160/expanded_conv_project/Conv2D f4 [8, 1, 1, 16]
0.24855787 -2.9845238e-22 0.025250908 4.170257 0.026509125 -4.4429913e-22 -4.6280537 -0.122790135
0.113464504 -0.57207066 1.2502968e-21 5.98929e-22 -0.00022902043 0.15956223 2.5481454e-21 3.13039e-19
-0.6702065 1.5739675e-22 0.28878978 -0.040923677 -5.2612615 1.1228966e-21 -0.06845249 -4.150095
-0.09680201 -1.361236 -7.9132306e-22 -2.2086764e-21 3.3688222e-05 -1.2345396 7.122258e-22 2.7924793e-19
0.45901835 -1.1641781e-21 -3.559491 -0.075477585 -0.9153111 8.2048007e-22 -0.06622697 3.0015323
0.34147084 0.64191675 9.85392e-22 1.885772e-21 -0.009666023 1.0485497 9.509014e-22 -3.471816e-19
-6.1813145 -2.4566069e-21 -0.55464417 0.4303227 1.2102569 -5.39594e-23 -0.00400548 0.57185453
0.27292776 0.1500916 -6.6559963e-22 1.1620801e-21 0.00010930735 -4.6954536 1.3038503e-21 2.5159717e-19
-1.0751505 -2.9703355e-23 -5.8389435 0.19979192 0.15750498 -1.767439e-21 0.13856749 -5.790564
-0.3389081 -0.5381872 -1.3775783e-21 1.8376493e-22 -0.010319687 -0.5375321 3.469619e-21 2.9121971e-19
0.5638123 3.7563979e-22 4.487004e-06 4.9165425 -0.11530278 6.059324e-22 3.9817448 -0.22407429
-0.15087444 -0.5007498 -1.3415967e-23 1.0683773e-21 -2.7359667e-05 -0.006011003 3.6448784e-22 1.9554357e-19
-0.019382138 -7.830077e-22 0.3227121 -0.013024312 -2.2959087 9.050009e-22 -0.055838596 4.063919
-0.0131231705 2.8672771 3.0395347e-21 1.6317042e-21 -0.0055154194 -2.6299422 9.320257e-22 -3.1519956e-20
-6.6088247 4.280455e-22 1.7456377 0.29457512 -0.90158993 -1.5687718e-21 0.21025519 1.601097
0.028920218 2.0058591 -7.9841877e-22 -3.1985265e-21 -0.010692584 5.3136663 -5.196256e-21 -7.466092e-19
00000000: f485 7e3e 4567 b49b feda ce3c bf72 8540
00000010: aa29 d93c fb47 069c 0419 94c0 6579 fbbd
00000020: 1460 e83d 3973 12bf 84f0 bc1c e303 351c
00000030: 3425 70b9 4864 233e 4d88 401d 1ec9 b820
00000040: a792 2bbf ef47 3e1b 41dc 933e 969f 27bd
00000050: 415c a8c0 f5af a91c d230 8cbd 94cd 84c0
00000060: 2240 c6bd fb3c aebf a829 6f9c 04e2 269d
00000070: 744c 0d38 6505 9ebf cd41 571c c1d6 a420
00000080: 7404 eb3e f5ec af9c b3ce 63c0 fe93 9abd
00000090: d451 6abf 92f9 771c 01a2 87bd 1b19 4040
000000a0: 44d5 ae3e a854 243f 82e8 941c 237c 0e1d
000000b0: 3d5e 1ebc e036 863f 37b2 8f1c 9af0 cca0
000000c0: 54cd c5c0 b09d 399d 29fd 0dbf 4253 dc3e
000000d0: b3e9 9a3f 4077 829a 6740 83bb 0f65 123f
000000e0: 30bd 8b3e 9db1 193e 472a 499c cc9b af1c
000000f0: f03b e538 2841 96c0 4408 c51c 4a84 9420
00000100: 889e 89bf f9a2 0f9a a0d8 bac0 4196 4c3e
00000110: fc48 213e 3e8b 059d a3e4 0d3e 4d4c b9c0
00000120: 5d85 adbe a3c6 09bf 7b2c d09c 7e28 5e1b
00000130: e813 29bc b49b 09bf 1914 831d e1e7 ab20
00000140: 0156 103f 710f e31b 128f 9636 5154 9d40
00000150: dd23 ecbd c021 371c e8d4 7e40 bb73 65be
00000160: d47e 1abe 2431 00bf 53c0 8199 d872 a11c
00000170: 7082 e5b7 f3f7 c4bb c351 dc1b 6bdb 6620
00000180: 4ac7 9ebc 49a6 6c9c 853a a53e ed63 55bc
00000190: 2bf0 12c0 87c2 881c 03b7 64bd a00b 8240
000001a0: 9102 57bc 7881 3740 27a9 651d 8093 f61c
000001b0: b1ba b4bb f950 28c0 ffd7 8c1c 4ad9 149f
000001c0: 7e7b d3c0 6b5e 011c 0e71 df3f 8dd2 963e
000001d0: 99ce 66bf eb10 ed9c 234d 573e bff0 cc3f
000001e0: 18ea ec3c ff5f 0040 a94e 719c 80ac 719d
000001f0: f32f 2fbc 8e09 aa40 1b4f c49d 325c 5ca1

model/mobilenetv2_0.50_160/Conv1/Conv2D f4 [16, 3, 3, 3]
0.21091248 0.44306666 0.4658406 -0.0042069936 -0.0030398986 0.10578081 0.02419981 -0.015655475
0.06826591 0.19515622 0.46911538 0.43999738 -0.055661857 0.00034667618 0.056257993 -0.042505763
-0.022878546 0.011340007 0.023142407 0.07273852 0.100502245 -0.010298281 -0.00571737 -0.03108164
0.056864757 0.016449533 -0.05594412 2.0258611e-20 2.2836536e-20 3.9707313e-20 2.5238335e-20 2.963283e-20
5.033114e-20 1.7969882e-20 1.8151312e-20 3.959861e-20 6.8182745e-21 9.9574855e-21 3.588927e-20 3.7472493e-20
3.9936952e-20 5.7300947e-20 3.8851578e-20 3.8182237e-20 5.886932e-20 2.5043387e-20 2.5057083e-20 4.4729116e-20
3.0875893e-20 3.240817e-20 4.9655588e-20 2.950313e-20 2.5658664e-20 4.0139644e-20 0.32178643 1.035611
0.5703451 -1.4505252 -2.3816876 -0.9375178 1.2376747 1.7206756 0.5691053 0.62665826
1.2239658 0.6073658 -1.5237389 -2.5164692 -0.98063606 1.1436063 1.4900413 0.31303605
-0.09367317 0.11734279 0.14997166 -0.22383137 -0.14084497 0.11506684 0.17091407 0.045572113
-0.11717283 0.4356939 0.034412738 -0.4643653 0.50317526 0.02188395 -0.52306914 0.15892255
0.073780954 -0.22970809 0.4757218 0.039470855 -0.5101093 0.6080723 -0.055595513 -0.5525043
0.2448 0.0068426486 -0.24196753 0.14312948 0.07589562 -0.22126924 0.21352434 0.02846573
-0.24075718 0.06353706 0.03264628 -0.10432397 0.16325605 1.5067644 1.5593419 0.9486757
2.1237328 1.7866322 -0.27654836 0.06769748 0.54639554 -2.9870274 -4.533579 -1.1661385
-4.1842823 -6.320328 -2.626442 -0.32894075 -0.72446775 -0.2056203 2.1504202 3.1139016
0.74776834 3.2899325 3.9449868 1.3137168 0.8847193 0.54615194 -0.45719704 -1.3546982e-20
-1.8197744e-20 -1.7812288e-20 -1.3265917e-20 -1.867202e-20 -1.3799817e-20 -2.7764227e-20 -3.7353163e-20 -3.102302e-20
-3.279635e-20 -2.9971222e-20 -2.8709907e-20 -3.193264e-20 -3.235157e-20 -2.4997056e-20 -3.0682307e-20 -3.8825806e-20
-2.1595749e-20 -2.9697406e-20 -2.783178e-20 -2.6291312e-20 -2.962618e-20 -2.5715063e-20 -1.6244443e-20 -3.011437e-20
-3.9223577e-20 -2.962188e-20 -0.11511052 0.500079 -0.38370624 -0.25456938 0.4478012 -0.20985942
-0.25565904 0.1271722 0.13831848 -0.5623691 0.8678513 -0.30680674 -0.32989642 0.7158203
-0.36479732 -0.0043378896 0.09878737 -0.11556561 -0.3651929 0.3243853 0.0424396 -0.09773492
0.23099768 -0.13596219 0.22250283 -0.11819405 -0.09992291 0.21136883 0.3192127 0.31423476
0.1219339 0.2152892 0.20064038 0.08048401 0.05121773 -0.018046413 0.11253798 0.19455387
0.22110121 0.03625073 0.11936523 0.15209185 0.042946465 0.043293364 0.0019075983 0.04817671
0.0074310955 0.017684104 0.03689201 0.01850959 0.040437583 0.036672838 -0.006513015 -0.080255635
5.4978056 4.1052556 0.122582726 -3.1649399 -1.619067 0.22992389 -2.0277607 0.5594761
1.3874353 4.224048 3.118651 1.8416215 -0.43858832 1.1717567 1.1572846 -0.1642597
1.9122907 -0.034595508 -3.8489542 -3.041182 0.19968 -2.5560577 -1.2441418 -1.7065641
-1.5202901 0.7527234 -1.6290679 -0.044875752 0.28463522 -0.51261437 -0.73117864 0.08445424
-0.59589267 -3.2490046 -2.4550655 -2.25604 0.033827662 0.20107305 -0.45129764 -0.03440801
00000000: 71f9 573e a2d9 e23e a982 ee3e d2da 89bb
00000010: 0939 47bb 9ca3 d83d ae3e c63c e93f 80bc
00000020: ffce 8b3d 08d7 473e e42f f03e 5647 e13e
00000030: b0fd 63bd 17c2 b539 c86e 663d 861a 2ebd
00000040: ca6b bbbc 70cb 393c 2595 bd3c eff7 943d
00000050: 1fd4 cd3d 1fba 28bc c758 bbbb ec9e febc
00000060: 05eb 683d 2cc1 863c a925 65bd 5156 bf1e
00000070: 5baf d71e 3283 3b1f 8d5e ee1e e5ef 0b1f
00000080: 9dae 6d1f 82b8 a91e 2e6f ab1e c8ff 3a1f
00000090: 27cb 001e 7217 3c1e 777b 291f 77f5 301f
000000a0: d098 3c1f 4c4c 871f ad78 371f 7e4f 341f
000000b0: 5200 8b1f 3287 ec1e 4fa8 ec1e 2f3a 531f
000000c0: aace 111f 130b 191f ec7d 6a1f 1853 0b1f
000000d0: d856 f21e da8d 3d1f 31c1 a43e e78e 843f
000000e0: 2302 123f cfaa b9bf 926d 18c0 2b01 70bf
000000f0: 206c 9e3f 193f dc3f e3b0 113f ad6c 203f
00000100: e9aa 9c3f 537c 1b3f e009 c3bf d50d 21c0
00000110: f70a 7bbf b161 923f acb9 be3f 4346 a03e
00000120: b8d7 bfbd 6b51 f03d 2c92 193e 0d34 65be
00000130: aa39 10be 2aa8 eb3d 1904 2f3e d3a9 3a3d
00000140: 4ff8 efbd 4513 df3e 5ff4 0c3d 4ac1 edbe
00000150: 18d0 003f f845 b33c dce7 05bf 98bc 223e
00000160: 781a 973d 9938 6bbe cf91 f33e 31ac 213d
00000170: 8696 02bf a0aa 1b3f 1fb8 63bd ec70 0dbf
00000180: daac 7a3e 4c38 e03b 56c6 77be 8990 123e
00000190: 2a6f 9b3d 6794 62be 20a6 5a3e f630 e93c
000001a0: 0d89 76be b81f 823d 1bb8 053d cea7 d5bd
000001b0: 982c 273e a8dd c03f 8498 c73f 69dc 723f
000001c0: 3deb 0740 5db0 e43f bf97 8dbe faa4 8a3d
000001d0: 94e0 0b3f 752b 3fc0 1413 91c0 0744 95bf
000001e0: a4e5 85c0 2140 cac0 a017 28c0 ec6a a8be
000001f0: b876 39bf 218e 52be 7ca0 0940 2a4a 4740
00000200: bf6d 3f3f 418e 5240 aa7a 7c40 df27 a83f
00000210: f77c 623f 9dd0 0b3f bb15 eabe 2fe5 7f9e
00000220: 72df ab9e 783b a89e 0a96 7a9e 2d5a b09e
00000230: e955 829e e41c 039f 3465 309f 8880 129f
00000240: 5be0 1a9f fc88 0d9f 2694 079f 31cc 169f
00000250: a6c6 189f 2c17 ec9e a2e4 109f 8559 379f
00000260: 51f7 cb9e f63d 0c9f 8f6e 039f 7e50 f89e
00000270: dbe7 0b9f 35df f29e a76c 999e 0a36 0e9f
00000280: 653a 399f a8e2 0b9f 10bf ebbd 2d05 003f
00000290: 2575 c4be eb56 82be 3346 e53e 63e5 56be
000002a0: bee5 82be 6e39 023e 5ca3 0d3e 6cf7 0fbf
000002b0: 812b 5e3f c615 9dbe 2fe8 a8be 0040 373f
000002c0: b7c6 babe db24 8ebb 0851 ca3d aaad ecbd
000002d0: 90fa babe d415 a63e 25d5 2d3d 3f29 c8bd
000002e0: a88a 6c3e ac39 0bbe c8d7 633e b90f f2bd
000002f0: 62a4 ccbd 1271 583e d96f a33e 61e3 a03e
00000300: 7bb8 f93d c674 5c3e ac74 4d3e cdd4 a43d
00000310: afc9 513d 12d6 93bc 507a e63d 2139 473e
00000320: 5b68 623e a57b 143d c275 f43d f7bd 1b3e
00000330: a2e8 2f3d 6254 313d 6108 fa3a f154 453d
00000340: 8c80 f33b 41de 903c 141c 173d 6ca1 973c
00000350: e1a1 253d 4236 163d 216b d5bb 115d a4bd
00000360: 06ee af40 415e 8340 a70c fb3d 608e 4ac0
00000370: 963d cfbf 2b71 6b3e d5c6 01c0 d339 0f3f
00000380: 7b97 b13f 672b 8740 fa97 4740 41ba eb3f
00000390: a68e e0be 20fc 953f e721 943f b233 28be
000003a0: f1c5 f43f 05b4 0dbd 4455 76c0 baa2 42c0
000003b0: ea78 4c3e 7396 23c0 0a40 9fbf b170 dabf
000003c0: de98 c2bf 7bb2 403f 4c85 d0bf a3cf 37bd
000003d0: b5bb 913e b23a 03bf 862e 3bbf 58f6 ac3d
000003e0: 6c8c 18bf b1ef 4fc0 cb1f 1dc0 f662 10c0
000003f0: e08e 0a3d 18e6 4d3e 7c10 e7be 6aef 0cbd

model/mobilenetv2_0.50_160/block_16_project_BN/FusedBatchNormV3 f4 [160]
-0.49009785 3.3579004 0.6849539 0.5837375 -0.95466626 2.3042002 -3.8714478 -0.5786383
3.009123 -4.917 3.265317 -0.5592263 1.1731125 -0.20301361 1.4517704 2.1175318
2.3929536 0.82029104 -3.58755 -2.4861295 -1.8712862 1.5381664 1.2342433 0.5828128
-7.008042 -5.5344687 -4.9411983 -1.6427358 -0.71801484 -0.17866462 -6.5118685 -2.2850003
-0.8027753 1.2572318 -1.6714879 2.5924351 -0.4606051 4.1971507 -0.50988555 -0.33145982
1.7158843 2.3340244 -3.7447305 1.6752443 -3.3839264 -0.888893 5.2319603 -1.454729
-0.4326729 -3.6893744 -3.6568365 -2.5150363 1.5012814 2.1687472 -0.9617023 -1.4486276
0.44996378 1.4875478 0.63343084 -0.8954123 -1.2974268 2.805349 -0.93730545 2.224539
-0.8420691 -0.55621594 -1.4938761 3.9616642 -1.5889305 -6.282689 2.459368 4.6369214
2.8650117 -2.1459782 2.9154751 -3.3779817 1.1678522 -1.1103181 2.6480138 1.2614069
-1.1906649 1.5287288 -4.780956 -1.6767315 -2.96606 -3.3090248 -1.0238068 -1.7437297
-0.55614924 3.6182299 -3.4326518 2.0572572 -3.728558 2.17493 0.106613465 -4.6039944
-0.7715878 -3.688382 4.458043 1.5551004 2.1662269 -2.5586908 3.7747612 -3.3844783
-2.9863443 -1.7108026 0.6843674 1.3544487 3.6781216 0.5716603 1.229506 -2.95968
4.025944 -0.98018485 -5.457061 -0.4671397 0.0072135576 -2.050437 0.035140797 -5.5839367
1.1507338 -0.36894685 -0.2469384 2.272352 -1.6771462 -3.6620355 1.677195 -2.5241797
-2.4797423 -0.32001838 -2.8879385 0.22497392 -4.2377152 5.4720592 -2.7304487 -1.1434658
1.7804983 -2.6161487 -0.35425454 -5.555203 0.31352034 0.030153414 -0.864707 -1.6009268
-4.7771096 0.69469845 5.1906047 1.1958413 -4.4603176 -0.95228773 1.5311787 -3.0887508
-0.44514796 2.5642788 1.4630837 -0.10702008 -2.794229 -0.2891366 -2.5843167 1.1130306
00000000: 1bee fabe d7e7 5640 2459 2f3f d26f 153f
00000010: 0265 74bf 0478 1340 cdc5 77c0 a421 14bf
00000020: 7995 4040 1058 9dc0 f4fa 5040 7429 0fbf
00000030: 8d28 963f cde2 4fbe 9dd3 b93f a485 0740
00000040: 2726 1940 98fe 513f 6b9a 65c0 bf1c 1fc0
00000050: 4e86 efbf a3e2 c43f affb 9d3f 3833 153f
00000060: e141 e0c0 5e1a b1c0 4c1e 9ec0 2b45 d2bf
00000070: d2cf 37bf dcf3 36be 3a61 d0c0 723d 12c0
00000080: af82 4dbf f9ec a03f 51f3 d5bf 75ea 2540
00000090: 6fd4 ebbe 0f4f 8640 dc87 02bf 1ab5 a9be
000000a0: 19a2 db3f a860 1540 aaa9 6fc0 686e d63f
000000b0: 4092 58c0 7e8e 63bf 386c a740 8f34 babf
000000c0: 4d87 ddbe b61e 6cc0 9c09 6ac0 5bf6 20c0
000000d0: fd29 c03f c1cc 0a40 1f32 76bf a16c b9bf
000000e0: a761 e63e f767 be3f 8628 223f be39 65bf
000000f0: 1512 a6bf d78a 3340 40f3 6fbf d95e 0e40
00000100: d791 57bf 2b64 0ebf 5537 bfbf e88b 7d40
00000110: 1362 cbbf ca0b c9c0 4966 1d40 a961 9440
00000120: 5a5c 3740 b557 09c0 2597 3a40 da30 58c0
00000130: 2e7c 953f e71e 8ebf 0f79 2940 c875 a13f
00000140: b567 98bf 63ad c33f 97fd 98c0 239f d6bf
00000150: edd3 3dc0 10c7 53c0 1a0c 83bf 8932 dfbf
00000160: cc5f 0ebf 1491 6740 91b0 5bc0 1aaa 0340
00000170: b2a0 6ec0 0e32 0b40 2958 da3d ec53 93c0
00000180: c786 45bf 730e 6cc0 4aa8 8e40 880d c73f
00000190: 76a3 0a40 97c1 23c0 b095 7140 4b9b 58c0
000001a0: 4420 3fc0 94fb dabf b432 2f3f 935e ad3f
000001b0: 5866 6b40 5458 123f 7460 9d3f 666b 3dc0
000001c0: 89d4 8040 65ed 7abf 3ea0 aec0 ef2c efbe
000001d0: b55f ec3b 5c3a 03c0 ccef 0f3d 9caf b2c0
000001e0: 3f4b 933f 9ae6 bcbe 6cdd 7cbe 376e 1140
000001f0: baac d6bf ca5e 6ac0 53ae d63f 298c 21c0
00000200: 19b4 1ec0 73d9 a3be fcd3 38c0 905f 663e
00000210: 5d9b 87c0 1c1b af40 acbf 2ec0 165d 92bf
00000220: 5ee7 e33f fb6e 27c0 da60 b5be 39c4 b1c0
00000230: bd85 a03e 4b04 f73c 705d 5dbf 2beb ccbf
00000240: 15de 98c0 c2d7 313f 6f19 a640 5411 993f
00000250: ecba 8ec0 21c9 73bf aafd c33f 18ae 45c0
00000260: 6fea e3be 251d 2440 5446 bb3f 582d dbbd
00000270: a6d4 32c0 b609 94be 7265 25c0 c977 8e3f

model/mobilenetv2_0.50_160/block_15_project_BN/FusedBatchNormV3 f4 [80]
-1.8761239 4.257452 16.705795 -2.102407 -0.53945863 3.3069062 4.489165 -7.6308427
-1.7912633 -6.92022 8.946297 -3.4249833 -1.8452255 2.8573062 -5.0442405 -4.854132
-5.823525 -3.3201652 1.3271258 3.5253758 -3.8366468 5.321856 3.9718227 -0.16170096
-5.0182333 1.3184618 2.6651635 5.086468 -0.049000345 1.3215741 -0.5530193 1.1591486
0.6474076 13.765347 -0.8220942 7.243958 -1.683976 -8.064611 -5.6673136 -2.410517
6.234681 -7.0241575 3.6364126 9.557387 11.5151205 -13.161004 0.3416534 9.038841
-1.3760816 9.89376 2.2115943 4.26168 11.189 12.467748 -5.0907187 -9.847586
-7.143661 -5.782308 -6.581706 9.58102 2.9538357 -12.092919 7.6976185 -3.290979
3.6936526 1.7598966 1.91519 -0.3876061 -4.50237 -2.7418356 -1.8947597 -3.5476024
-4.429182 8.843715 -5.352784 6.188882 6.3137765 1.3825908 -3.134417 -9.932232
00000000: d424 f0bf 0c3d 8840 78a5 8541 d68d 06c0
00000010: f619 0abf 5aa4 5340 3da7 8f40 dd2f f4c0
00000020: 1e48 e5bf 7172 ddc0 0824 0f41 ed32 5bc0
00000030: 5930 ecbf 1bde 3640 6b6a a1c0 0d55 9bc0
00000040: 515a bac0 967d 54c0 42df a93f c29f 6140
00000050: 9f8b 75c0 a54c aa40 5832 7e40 f094 25be
00000060: 5e95 a0c0 5bc3 a83f 0a92 2a40 59c4 a240
00000070: 96b4 48bd 5729 a93f ac92 0dbf fb5e 943f
00000080: 81bc 253f dc3e 5c41 c474 52bf 81ce e740
00000090: 878c d7bf a608 01c1 a25a b5c0 e945 1ac0
000000a0: 8282 c740 e6c5 e0c0 fcba 6840 0feb 1841
000000b0: ef3d 3841 7993 52c1 32ed ae3e 189f 1041
000000c0: 7123 b0bf d74c 1e41 c38a 0d40 af5f 8840
000000d0: 2506 3341 e57b 4741 2be7 a2c0 b68f 1dc1
000000e0: df98 e4c0 ab08 b9c0 569d d2c0 dc4b 1941
000000f0: a50b 3d40 997c 41c1 e452 f640 669f 52c0
00000100: ce64 6c40 4b44 e13f f224 f53f 4f74 c6be
00000110: 6a13 90c0 3c7a 2fc0 7c87 f2bf eb0b 63c0
00000120: dcbb 8dc0 db7f 0d41 024a abc0 520b c640
00000130: 750a ca40 bcf8 b03f 4a9a 48c0 6cea 1ec1

model/mobilenetv2_0.50_160/block_14_project_BN/FusedBatchNormV3 f4 [80]
1.5964757 -5.8932734 1.7979302 -0.8059942 -1.3041638 1.8228116 1.0710446 -0.23970008
-1.3207476 1.1570125 1.5092393 -0.46284595 1.359252 -1.8758318 -0.9016739 -2.4622812
-1.5939823 3.4620028 1.3017696 -0.40299392 -1.8551956 1.743222 0.1330344 -1.5733091
1.2388319 0.2008692 0.54888064 7.0844007 -0.27355415 3.0698223 1.3655916 1.4795988
1.5542129 0.58488303 0.4684498 -2.1373436 1.9016627 -0.15852608 0.2810895 -0.7537032
2.163157 0.9922402 -1.7575414 -1.9419609 -1.1777135 -0.6673915 0.49161923 1.9020613
-0.45621234 0.7837114 0.73077196 0.0061375005 1.4410316 0.2936067 -4.5736804 -1.5189267
-1.2918072 -1.030106 -0.14009883 2.7053726 -2.6911497 0.6763206 0.8202316 1.9842101
2.8052185 -1.5629846 0.2626472 -1.8910838 -2.3427804 -0.8315797 4.775177 -0.7749887
-0.11540016 2.0531762 -1.6778303 1.4958436 -0.65394205 -1.3416154 -1.4575202 -3.1234362
00000000: 5159 cc3f b295 bcc0 9422 e63f a355 4ebf
00000010: d7ee a6bf e451 e93f fd17 893f f073 75be
00000020: 420e a9bf fc18 943f c12e c13f 25fa ecbe
00000030: f8fb ad3f 421b f0bf 1ad4 66bf 0496 1dc0
00000040: 9d07 ccbf 7491 5d40 63a0 a63f 3855 cebe
00000050: 0d77 edbf e621 df3f 2b3a 083e 3162 c9bf
00000060: 0b92 9e3f a8b0 4d3e 7183 0c3f 69b3 e240
00000070: 4a0f 8cbe f877 4440 b5cb ae3f 7e63 bd3f
00000080: 73f0 c63f e5ba 153f a7d8 ef3e 3dca 08c0
00000090: af69 f33f a954 22be f7ea 8f3e b1f2 40bf
000000a0: 2a71 0a40 7403 7e3f 1ef7 e0bf 2d92 f8bf
000000b0: 51bf 96bf 2bda 2abf 84b5 fb3e bf76 f33f
000000c0: aa94 e9be 4fa1 483f df13 3b3f 161d c93b
000000d0: b973 b83f 9e53 963e 975b 92c0 316c c2bf
000000e0: f059 a5bf 83da 83bf 1176 0fbe d324 2d40
000000f0: cc3b 2cc0 5923 2d3f b3fa 513f 99fa fd3f
00000100: b388 3340 e10f c8bf b279 863e 090f f2bf
00000110: 1df0 15c0 68e2 54bf 40ce 9840 a965 46bf
00000120: eb56 ecbd 3d67 0340 25c3 d6bf ce77 bf3f
00000130: bf68 27bf 0eba abbf 0690 babf 61e6 47c0

model/mobilenetv2_0.50_160/block_13_project_BN/FusedBatchNormV3 f4 [80]
-7.6177645 -1.6653836 0.07734902 -4.1003733 -5.0103865 -1.446333 3.3625636 -1.9797925
-5.306731 6.2794924 2.7131371 2.849089 -4.138915 -3.1688144 7.847653 -3.4917076
7.259933 -0.0843007 -0.64552766 6.1699157 4.5866623 2.9733016 4.370586 6.6787295
2.896915 -4.9352465 -1.324565 -1.3956311 11.679928 5.4206915 -2.0568442 4.5786114
1.4260738 -6.2001224 2.0971372 0.9837071 0.419141 0.025153 3.5937831 5.2695956
2.1292162 -5.479377 -3.5457768 2.3003814 -2.2884986 1.600175 -2.083262 -11.005591
11.966019 -6.0696383 0.84239787 -1.5094197 1.3879452 6.0300946 0.37257314 -3.101209
8.894885 2.5062294 -3.829396 -1.6132913 -6.420927 2.7369862 4.545522 -0.4139727
3.434159 4.601037 -4.9898114 6.4577756 -2.6205468 -4.1486197 1.8623245 9.1024685
8.868371 -0.6570383 1.6189528 -1.0299374 -8.358986 -0.339503 2.1501808 -4.0458217
00000000: bac4 f3c0 4a2b d5bf 2a69 9e3d 4236 83c0
00000010: 1655 a0c0 7121 b9bf 3e34 5740 d769 fdbf
00000020: bed0 a9c0 9af1 c840 0aa4 2d40 7957 3640
00000030: fe71 84c0 dbcd 4ac0 f91f fb40 2378 5fc0
00000040: 5f51 e840 d8a5 acbd 4d41 25bf f36f c540
00000050: f0c5 9240 934a 3e40 d7db 8b40 27b8 d540
00000060: 0e67 3940 8aed 9dc0 598b a9bf 0aa4 b2bf
00000070: fce0 3a41 4e76 ad40 56a3 03c0 fc83 9240
00000080: 9689 b63f 6767 c6c0 7f37 0640 3ad4 7b3f
00000090: a699 d63e aa0d ce3c 8b00 6640 87a0 a840
000000a0: 1445 0840 0e57 afc0 02ee 62c0 7339 1340
000000b0: c376 12c0 89d2 cc3f 2a54 05c0 e716 30c1
000000c0: d074 3f41 7a3a c2c0 63a7 573f aa34 c1bf
000000d0: 30a8 b13f 89f6 c040 e8c1 be3e 357a 46c0
000000e0: 7351 0e41 1066 2040 d314 75c0 5480 cebf
000000f0: 3c78 cdc0 c82a 2f40 eb74 9140 3bf4 d3be
00000100: 43c9 5b40 b23b 9340 89ac 9fc0 19a6 ce40
00000110: 0ab7 27c0 7ec1 84c0 a660 ee3f b6a3 1141
00000120: d9e4 0d41 a933 28bf d839 cf3f fdd4 83bf
00000130: 68be 05c1 56d3 adbe 909c 0940 5f77 81c0

model/mobilenetv2_0.50_160/block_12_project_BN/FusedBatchNormV3 f4 [48]
-3.6774926 10.379343 -2.0526497 -0.46192488 4.076917 -2.685258 0.94158393 -0.877798
6.8390965 -2.354028 4.6594334 6.224119 9.3231735 -2.144907 -3.186896 -6.8488603
-7.53575 9.739503 -1.187378 0.048325785 10.362004 -5.0316963 2.2009423 -2.1321485
0.8686691 1.28816 -1.9299034 1.6982487 -0.3487116 2.2563128 0.9349025 1.9381975
1.5153134 15.274679 3.6956143 -3.332885 -3.1903257 2.3759735 -5.302108 -5.2735887
1.1156405 2.026511 -2.731219 4.444186 -0.292817 4.0388064 -4.770104 4.7527566
00000000: 0a5c 6bc0 ca11 2641 9d5e 03c0 6b81 ecbe
00000010: 1b76 8240 44db 2bc0 a50b 713f 5fb7 60bf
00000020: e1d9 da40 65a8 16c0 141a 9540 fc2b c740
00000030: b82b 1541 2846 09c0 1bf6 4bc0 dd29 dbc0
00000040: dd24 f1c0 01d5 1b41 01fc 97bf 42f1 453d
00000050: c5ca 2541 a803 a1c0 3ddc 0c40 1f75 08c0
00000060: 1961 5e3f 6de2 a43f 1307 f7bf 3760 d93f
00000070: 548a b2be 6e67 1040 c555 6f3f db16 f83f
00000080: caf5 c13f 1665 7441 f284 6c40 fd4d 55c0
00000090: 4c2e 4cc0 f30f 1840 deaa a9c0 3dc1 a8c0
000000a0: 4fcd 8e3f 5bb2 0140 4bcc 2ec0 c636 8e40
000000b0: 1cec 95be e73d 8140 b1a4 98c0 9516 9840

model/mobilenetv2_0.50_160/block_11_project_BN/FusedBatchNormV3 f4 [48]
-4.2134852 4.5043716 4.3844967 5.1377645 -0.050579928 0.4888753 -0.08447211 7.360128
-4.1459064 -5.244648 -11.608414 -0.6158103 3.975933 -2.8909655 -1.193312 -2.340728
1.7933158 -0.7164519 3.2419696 -0.75410897 8.994455 1.6458429 1.9817574 5.123033
-1.3009436 -10.089471 2.1703074 -1.8045424 2.4704943 0.9269602 -0.43868935 -0.66390765
5.9966655 -0.13493477 1.1378753 -2.0068839 -0.9978522 1.8894302 1.7069428 1.4358006
1.0505178 1.8745166 -0.21993327 -2.826858 0.084340446 -1.0242835 2.8536143 -0.6602061
00000000: dfd4 86c0 d023 9040 cc4d 8c40 9168 a440
00000010: e62c 4fbd dd4d fa3e b7ff acbd 2b86 eb40
00000020: 44ab 84c0 28d4 a7c0 10bc 39c1 bea5 1dbf
00000030: b075 7e40 9405 39c0 73be 98bf 7dce 15c0
00000040: 5f8b e53f 6469 37bf 6e7c 4f40 490d 41bf
00000050: 4ae9 0f41 fbaa d23f 3aaa fd3f e3ef a340
00000060: 5285 a6bf 796e 21c1 51e6 0a40 3ffb e6bf
00000070: 941c 1e40 434d 6d3f e49b e0be daf5 29bf
00000080: afe4 bf40 572c 0abe e6a5 913f c970 00c0
00000090: 3e73 7fbf d9d8 f13f 1a7d da3f 50c8 b73f
000000a0: 5e77 863f 29f0 ef3f 3036 61be 3eeb 34c0
000000b0: afba ac3d b91b 83bf 9ea1 3640 4403 29bf

model/mobilenetv2_0.50_160/block_10_project_BN/FusedBatchNormV3 f4 [48]
3.0615194 4.0854154 4.670182 -3.1598837 3.4251533 1.9985281 -3.426294 -4.258935
-6.110619 4.544826 0.092649184 2.7104456 -0.19682111 1.5355204 2.6860564 -5.5783887
-0.436625 -6.2190537 -5.52084 -5.2400856 1.5105295 2.6565754 -3.5241668 -4.646724
7.500494 6.483021 7.7842197 -4.729042 0.40786067 -4.426849 -7.8467526 -1.4537178
1.2937484 2.6429436 3.3533983 -3.9869301 -4.4304004 -0.68802404 1.4511516 -2.4790533
-1.4525272 -4.276734 -0.71825415 -1.5110729 2.4325652 -0.81321406 -5.28699 4.5257893
00000000: efef 4340 b9bb 8240 2272 9540 893b 4ac0
00000010: b635 5b40 c5cf ff3f 6748 5bc0 3249 88c0
00000020: 318a c3c0 376f 9140 dbbe bd3d f177 2d40
00000030: 798b 49be ef8b c43f 59e8 2b40 2982 b2c0
00000040: 508d dfbe 7d02 c7c0 b9aa b0c0 c8ae a7c0
00000050: 0859 c13f 5505 2a40 f38b 61c0 f7b1 94c0
00000060: 0c04 f040 e874 cf40 5418 f940 5054 97c0
00000070: 1dd3 d03e bfa8 8dc0 9918 fbc0 6d13 babf
00000080: 8c99 a53f fd25 2940 149e 5640 dd29 7fc0
00000090: d7c5 8dc0 5822 30bf 56bf b93f cfa8 1ec0
000000a0: 69ec b9bf 01db 88c0 81df 37bf d66a c1bf
000000b0: 26af 1b40 cc2e 50bf 062f a9c0 44d3 9040

model/mobilenetv2_0.50_160/block_9_project_BN/FusedBatchNormV3 f4 [32]
0.44505697 -0.81969815 -5.912945 -0.7303516 1.6844466 -0.6086174 -2.8776696 -0.53722364
7.39499 0.19557862 -6.4579196 0.7000734 -1.3649182 -4.525972 -2.4985402 4.376374
-2.3816407 0.5565009 5.6915474 0.030283041 -3.1448243 3.1145449 0.73005635 -1.1286166
1.4133347 4.5794153 -1.9825983 0.4082224 0.028189443 -1.8498138 -0.95948845 -4.071965
00000000: 82de e33e bdd7 51bf d836 bdc0 53f8 3abf
00000010: f29b d73f 5ace 1bbf bd2b 38c0 7d87 09bf
00000020: c2a3 ec40 c345 483e 47a7 cec0 0338 333f
00000030: a4b5 aebf c3d4 90c0 15e8 1fc0 410b 8c40
00000040: cd6c 18c0 d876 0e3f 2821 b640 2414 f83c
00000050: cd44 49c0 b454 4740 f9e4 3a3f 8276 90bf
00000060: 27e8 b43f 928a 9240 c8c5 fdbf 8702 d13e
00000070: 8ced e63c b3c6 ecbf 09a1 75bf 8a4d 82c0

model/mobilenetv2_0.50_160/block_8_project_BN/FusedBatchNormV3 f4 [32]
0.05022761 1.8638523 2.7559822 -1.7554618 -0.87198734 1.4114385 -0.69164175 0.6815427
3.8900738 0.10908673 1.9697405 0.21902654 -0.58613515 0.027002793 -0.45910132 -3.540178
10.237788 2.2989452 0.3453343 3.8267167 -0.14845584 -3.6211185 0.17843391 0.107901186
3.2350378 0.4535511 -4.835312 2.871077 -0.32770795 1.2858032 -0.86258674 -2.3235059
00000000: 77bb 4d3d b692 ee3f 0362 3040 f9b2 e0bf
00000010: 903a 5fbf 04aa b43f 6f0f 31bf 9579 2e3f
00000020: f8f6 7840 dd68 df3d 7520 fc3f 7e48 603e
00000030: f40c 16bf f634 dd3c 540f ebbe 4792 62c0
00000040: fbcd 2341 eb21 1340 a8cf b03e ede8 7440
00000050: cf04 18be 68c0 67c0 61b7 363e 4cfb dc3d
00000060: dc0a 4f40 da37 e83e e0ba 9ac0 babf 3740
00000070: 56c9 a7be 3395 a43f 7cd2 5cbf 52b4 14c0

model/mobilenetv2_0.50_160/block_7_project_BN/FusedBatchNormV3 f4 [32]
0.901379 0.84294254 6.7739196 -4.8413877 1.1737549 -1.5379677 1.4221526 0.83788615
-3.7756371 0.6996361 -0.56703454 -0.90933514 -0.55583644 -0.3460608 0.2843176 0.31960687
1.3569243 1.9097203 4.9512773 5.656559 -0.0037071141 3.8102741 -0.16344336 0.34223828
-1.9071293 1.6465814 0.9405259 -0.65341866 3.4176772 -1.0506128 -0.41750443 -2.2469895
00000000: c6c0 663f 15cb 573f f3c3 d840 a6ec 9ac0
00000010: 9a3d 963f 20dc c4bf 1909 b63f b57f 563f
00000020: 0aa4 71c0 5a1b 333f 2d29 11bf 30ca 68bf
00000030: 4c4b 0ebf e22e b1be 1492 913e 83a3 a33e
00000040: b2af ad3f b771 f43f dd70 9e40 8802 b540
00000050: 0ef3 72bb 88db 7340 b25d 27be db39 af3e
00000060: d01c f4bf 2ec3 d23f 4ec6 703f 7246 27bf
00000070: 39bb 5a40 7b7a 86bf 24c3 d5be adce 0fc0

model/mobilenetv2_0.50_160/bn_Conv1/FusedBatchNormV3 f4 [16]
2.5808485 0.61352557 2.4341168 1.8059471 2.4479685 -0.15509008 2.563583 2.649603
-5.288556 -2.7203832 -1.5439799 -1.0358865 0.68443024 1.7539669 0.050921857 -2.2020109
00000000: 9f2c 2540 0310 1d3f 92c8 1b40 4629 e73f
00000010: 84ab 1c40 efcf 1ebe be11 2440 1893 2940
00000020: da3b a9c0 c21a 2ec0 22a1 c5bf ee97 84bf
00000030: d236 2f3f fd81 e03f 7093 503d bfed 0cc0

model/mobilenetv2_0.50_160/expanded_conv_depthwise_BN/FusedBatchNormV3 f4 [16]
1.0143951 -0.30102652 5.898975 5.1291375 4.188427 -0.66179705 4.7295437 -0.10560417
-0.5593583 -0.012324348 -1.1531934 -0.43063566 -0.27097723 -0.0047615767 -0.26435232 -0.6548892
00000000: b3d7 813f 2620 9abe 67c4 bc40 e521 a440
00000010: 9807 8640 886b 29bf 6c58 9740 0047 d8bd
00000020: 1b32 0fbf 10ec 49bc d79b 93bf 477c dcbe
00000030: 87bd 8abe 0007 9cbb 3059 87be d2a6 27bf

model/mobilenetv2_0.50_160/block_1_expand_BN/FusedBatchNormV3 f4 [48]
3.1027472 2.7359724 -0.59710467 1.3514658 -0.66045105 -2.3641791 3.0252306 -0.9196159
-0.3275867 0.8529091 0.86954266 0.62015843 0.56836545 -0.17705338 0.6821646 -0.7970515
0.29795703 -0.20666878 -0.64313203 -1.0977794 5.0571423 -1.797817 2.4843771 2.8527935
0.44793922 0.20120005 0.6111202 0.4627099 2.5086374 -0.11372928 0.8020141 2.8654187
4.11797 2.3148654 2.5441818 -0.13340123 2.1936598 1.7068169 3.2353764 3.0051425
-0.31277224 3.914023 0.7841991 5.1491394 2.7161958 -0.5818637 -1.1758889 -0.2548295
00000000: 6993 4640 2c1a 2f40 dadb 18bf d5fc ac3f
00000010: 5213 29bf b64e 17c0 619d 4140 f36b 6bbf
00000020: 72b9 a7be 4058 5a3f 599a 5e3f b4c2 1e3f
00000030: 6680 113f 7b4d 35be 57a2 2e3f 910b 4cbf
00000040: d38d 983e fba0 53be 4da4 24bf 0984 8cbf
00000050: 1cd4 a140 de1e e6bf 0900 1f40 2b94 3640
00000060: 4a58 e53e 6307 4e3e 6072 1c3f 50e8 ec3e
00000070: 848d 2040 e6ea e8bd cc50 4d3f 0563 3740
00000080: 69c6 8340 c126 1440 e0d3 2240 559a 08be
00000090: ec64 0c40 fa78 da3f 6810 4f40 4154 4040
000000a0: af23 a0be 5a7f 7a40 46c1 483f c0c5 a440
000000b0: 27d6 2d40 05f5 14bf 8783 96bf 0379 82be

model/mobilenetv2_0.50_160/block_1_depthwise_BN/FusedBatchNormV3 f4 [48]
1.0646067 -0.15361264 2.770232 1.7790643 0.039372623 0.49218088 2.4142299 0.7534652
0.853577 0.017862426 -0.01451632 5.9996576 0.009509655 0.5997273 1.8038628 2.8507125
0.0110204965 0.42752364 0.0011880398 0.1459683 -0.41015497 0.52145195 0.05004354 -0.14809376
1.1241179 -1.7428372 5.6898336 0.01010957 12.1353 1.2911446 -1.3523207 0.1185636
0.38752863 5.994938 -0.006833017 2.101902 0.057210166 0.017116185 0.16186163 0.041969582
1.989532 -0.6312656 -1.0479875 8.634346 -0.0623811 0.42043567 2.7690938 5.8580947
00000000: 0845 883f a24c 1dbe 7b4b 3140 61b8 e33f
00000010: 3045 213d 22ff fb3e be82 1a40 18e3 403f
00000020: 0684 5a3f 3954 923c dcd5 6dbc 32fd bf40
00000030: 62ce 1b3c ba87 193f fae4 e63f 1372 3640
00000040: 508f 343c 61e4 da3e 00b8 9b3a b778 153e
00000050: d5ff d1be e07d 053f 74fa 4c3d e4a5 17be
00000060: 18e3 8f3f 4a15 dfbf 1e13 b640 9ca2 253c
00000070: 302a 4241 3a44 a53f d818 adbf 79d1 f23d
00000080: 276a c63e 88d6 bf40 80e7 dfbb 9085 0640
00000090: 3555 6a3d 3e37 8c3c 0ebf 253e 4ce8 2b3d
000000a0: fca8 fe3f 9f9a 21bf 7424 86bf 4826 0a41
000000b0: 5383 7fbd 5843 d73e d538 3140 8375 bb40

model/mobilenetv2_0.50_160/block_2_expand_BN/FusedBatchNormV3 f4 [96]
2.671349 -0.11381144 0.45167083 0.37010044 0.95157564 -0.7781421 -0.30714947 -1.9529955
0.9277612 2.265693 -0.90837634 -0.5988049 3.6170654 2.3431823 2.2847707 1.1266713
1.725015 -1.2577469 0.065387435 0.42497918 1.6569481 3.2164564 -0.66750085 -1.0070031
1.8217945 0.5273468 2.5501294 2.1961565 2.5511143 1.1089017 1.7646313 -0.31118324
3.298384 0.36118442 -1.5800006 1.1249791 1.1756419 1.4814942 1.7722603 0.46279758
-0.763218 1.4949788 -2.2292945 0.19606967 0.71545595 2.1561687 1.2580118 2.0360947
1.2847682 1.0743111 3.0901701 -0.6343338 1.3748761 0.07398635 1.8860953 0.8201276
-0.94934237 4.239846 -1.162648 1.1019639 2.345612 0.646724 2.1598923 0.6461658
5.018676 -0.61990297 -2.095273 1.4561396 1.5904924 1.5098716 -0.5393772 1.9030315
1.1618825 1.2301345 -0.43563172 1.480795 2.3309023 1.4515475 -0.5622733 0.75461435
0.6940205 0.49010518 4.205854 1.4023371 -0.5780874 4.2786837 0.7870724 1.0590838
-0.6664351 2.906613 1.0837342 0.38598815 0.19698884 1.9049327 0.8572578 -0.49765018
00000000: 62f7 2a40 f915 e9bd 6641 e73e ce7d bd3e
00000010: 769a 733f 5234 47bf b242 9dbe c2fb f9bf
00000020: c281 6d3f 1d01 1140 5a8b 68bf 474b 19bf
00000030: 007e 6740 b3f6 1540 af39 1240 c436 903f
00000040: 4bcd dc3f dafd a0bf d9e9 853d df96 d93e
00000050: e016 d43f 6cda 4d40 56e1 2abf 7ae5 80bf
00000060: 9030 e93f 3300 073f 5235 2340 d48d 0c40
00000070: 7545 2340 7ef0 8d3f 70df e13f 6953 9fbe
00000080: b918 5340 2aed b83e 763d cabf 51ff 8f3f
00000090: 6f7b 963f 9aa1 bd3f 6dd9 e23f cef3 ec3e
000000a0: 4162 43bf 775b bf3f c3ac 0ec0 7dc6 483e
000000b0: 1f28 373f abfe 0940 8806 a13f 604f 0240
000000c0: 4973 a43f 0783 893f 59c5 4540 b363 22bf
000000d0: f1fb af3f 2886 973d 926b f13f e2f3 513f
000000e0: 1a08 73bf d2ac 8740 a6d1 94bf 270d 8d3f
000000f0: 821e 1640 b48f 253f ad3b 0a40 1f6b 253f
00000100: fe98 a040 f6b1 1ebf f418 06c0 c862 ba3f
00000110: 4195 cb3f 7943 c13f a014 0abf 8996 f33f
00000120: 91b8 943f 0c75 9d3f 1f0b dfbe b18a bd3f
00000130: 812d 1540 4fcc b93f 25f1 0fbf 682e 413f
00000140: 54ab 313f 11ef fa3e 5b96 8640 c87f b33f
00000150: 89fd 13bf faea 8840 947d 493f 0f90 873f
00000160: 7e9b 2abf f305 3a40 cdb7 8a3f 3da0 c53e
00000170: 71b7 493e d6d4 f33f 3f75 5b3f 01cc febe

model/mobilenetv2_0.50_160/block_2_depthwise_BN/FusedBatchNormV3 f4 [96]
4.3073125 0.11404869 1.0671711 -0.6508032 0.7797483 2.67596 -1.3359509 5.168119
-4.730728 0.3877887 -0.13370395 -0.096100636 0.8789378 -0.97801167 -0.7024257 -0.31910872
0.12584338 -0.27153927 2.2238617 -0.89386773 -0.28499925 3.5700512 3.5010428 0.0024770275
7.404101 -0.16381657 4.2170324 -0.4780972 -0.18757129 -0.5623477 0.22305223 0.11903715
3.5123158 5.3548527 2.7083714 -1.369999 -0.5047168 6.287094 -1.6220777 -0.10743901
0.73266023 -0.16915515 0.20421039 -0.04182522 1.6009568 -1.4037368 0.7771396 4.1240325
0.1975193 2.2829425 -0.024255842 -0.23185742 0.051356554 4.1678276 -1.6312525 0.002597034
3.9753313 1.9740679 0.0728342 -0.27533036 -0.20309702 -1.6848106 2.7977774 1.0889256
-0.5694504 2.530863 -1.3802006 3.0095825 -0.78846157 0.02595532 0.7751673 -0.22330233
-1.8097848 -0.24855165 3.7490768 0.8469901 1.4211185 0.21204752 1.1848342 2.436554
0.25937334 2.5829525 5.976329 1.266436 -0.65791607 0.7618387 -1.2511452 -1.6005476
0.31853348 -0.8870419 -2.58176 2.3476892 7.3628454 -0.1522248 -0.023650527 0.054974053
00000000: 81d5 8940 5c92 e93d 1099 883f 0a9b 26bf
00000010: 969d 473f ee42 2b40 7000 abbf 3b61 a540
00000020: 2062 97c0 3e8c c63e b0e9 08be 69d0 c4bd
00000030: 1102 613f f95e 7abf 2cd2 33bf 3862 a3be
00000040: 16dd 003e 3207 8bbe c053 0e40 84d4 64bf
00000050: 6ceb 91be b87b 6440 1611 6040 a055 223b
00000060: 65ee ec40 88bf 27be eef1 8640 28c9 f4be
00000070: b012 40be 05f6 0fbf ce67 643e c0c9 f33d
00000080: c8c9 6040 f45a ab40 f555 2d40 215c afbf
00000090: 1f35 01bf e02f c940 3ea0 cfbf fc08 dcbd
000000a0: 9f8f 3b3f 0237 2dbe 871c 513e ec50 2bbd
000000b0: 27ec cc3f a6ad b3bf 9ff2 463f 13f8 8340
000000c0: 8042 4a3e bb1b 1240 30b4 c6bc 086c 6dbe
000000d0: 405b 523d d85e 8540 e2cc d0bf 0033 2a3b
000000e0: d46b 7e40 42ae fc3f 192a 953d 1af8 8cbe
000000f0: aaf8 4fbe e0a7 d7bf c90e 3340 ea61 8b3f
00000100: 80c7 11bf a9f9 2140 6aaa b0bf 009d 4040
00000110: 9ed8 49bf 40a0 d43c 5d71 463f 5ea9 64be
00000120: 07a7 e7bf 5384 7ebe e0f0 6f40 58d4 583f
00000130: 36e7 b53f fc22 593e a6a8 973f 80f0 1b40
00000140: 95cc 843e 184f 2540 163e bf40 931a a23f
00000150: 306d 28bf dc07 433f 8725 a0bf bede ccbf
00000160: d216 a33e 2e15 63bf 8e3b 25c0 8a40 1640
00000170: 6e9c eb40 d1e0 1bbe c0be c1bc 792c 613d

model/mobilenetv2_0.50_160/block_3_expand_BN/FusedBatchNormV3 f4 [96]
1.1565257 -1.0864422 1.2930604 -1.0031412 -2.1855023 1.8511854 1.5479963 -1.0526565
-0.24312942 1.0406735 0.97669786 1.2810332 -0.5412071 0.3649163 -1.1271479 0.08652093
-0.5968626 -0.049386233 1.5579709 1.3698409 0.28410208 0.58125454 -2.6350534 3.0629554
-1.1568779 0.47219422 -1.5750941 -0.82038736 -1.0420334 1.8404286 1.0638347 1.0682112
-0.12854262 3.5453188 -2.279118 -0.5381448 -1.8608971 -0.044434436 -1.5245905 1.2248125
-1.3475624 -0.9724028 1.8304223 1.8174132 1.848622 3.0335853 1.4701707 5.533369
2.4346063 2.8032587 0.063670956 2.1246917 0.2810766 -0.9188968 -1.1102353 -0.57575643
1.5576274 1.3665528 -0.8822066 0.26108423 1.3798447 4.1641135 -2.04945 1.3789287
0.26076227 2.3466382 0.39443764 -0.26998803 -0.04497265 -0.9826821 -1.8225935 -0.23348796
-0.8388102 -1.3366227 -0.13366456 -0.5801939 1.316178 -2.594785 -1.0820332 -0.30213237
-1.0104913 -0.9670246 1.0060539 -1.3505656 1.7574935 -1.0961311 -1.198776 -1.6181808
-0.44494447 1.016298 2.0653744 -0.921197 1.3441038 3.791165 -0.023770623 1.2143013
00000000: 0909 943f 8a10 8bbf 0183 a53f ee66 80bf
00000010: 45df 0bc0 a5f3 ec3f be24 c63f 73bd 86bf
00000020: ebf6 78be ca34 853f df08 7a3f e5f8 a33f
00000030: 8c8c 0abf 4fd6 ba3e 6246 90bf e331 b13d
00000040: fdcb 18bf 3849 4abd 976b c73f f256 af3f
00000050: d475 913e 19cd 143f b7a4 28c0 7607 4440
00000060: 9314 94bf 71c3 f13e af9c c9bf e804 52bf
00000070: 5a61 85bf 2a93 eb3f bc2b 883f 25bb 883f
00000080: ada0 03be 81e6 6240 12dd 11c0 dcc3 09bf
00000090: e031 eebf e200 36bd c825 c3bf a8c6 9c3f
000000a0: ed7c acbf 64ef 78bf 474b ea3f ffa0 e83f
000000b0: a59f ec3f 4326 4240 8e2e bc3f 5c11 b140
000000c0: 97d0 1b40 9768 3340 eb65 823d f3fa 0740
000000d0: 46e9 8f3e d23c 6bbf 311c 8ebf c664 13bf
000000e0: 5660 c73f 34eb ae3f 4bd8 61bf d5ac 853e
000000f0: c09e b03f 6b40 8540 302a 03c0 bc80 b03f
00000100: a282 853e 522f 1640 bbf3 c93e df3b 8abe
00000110: 3e35 38bd 0e91 7bbf be4a e9bf 7817 6fbe
00000120: 44bc 56bf 7416 abbf 5ddf 08be 9687 14bf
00000130: 8578 a83f f510 26c0 1080 8abf 18b1 9abe
00000140: c757 81bf ed8e 77bf 60c6 803f 55df acbf
00000150: 8cf5 e03f 064e 8cbf 7e71 99bf 8c20 cfbf
00000160: c3cf e3be 0e16 823f 182f 0440 91d3 6bbf
00000170: 980b ac3f 73a2 7240 9cba c2bc 3a6e 9b3f

model/mobilenetv2_0.50_160/block_3_depthwise_BN/FusedBatchNormV3 f4 [96]
0.055459857 3.451226 0.5449251 0.3198737 0.5012277 1.1693375 0.62047017 5.997448
0.528121 -0.043536782 -0.5860752 -0.49826977 0.4494351 2.402576 4.8374205 3.2606053
0.16672611 1.9284825 -0.24012038 0.47199157 2.95641 -0.41158754 -0.032526087 0.33389425
0.093084484 0.009302139 0.48013598 0.28804845 0.17667425 -2.192714 -0.121314675 0.22745861
2.105028 5.855966 0.5776098 2.3376117 0.55706155 0.03154266 2.1393228 -1.0562239
1.6203958 0.10016996 3.1804566 0.40033883 -0.27265218 2.6089253 1.6022458 -1.5366039
6.1065283 2.221813 1.5369635 0.35309952 0.28851157 0.48551363 3.4914947 0.30993378
-0.75733685 -1.0095547 3.1804695 5.2525682 -0.47097042 2.9178014 0.06605087 -0.04807663
1.8909216 1.8466064 0.75166166 0.68987685 2.1126866 1.7093176 -0.8004272 0.34451222
4.032983 1.3223443 3.469594 1.4280951 -1.2882912 -0.92482513 1.6606128 5.986126
1.3573742 1.4132569 -3.2422993 0.020415574 2.2317543 0.029358923 1.5297511 0.044477582
1.4921362 -0.2124247 0.62982273 0.80718154 -0.016104758 2.0511446 1.5113792 -0.027315382
00000000: e029 633d e3e0 5c40 3680 0b3f 7cc6 a33e
00000010: 7550 003f daac 953f 22d7 1e3f 18eb bf40
00000020: f032 073f a053 32bd 0609 16bf 371d ffbe
00000030: 5c1c e63e cec3 1940 26cc 9a40 c2ad 5040
00000040: 40ba 2a3e 84d8 f63f 1ee2 75be e1a8 f13e
00000050: d235 3d40 9abb d2be 133a 05bd 30f4 aa3e
00000060: 14a3 be3d 0068 183c 62d4 f53e 167b 933e
00000070: 18ea 343e 6d55 0cc0 d473 f8bd e9ea 683e
00000080: c7b8 0640 1364 bb40 3cde 133f 6e9b 1540
00000090: 969b 0e3f e032 013d aaea 0840 5832 87bf
000000a0: 2169 cf3f e825 cd3d 9a8c 4b40 36f9 cc3e
000000b0: 1199 8bbe a2f8 2640 6416 cd3f 70af c4bf
000000c0: ae68 c340 2f32 0e40 38bb c43f 76c9 b43e
000000d0: cab7 933e 3e95 f83e a674 5f40 a4af 9e3e
000000e0: d4e0 41bf 1739 81bf d08c 4b40 0a15 a840
000000f0: 0923 f1be 42bd 3a40 ae45 873d 00ec 44bd
00000100: b809 f23f 995d ec3f e66c 403f c59b 303f
00000110: 4236 0740 ebca da3f cce8 4cbf e863 b03e
00000120: 320e 8140 9442 a93f d40d 5e40 d2cb b63f
00000130: bae6 a4bf 57c1 6cbf f68e d43f 588e bf40
00000140: 70be ad3f 9ae5 b43f d581 4fc0 903e a73c
00000150: 10d5 0e40 2082 f03c e2ce c33f 202e 363d
00000160: 52fe be3f dc85 59be 103c 213f 73a3 4e3f
00000170: 20ee 83bc f445 0340 e074 c13f 82c4 dfbc
