ios/GSSDKSimpleDemo/GSSDKSimpleDemo.xcarchive/Products/Applications/GSSDKSimpleDemo.app/Frameworks/GSSDK.framework/documentFinder.tflite (tflite, 546568 bytes, 104 tensors)

model/mobilenetv2_0.35_96/block_3_project/Conv2D f4 [16, 1, 1, 48]
0	0xbedf9cd6	-0.43674344
1	0xbe441bd4	-0.1915124
2	0xbf448ffc	-0.767822
3	0x3ea44315	0.3208243
4	0x3f478061	0.77930266
5	0xbe138f59	-0.14410152
6	0x3e26eac7	0.16300498
7	0x40598722	3.3988729
8	0xbffb396b	-1.9626898
9	0x3f1878cf	0.5955934
10	0x3f736437	0.9507479
11	0xbe80432b	-0.25051245
12	0x3ef7d038	0.48401046
13	0xbed0c66f	-0.40776393
14	0xbedb8474	-0.4287449
15	0x3e918023	0.28418073
16	0x3f0f4af0	0.5597372
17	0xbf107ac0	-0.564373
18	0xbec70842	-0.38873488
19	0xbd4dcef0	-0.05024618
20	0x3ff5f896	1.9216487
21	0xbe8d6786	-0.27618045
22	0x3efe26f9	0.4963911
23	0x4086161c	4.190199
24	0xbf18a8a2	-0.59632313
25	0x4044f003	3.0771492
26	0xbe0db210	-0.13837457
27	0xbec1d9a7	-0.37861368
28	0x3f537952	0.82606995
29	0xbf023333	-0.50859374
30	0x3f5c0968	0.8595185
31	0xbf739656	-0.9515127
32	0xbf3fd275	-0.74930507
33	0x3fced996	1.6160152
34	0x3f396061	0.7241269
35	0xbfd9920d	-1.6997696
36	0x3f3aba8f	0.72940916
37	0x3fd5d40d	1.6705338
38	0x3f2356ec	0.6380451
39	0xbeaf05a9	-0.34184006
40	0xc05e1830	-3.4702263
41	0xbf37a332	-0.7173339
42	0x3f28f124	0.6599295
43	0x3fb75da2	1.432545
44	0x3f9dd253	1.2329811
45	0x3f361b1e	0.7113513
46	0xc08bdc48	-4.37064
47	0xbfc076fd	-1.5036312
48	0xbfb17a99	-1.3865539
49	0xbf2d7581	-0.6775742
50	0x3f6bcce3	0.9210951
51	0x3f04593c	0.5169866
52	0xbf6b290e	-0.9185952
53	0x3ec35ab5	0.3815514
54	0x3e4ba110	0.19885659
55	0x4000c5bf	2.0120695
56	0xc0048fee	-2.0712848
57	0xbf965400	-1.1744385
58	0x3e201d06	0.15636072
59	0xbfc3cace	-1.5296266
60	0xbf2ce5e3	-0.6753828
61	0xbef8037e	-0.48440164
62	0x3e4c2868	0.19937289
63	0xbee947e7	-0.4556267
64	0xbf26f512	-0.652177
65	0x408fde29	4.495869
66	0xbed86e85	-0.4227182
67	0x3f2e6620	0.6812458
68	0x3e929168	0.2862656
69	0x3edd0c5e	0.43173498
70	0xbf9e7a31	-1.238104
71	0xbf10933d	-0.5647467
72	0x3f85fc88	1.0467691
73	0xbfc2e0b5	-1.5224825
74	0x3f311732	0.6917602
75	0x3f25ae6f	0.6471929
76	0xbf4a9269	-0.79129654
77	0xc051fd36	-3.2810798
78	0xbf93506c	-1.1508918
79	0x3f0c45fa	0.54794276
80	0xbf976f07	-1.1830758
81	0xbe64683d	-0.22305389
82	0x3fb57494	1.4176202
83	0x3b3a5ba5	0.0028435972
84	0x3cf40524	0.029787607
85	0xbfce75d9	-1.6129714
86	0x3d929cc9	0.07158811
87	0x3f7b0c3b	0.9806554
88	0xbf3c749f	-0.7361545
89	0xbf7b81ad	-0.98244745
90	0x409746fd	4.7274156
91	0x3ec03f2d	0.375482
92	0x3e63bd0e	0.22240087
93	0xbe28c3fc	-0.16481012
94	0x3f5e03b6	0.8672441
95	0xbf19e322	-0.601122
96	0xbf7eccb1	-0.99531084
97	0xbe6541c1	-0.22388364
98	0xbe7dc84f	-0.24783443
99	0xbfd61f21	-1.672825
100	0xbe3934e9	-0.1808659
101	0xc043abe7	-3.057367
102	0x3e350080	0.17675972
103	0xbf6c40a1	-0.92286116
104	0x3d90f6ad	0.070783
105	0x3efc5848	0.49286103
106	0x3fad7425	1.355107
107	0x3f8e0e41	1.10981
108	0x3f2d6dd4	0.6774571
109	0x3fd99926	1.6999862
110	0xbf28f821	-0.66003615
111	0x3eaf7740	0.34270668
112	0xbc4eeb79	-0.012629383
113	0xbf7eacce	-0.9948243
114	0xbf77026c	-0.9648807
115	0xbf269c3d	-0.6508215
116	0xbe8255c2	-0.25456053
117	0xbe154765	-0.14578016
118	0x3d8a2b73	0.067465685
119	0xc0bbe9ed	-5.8723054
120	0xbf119371	-0.568656
121	0x405ae929	3.420481
122	0xbf42c7ae	-0.7608594
123	0x3e2b7819	0.16745032
124	0xbc040d2a	-0.008059779
125	0xbf4ad8f0	-0.7923727
126	0xbe239bbf	-0.15977381
127	0xbed56163	-0.41675863
128	0xbee6084b	-0.44928202
129	0x4031a800	2.775879
130	0x3f08cd28	0.53438044
131	0xbd60adb2	-0.05485315
132	0x3f33f4d6	0.70295465
133	0x3f00d9d9	0.5033241
134	0x3f8bfb5b	1.0936083
135	0xbc441402	-0.011967661
136	0xbfd80d57	-1.6879071
137	0xbcae85ef	-0.021304099
138	0xbf6266f5	-0.8843835
139	0xbe75a182	-0.23987392
140	0x3df49b2a	0.11943658
141	0xbe434920	-0.19070864
142	0x3f6aced7	0.9172186
143	0x3ef49913	0.47773036
144	0xbeaeff47	-0.34179136
145	0x3fd11211	1.6333638
146	0x3d8a038c	0.06738958
147	0xbf9da5c1	-1.2316209
148	0xbd54bc2f	-0.05193728
149	0xbc7412e4	-0.014897082
150	0x3d5c27d4	0.05374892
151	0xbdf29228	-0.11844283
152	0xbf392d88	-0.723351
153	0xbd0f3060	-0.034958243
154	0x3e1d8b46	0.1538516
155	0x3fcd8416	1.6055934
156	0xc0ad7ff7	-5.4218707
157	0x3e28f7b1	0.16500737
158	0xbeb88e7f	-0.36046216
159	0xbe289e12	-0.16466549
160	0xbc54fb8b	-0.012999426
161	0x3cca85fe	0.024722096
162	0xbf44a4c9	-0.7681394
163	0xbd9bdd22	-0.07610537
164	0xbfaff67e	-1.3747098
165	0x3ee77d80	0.45212936
166	0x3e97256e	0.29520744
167	0x3f1935dc	0.5984781
168	0xbe95c02d	-0.2924818
169	0xbecb2246	-0.39674586
170	0x3e968a6b	0.2940248
171	0x3f95b1f0	1.1694927
172	0xbec56702	-0.3855515
173	0x3f5aefeb	0.85522336
174	0x3e9312a8	0.2872517
175	0x3f83b08c	1.0288253
176	0x3ebc09cb	0.3672622
177	0xbc7e8751	-0.015535192
178	0x3f2e26a5	0.68027717
179	0x3f497e68	0.78708506
180	0xbe92b773	-0.28655586
181	0x3f8d2cf4	1.1029344
182	0x3fe3e5dd	1.7804524
183	0x3de92889	0.113846846
184	0x3ed62865	0.41827694
185	0x3e73aeb1	0.23797108
186	0x3f7c8663	0.9864256
187	0xbfa156cf	-1.2604617
188	0x3eee6ad6	0.46565884
189	0xbe67906c	-0.22613686
190	0x3e36b6f4	0.17843229
191	0x3f5fd980	0.87441254
192	0x3fae819c	1.3633304
193	0xbfa49346	-1.2857444
194	0x3ed0041f	0.40628144
195	0x3ee49385	0.44643798
196	0x3f0b3c0e	0.5438851
197	0x3f840438	1.0313787
198	0x3f8e54ae	1.1119592
199	0xbf682430	-0.9068022
200	0xbf9b3463	-1.2125362
201	0xbc5ecfe8	-0.013599373
202	0xbef7fa9c	-0.48433387
203	0xbf4b0cae	-0.7931622
204	0x3bf189ae	0.007371149
205	0x3ea2b9fe	0.31782526
206	0x3dc0b85b	0.09410163
207	0x3f0461eb	0.5171191
208	0x3f49393d	0.78602964
209	0xbee1128b	-0.4395946
210	0xc0431db5	-3.0486882
211	0x3ec1a25a	0.37819177
212	0xbdeb85db	-0.1150014
213	0x3ebb61d3	0.3659807
214	0x3f2ec594	0.6827023
215	0x40370463	2.8596427
216	0xbdedc214	-0.11609283
217	0xbf9230f3	-1.1421188
218	0x3e26937b	0.16267197
219	0x3ff6fe08	1.9296274
220	0x3e5e281b	0.21694987
221	0xc0397dbe	-2.8982997
222	0x3eef0767	0.46685335
223	0x3f04fea6	0.5195106
224	0x3f2d625a	0.677282
225	0xbfb6d174	-1.428267
226	0x3faf823e	1.3711622
227	0xc0a3be78	-5.1170006
228	0x3f12618a	0.5718008
229	0x3fb8b83f	1.4431227
230	0xbe663156	-0.22479758
231	0x3f405a10	0.75137424
232	0xbf30a7d7	-0.69006103
233	0x3f1e748b	0.6189658
234	0x3e96855e	0.29398626
235	0xbf5d23f5	-0.8638299
236	0xbef1fa59	-0.47261313
237	0xbf6e480c	-0.93078685
238	0x3eaa49bd	0.33259383
239	0x3ecb348b	0.39688525
240	0x3f948c14	1.1605248
241	0x3e3e7625	0.18599756
242	0xbf2371f0	-0.6384573
243	0x401b49d4	2.426381
244	0x3d5b13e2	0.05348576
245	0xbebb5d5a	-0.3659466
246	0x3eba6187	0.36402532
247	0x3f8a7ed9	1.0819961
248	0x3e4a1d46	0.1973773
249	0xbddc9737	-0.107710294
250	0x3ff0a3be	1.879997
251	0x3e835f86	0.25658816
252	0x3e1716bd	0.14754768
253	0x402d7d93	2.7107894
254	0xbe42ac7b	-0.19011109
255	0x3de261cc	0.110538095

model/mobilenetv2_0.35_96/block_3_expand/Conv2D f4 [48, 1, 1, 8]
0	0xbdb6c564	-0.08924368
1	0xbb1ec320	-0.002422519
2	0x3948e951	0.00019160403
3	0x3d41c162	0.047303565
4	0xbcc76b3b	-0.024343124
5	0x3cdf7408	0.027277008
6	0x3c7d0cf5	0.015444984
7	0xbcaa0914	-0.020756282
8	0x3d768488	0.060184985
9	0x3dbec87d	0.09315584
10	0x3d802c2b	0.06258424
11	0x3b2b9aca	0.002618479
12	0x3c9c373d	0.019069308
13	0xbdb169e2	-0.08662774
14	0x3e1bb59d	0.15205999
15	0x3e45cc6e	0.19316265
16	0xbcd74a3a	-0.026280511
17	0xb8deb9c8	-0.000106203894
18	0xba920edb	-0.0011143343
19	0x3a429648	0.00074229063
20	0xbd85e4c8	-0.06537777
21	0xba3686bf	-0.0006962828
22	0x3c07511e	0.008259086
23	0x3b87f61b	0.004149211
24	0x3d5eb93a	0.054375865
25	0xbb3646ef	-0.0027813276
26	0xbc024251	-0.007950381
27	0xbd9705a7	-0.07374125
28	0xbd8ec4d9	-0.069711395
29	0x3bf19c70	0.007373385
30	0x3c83677c	0.016040556
31	0xbc1a72a4	-0.0094267465
32	0xbd7146ee	-0.058905534
33	0x3ce30dcc	0.02771654
34	0xbbf6646b	-0.007519295
35	0xbbb6291a	-0.005559099
36	0x3ca351bb	0.019936433
37	0xbc70fc10	-0.014708534
38	0x3c999cd3	0.018751537
39	0x3c0e3e58	0.008681856
40	0xbd456a06	-0.048196815
41	0xbc462bd2	-0.0120954085
42	0x3bef357f	0.0073000784
43	0xbb68d6d2	-0.0035528434
44	0xbd6e00d9	-0.058106277
45	0x3b75b23e	0.0037490274
46	0x3b25e47b	0.0025313187
47	0x3d27a39b	0.04092751
48	0xbc4e6fea	-0.012599925
49	0xbddc3821	-0.10752893
50	0x3c7f6b79	0.015589588
51	0xbc844769	-0.016147332
52	0x3c172863	0.009225938
53	0x3b74a313	0.0037328645
54	0xbbca2461	-0.0061688875
55	0x3cc49d4e	0.02400079
56	0xbcece62a	-0.028918345
57	0xba8e2320	-0.0010844208
58	0x3a955744	0.0011393805
59	0x3d25479f	0.040351506
60	0x3d6c0c42	0.057628877
61	0xbc7f6ee3	-0.015590402
62	0xbc74c53b	-0.0149396015
63	0x3b8180e4	0.0039521325
64	0x3d2665d3	0.04062445
65	0x3bcb14e2	0.006197558
66	0xba17294c	-0.00057663466
67	0xbdc169a9	-0.09443981
68	0x3b9575d5	0.004561166
69	0xbcb02eb8	-0.021506652
70	0xbcd3e974	-0.025868155
71	0xbcb38e8a	-0.021918554
72	0x3c07e0ff	0.008293389
73	0xbe4966bd	-0.19668098
74	0x3c8d5691	0.017253192
75	0xba3c9950	-0.0007194476
76	0x3b235663	0.0024923317
77	0x3e1cb263	0.15302424
78	0xbdd542e3	-0.10413148
79	0x3df9c332	0.12195434
80	0xbe1586c9	-0.14602198
81	0xbc7f15ce	-0.0155691635
82	0x3bc2b8f3	0.005942458
83	0x3d03e44c	0.032200143
84	0xbe604f65	-0.21905287
85	0x3ddf1540	0.10892725
86	0x3e01dbd1	0.1268151
87	0xbcb4cd57	-0.02207057
88	0x3d85ff30	0.06542814
89	0x3b9954c8	0.004679296
90	0x3ca33c3e	0.019926187
91	0x3bb35751	0.0054730554
92	0xbd0130cb	-0.031540673
93	0xbce4cf79	-0.027930962
94	0xbc9802cf	-0.018556027
95	0xbd8c3a5b	-0.06847068
96	0x39b0ce20	0.0003372291
97	0x3c0b242c	0.008492511
98	0x3d05338d	0.032519866
99	0xbb8920e5	-0.0041848295
100	0x3bf5789b	0.007491184
101	0xbd5816d1	-0.052756134
102	0x3db822a2	0.08990981
103	0x3d2b538e	0.04182773
104	0x3d9eaf39	0.07748265
105	0xbd0ac262	-0.033876784
106	0xbc0ef75e	-0.008725969
107	0xbc9808e9	-0.018558936
108	0x3e17c66c	0.14821786
109	0x3e24b2d2	0.1608384
110	0x3e1b18a3	0.15146117
111	0xbd81de78	-0.06341261
112	0x3d1b5b2b	0.03792874
113	0x3c39550f	0.011311783
114	0x399da504	0.0003006832
115	0x3bbc5068	0.00574689
116	0xbccfa7fc	-0.025348656
117	0xbaee4143	-0.0018177408
118	0xbbcd0df4	-0.006257767
119	0x3be59c7a	0.007007179
120	0xbbfb828f	-0.007675476
121	0xbdd86e7b	-0.105679475
122	0x3bef3916	0.0073005063
123	0xbbd9172f	-0.006625078
124	0xbb066b1d	-0.0020510622
125	0xbb94a165	-0.0045358413
126	0x3c13fbee	0.009032233
127	0x3d015e2b	0.031583946
128	0xbcc77876	-0.024349432
129	0xbb6b4ed0	-0.003590513
130	0xbb96c821	-0.004601494
131	0x3bacb472	0.005270534
132	0xbd8d5f0d	-0.06902895
133	0xbba0371a	-0.004889381
134	0x3c05bebe	0.008163152
135	0x3c05d9c6	0.008169597
136	0xbc813734	-0.015773393
137	0x3d8b3a8f	0.067982785
138	0xbda8708b	-0.08224591
139	0xbb6e2486	-0.0036337688
140	0x3be66e4d	0.007032192
141	0xbdbfae42	-0.09359409
142	0x3d8777b9	0.06614632
143	0xbd990ff7	-0.07473748
144	0x3d7b05a4	0.061284676
145	0xbc55b962	-0.013044687
146	0xbc975650	-0.018473774
147	0x3bee8285	0.0072787427
148	0xbcec8924	-0.028873987
149	0x3c1fdb15	0.009756823
150	0x3be4373a	0.0069645913
151	0x3d3318d7	0.04372486
152	0x3d9dfb1c	0.07713911
153	0xbcebb543	-0.028772956
154	0xbc68b9d9	-0.014204466
155	0xbb32fbe3	-0.002731078
156	0x3ca1a384	0.01973129
157	0xba5306dc	-0.00080500334
158	0x3cd2b02a	0.025718767
159	0x3bedcd6b	0.0072571537
160	0x3da8440c	0.08216104
161	0x3c997b5f	0.018735586
162	0xbc2e01cb	-0.010620545
163	0x3da7d93c	0.08195731
164	0xbb67fe00	-0.0035399199
165	0x3cd21536	0.02564488
166	0xbaf67342	-0.001880266
167	0xbd14af55	-0.036300022
168	0x3b26dac0	0.0025459975
169	0x3c36a812	0.0111484695
170	0xbcff3223	-0.031151837
171	0x39edc873	0.0004535351
172	0xbc276c2d	-0.010218662
173	0x3d160797	0.036628332
174	0xbd4af157	-0.049546566
175	0xbd050528	-0.03247562
176	0xbdc736ba	-0.09727235
177	0x3c0fb39f	0.008770852
178	0x3ccb2886	0.024799597
179	0xb9e0bce4	-0.00042865344
180	0xbcad9e4b	-0.021193644
181	0x3b749df2	0.0037325588
182	0xbd33248a	-0.04373602
183	0xbcb9edf9	-0.022696482
184	0xbc3d6ec5	-0.011562054
185	0xbc8662c6	-0.01640452
186	0x3a53d4bf	0.0008080713
187	0x3bd08fbc	0.0063647907
188	0xbd148827	-0.036262657
189	0x3c99742f	0.018732158
190	0x3cb8d4a7	0.022562338
191	0xbba2ae93	-0.0049646585
192	0x3dad19bc	0.08452174
193	0xbaf0e90b	-0.0018379999
194	0xbb6e7cd4	-0.0036390321
195	0x3b66dded	0.0035227493
196	0xbd25dfdd	-0.040496696
197	0x38e01132	0.00010684355
198	0x3b646af9	0.00348538
199	0x3c7b7cb5	0.015349557
200	0x3c53121a	0.012882734
201	0xbbea3bd5	-0.007148246
202	0xb9d98023	-0.00041484935
203	0xbc41e416	-0.011834165
204	0x3d83ca2f	0.06435048
205	0x3cd25adf	0.025678096
206	0x3cd31b48	0.025769845
207	0xbc806889	-0.015674846
208	0xbd174ec2	-0.036940344
209	0xbe9767ac	-0.29571283
210	0x3c8f58e2	0.017498437
211	0xbdfdafba	-0.12387033
212	0x3cc285ee	0.023745503
213	0xbed78847	-0.4209616
214	0x3e8ece20	0.27891636
215	0xbe2be5a0	-0.16786814
216	0xbc3c27d6	-0.011484107
217	0xbdbe8381	-0.09302426
218	0x3c9a722a	0.018853266
219	0xbbf91e6b	-0.007602503
220	0xbb86d09b	-0.004114223
221	0xbd270ee0	-0.04078567
222	0x3cc759ec	0.02433487
223	0xbbb5b59a	-0.0055453302
224	0xbcd70fe8	-0.026252702
225	0x3cf2dc2e	0.029646005
226	0x3c2d06bc	0.010560688
227	0x3c52a299	0.012856149
228	0xbbd68c14	-0.0065474603
229	0xba33577c	-0.00068413443
230	0x3d640764	0.05567111
231	0x3ceff363	0.02929086
232	0xbc45a7a2	-0.012063893
233	0x3d1c1175	0.038102586
234	0x3af2f41c	0.0018535885
235	0x3b755e0e	0.0037440094
236	0x38c42728	9.353302e-05
237	0x3d012f68	0.03153935
238	0xbdbcea25	-0.09224347
239	0xbdd7da27	-0.10539656
240	0x3d95e2d3	0.07318654
241	0xbc8e1bd0	-0.017347246
242	0x3beb53d0	0.007181622
243	0xb968946b	-0.00022180534
244	0xbd0cd029	-0.034378204
245	0xbb3e2513	-0.0029013797
246	0xbca84f8c	-0.020545743
247	0xbbcfe5a2	-0.006344513
248	0x3a1f1576	0.00060685666
249	0xbc20e164	-0.009819362
250	0x3cd12f57	0.025535269
251	0xbb520835	-0.0032048349
252	0x3bdcaced	0.0067344815
253	0xbd498598	-0.04919967
254	0x3d310e57	0.043226566
255	0x3cd395c0	0.025828242

model/mobilenetv2_0.35_96/block_2_project/Conv2D f4 [8, 1, 1, 48]
0	0xbf8541af	-1.041067
1	0xbe5c6a41	-0.21524908
2	0xbf356e6a	-0.70871603
3	0x3e610765	0.21975477
4	0x3e586d39	0.21135415
5	0xbeb3409e	-0.35010237
6	0x3dc58fe7	0.09646588
7	0xbe30e055	-0.17273076
8	0xc00eab23	-2.2291954
9	0x401860a0	2.3808975
10	0xbf3b1a22	-0.7308675
11	0x401ec626	2.480844
12	0x4033279e	2.799293
13	0x3ead6130	0.3386321
14	0x3f857a60	1.0427971
15	0xbec7d49b	-0.39029393
16	0xbe351eb2	-0.1768749
17	0xbf22113c	-0.6330755
18	0x3e0e8c35	0.13920672
19	0x3e11ad8c	0.14226359
20	0xbed93123	-0.424203
21	0xbcd8fd6c	-0.026488028
22	0xbed58062	-0.4169951
23	0xbf1ceb65	-0.61296684
24	0x3f09f905	0.538956
25	0xbffbfcc1	-1.9686509
26	0x3e023151	0.12714125
27	0x3fc86204	1.5654912
28	0xbec378cc	-0.38178098
29	0x3e8c275b	0.27373776
30	0x3e83557d	0.2565116
31	0xbf6139f5	-0.8797906
32	0xbe1adf40	-0.15124226
33	0xbfd58d1c	-1.6683688
34	0x400aa62d	2.1663926
35	0x3ef6902a	0.48156863
36	0x3ca1ee5b	0.019766977
37	0xbe51a34f	-0.20472454
38	0x3cac53fd	0.021036142
39	0xbec60c20	-0.38681126
40	0x40084d2c	2.1297102
41	0x3c92d99f	0.017926035
42	0x3f53bd1c	0.82710433
43	0xbed955d6	-0.424483
44	0xbf26e66d	-0.6519535
45	0x3edc3754	0.43010962
46	0xbebbe283	-0.36696252
47	0xbe9d4816	-0.3071906
48	0xbdee8098	-0.11645621
49	0x3f8ed08e	1.1157396
50	0x408e3594	4.4440403
51	0x3eed2f4f	0.46325156
52	0xbd833770	-0.06407058
53	0xbf399552	-0.7249347
54	0x3d4dd3c3	0.05025078
55	0xc03d8c26	-2.961679
56	0x3f851e5b	1.0399889
57	0xbe8199d3	-0.2531267
58	0x3e95efb9	0.29284456
59	0x3e559613	0.2085803
60	0xbf434a38	-0.76285124
61	0x3dbcbe64	0.09216002
62	0x3e49454a	0.19655338
63	0xc0a3b17f	-5.115417
64	0x3e615202	0.2200394
65	0xc0062d29	-2.0965064
66	0x3f039bef	0.5140981
67	0x3e6f5e71	0.2337587
68	0xbf0fff51	-0.56248957
69	0x3f8edf8c	1.1161971
70	0x3f26d368	0.6516633
71	0xbfa4ab36	-1.286475
72	0xbf37abb7	-0.7174639
73	0xbe7bca80	-0.24588966
74	0x3f3e1c41	0.7426186
75	0xb955d9ec	-0.00020394445
76	0x3eca18bf	0.39472005
77	0xbe592177	-0.21204172
78	0x3ed2b82a	0.4115613
79	0xbd0ae566	-0.033910178
80	0xbe010c75	-0.12602408
81	0x3e520b6b	0.20512168
82	0x3f1c00f6	0.60938966
83	0x3eec5226	0.46156424
84	0xbe0c511b	-0.13702814
85	0xbf9a3e7b	-1.2050318
86	0x4020bfc3	2.5117042
87	0xc0033783	-2.0502632
88	0x3e8ab94f	0.27094504
89	0x3fa4f3e9	1.2886935
90	0xbe3eda68	-0.18638003
91	0x3f1e67e0	0.6187725
92	0xbf2ee53a	-0.6831852
93	0x3edc2d49	0.430033
94	0x3f3510a8	0.7072854
95	0xbcf4e0aa	-0.029892284
96	0x3e0155ec	0.12630433
97	0xc04dc048	-3.214861
98	0x3fb05b49	1.3777858
99	0xc02b3794	-2.6752672
100	0x4005d74f	2.0912664
101	0x3fbfdc0f	1.4989032
102	0xbe957367	-0.29189608
103	0xc00375d9	-2.0540679
104	0x3eef44d7	0.46732208
105	0xbe946784	-0.28985226
106	0xbd643d2e	-0.055722408
107	0x3f33d047	0.7023968
108	0xbf33ad47	-0.70186275
109	0x406fc59d	3.7464364
110	0x3e300ba8	0.17191947
111	0x3dc16a73	0.09444132
112	0xc01cc37d	-2.4494317
113	0x4100c708	8.048592
114	0xbfc0f2db	-1.5074114
115	0xc021a153	-2.5254714
116	0xbf9a2b56	-1.2044475
117	0x3f953f5a	1.1659958
118	0xc031f216	-2.7804008
119	0xbf8c47b9	-1.0959388
120	0x4101e627	8.11869
121	0x3eb62667	0.35576174
122	0xbee582c6	-0.44826335
123	0xbf050cf4	-0.5197289
124	0xc02016ae	-2.5013843
125	0xbf84099c	-1.0315433
126	0xbe190d63	-0.14946513
127	0xc01c726d	-2.444484
128	0xbec6b9be	-0.38813585
129	0xbf9760e4	-1.1826444
130	0xbe52fb43	-0.20603661
131	0x3ea0b4a5	0.3138782
132	0xbe5fcc20	-0.21855211
133	0xbe2d1646	-0.16903028
134	0xbf41f90c	-0.7577064
135	0x3e4a3094	0.19745094
136	0x3f48ac00	0.7838745
137	0xbfa2cc15	-1.2718531
138	0xbfbf0a1f	-1.4924964
139	0xbe5853af	-0.21125673
140	0xbefc7fc5	-0.4931623
141	0x3fd55445	1.6666342
142	0xc007f545	-2.124345
143	0xc01f9dee	-2.4940143
144	0xbdf04d67	-0.11733513
145	0xc0c6a627	-6.2077823
146	0xbe697e2d	-0.22802038
147	0x3f15c55a	0.5850426
148	0x3e286814	0.16445953
149	0x3dd8d7fb	0.1058807
150	0xbee43dbe	-0.44578356
151	0x3c20f201	0.009823323
152	0xbef746e8	-0.48296285
153	0xbf634d39	-0.8878971
154	0x3fa31ec7	1.2743767
155	0x3fe70546	1.8048484
156	0x3f881b6a	1.0633366
157	0xbf5715f1	-0.84017855
158	0x4060fb61	3.515343
159	0x3ec66d65	0.38755336
160	0xbf045518	-0.5169234
161	0xbfa5f547	-1.2965478
162	0x3e955933	0.29169616
163	0x3fb5c6c3	1.4201282
164	0xbebf3f4f	-0.37352988
165	0x3fbc7168	1.4722109
166	0xbfef454a	-1.869302
167	0x3d1af64b	0.03783254
168	0x3ed33512	0.41251427
169	0x4062c60c	3.5433378
170	0x3d3bc77f	0.04584455
171	0x3ef9d010	0.48791552
172	0xbf432520	-0.76228523
173	0x3f0bd4b8	0.5462146
174	0x410ff868	8.998146
175	0x3ebe4a9e	0.37166303
176	0x3f882896	1.0637386
177	0x3f3762e6	0.7163528
178	0xbed1711c	-0.40906608
179	0xbe28d04f	-0.16485713
180	0xbfb605d1	-1.4220525
181	0xbf8ff6fc	-1.1247249
182	0xbf0fad4c	-0.56123805
183	0x3f57e0f0	0.843276
184	0xbf51cae0	-0.8195019
185	0xbc974628	-0.01846607
186	0xbe5d64fc	-0.21620554
187	0x3fcd1a90	1.6023731
188	0xbec5ee32	-0.3865829
189	0x3e3185c0	0.17336178
190	0x3d405d6a	0.046964087
191	0x400b5684	2.1771555
192	0xc06eac6f	-3.7292745
193	0x3e232060	0.15930319
194	0x3a9c019f	0.0011902339
195	0x3b1b764f	0.002372164
196	0xbdfe8e44	-0.12429479
197	0xbfb5d99d	-1.4207035
198	0xbc9a357b	-0.01882433
199	0x3ddb0988	0.10695177
200	0x3fc8cf6a	1.5688298
201	0xbf956379	-1.1670982
202	0x3f2677db	0.65026635
203	0xbe50d04d	-0.2039196
204	0xbfaea8e5	-1.3645293
205	0x3db36803	0.08760073
206	0xbf0581d7	-0.52151245
207	0xbe940a81	-0.28914264
208	0x3d81b017	0.063324146
209	0x3e9c1800	0.3048706
210	0x3dd0f794	0.10203472
211	0x3f450486	0.7696003
212	0x3ba8cc95	0.005151341
213	0xbf7dbed4	-0.99119306
214	0x3ee210e6	0.44153517
215	0x3ddbb0a0	0.10727048
216	0xbe7c1102	-0.24615863
217	0x3fb86dd0	1.4408512
218	0x3ea9d6e7	0.3317177
219	0x408c6d49	4.3883405
220	0x3cbd2976	0.02309106
221	0x3da29cdf	0.07940077
222	0xbe84e347	-0.2595465
223	0xbfad01be	-1.3516157
224	0x3da24d61	0.07924915
225	0xc09b80a2	-4.8594522
226	0xbfa07997	-1.2537106
227	0x3eebe2ab	0.4607137
228	0x3e80a38b	0.25124773
229	0xbe1f99fd	-0.15586086
230	0xbca45501	-0.020060064
231	0xbad26e72	-0.0016054644
232	0xbfdb94bd	-1.7154766
233	0xbd8960f5	-0.06707946
234	0xbeea8c65	-0.45810238
235	0x3ecbc140	0.39795876
236	0xc001a225	-2.0255215
237	0x3e08e0c5	0.13366993
238	0x3e7f1dac	0.24913663
239	0x3e62f171	0.22162415
240	0xbf56821d	-0.8379229
241	0x3f3d4bdb	0.7394387
242	0x3f1cc676	0.6124033
243	0x3da641b1	0.081179984
244	0xbfcc5fe6	-1.5966766
245	0x3eaf3f7f	0.3422813
246	0xbe0fff69	-0.14062275
247	0x3fb85fe1	1.440426
248	0x3e69e806	0.22842416
249	0x3f022b49	0.508473
250	0x3ed61a71	0.41817048
251	0x3ef730a2	0.4827929
252	0xbda4902c	-0.08035311
253	0xbfb166fd	-1.3859555
254	0x3d6d0522	0.057866223
255	0x3fa82914	1.3137536

model/mobilenetv2_0.35_96/block_2_expand/Conv2D f4 [48, 1, 1, 8]
0	0x3c9a3f30	0.018828958
1	0x3b662db4	0.0035122456
2	0x3b3e8ce0	0.0029075667
3	0x3a493593	0.00076755247
4	0x3d122114	0.035676077
5	0x3bd70ad0	0.0065625682
6	0xbbed9d55	-0.0072514215
7	0xbaeeb94a	-0.001821318
8	0xbb0e3857	-0.0021701062
9	0xba8ac112	-0.0010586104
10	0xbab9afa1	-0.0014166721
11	0x3dcd6d84	0.10030654
12	0x3c1704c6	0.009217447
13	0x39dcecff	0.00042138246
14	0x3c18ece8	0.009333827
15	0x3baf2071	0.0053444435
16	0x3ca0a9a4	0.019612141
17	0xbdb33587	-0.08750444
18	0xbc6cf5c3	-0.014462891
19	0x3cd16713	0.025561845
20	0xbb9259ff	-0.004466295
21	0xbd1e938d	-0.038714934
22	0x3d49d72a	0.049277462
23	0x3bd5e546	0.0065275757
24	0x3e07baa5	0.13254793
25	0xbd1f6bbf	-0.038921114
26	0xbc07ddd3	-0.008292633
27	0x3c483ee5	0.0122220265
28	0xbc649592	-0.013951676
29	0xbd100ec8	-0.035170346
30	0x3ce8c0e3	0.028412288
31	0x3c47ad45	0.012187307
32	0x3d238555	0.039922077
33	0xbdcac91f	-0.09901642
34	0x3ecbfeac	0.39842737
35	0xbb374d03	-0.0027969487
36	0xbcd072ee	-0.025445428
37	0xbe272c0f	-0.16325401
38	0x3d98c611	0.07459653
39	0xbea9ecca	-0.33188468
40	0x3dd00153	0.101565026
41	0x3abe8dda	0.0014538125
42	0xbb9ee6e3	-0.004849301
43	0x3b8a8ccb	0.0042282096
44	0x3e1af628	0.15132964
45	0x3cf2d6a5	0.029643366
46	0xbc67ace0	-0.014140338
47	0xbbd77f59	-0.0065764603
48	0xbcf5b8a6	-0.029995274
49	0x3e7a1989	0.24423803
50	0xbc1dcd47	-0.009631461
51	0x3e7ef485	0.24897964
52	0x3d80d061	0.06289745
53	0x3e1472b4	0.14496881
54	0xbe4fbe76	-0.20287499
55	0xbe179437	-0.14802633
56	0xbd141ada	-0.03615842
57	0x3eab6eb1	0.33482888
58	0xbd078916	-0.03308972
59	0x3bebcd02	0.0071960697
60	0x3c851a5c	0.01624792
61	0xbcfc4912	-0.030796561
62	0x3d2101de	0.03930842
63	0xbc7b1cba	-0.015326673
64	0x3e3df5f2	0.18550852
65	0x3d5cb99f	0.05388796
66	0x3b295c90	0.0025842525
67	0x3c016ea9	0.007899919
68	0xbd8bdec5	-0.06829599
69	0xbc81756b	-0.01580306
70	0xbc81df03	-0.01585341
71	0xbd1feb9a	-0.039043047
72	0xbe38685a	-0.18008557
73	0x3c2a7c3a	0.0104055945
74	0x3c6bfbc4	0.014403287
75	0x3c3d5c84	0.011557702
76	0x3d908b5a	0.07057829
77	0x3b39530e	0.0028278264
78	0xbcf10a13	-0.02942375
79	0x3c873b8c	0.016507886
80	0xbdfeb14b	-0.1243616
81	0xbc9d8ba8	-0.019231632
82	0x3cc498b0	0.023998588
83	0x3e48b8ac	0.19601697
84	0x3da82555	0.082102455
85	0x3d4a997c	0.04946278
86	0xbce5836b	-0.028016767
87	0xbc0501ba	-0.008118087
88	0xbe1b1b27	-0.15147077
89	0x3bc4e7ca	0.0060090767
90	0x3c8eeab0	0.017445892
91	0xbd552ca7	-0.052044537
92	0x3d38840d	0.04504781
93	0x3cd40620	0.025881827
94	0xbce9a024	-0.028518744
95	0xbd80dacf	-0.062917344
96	0x3e2c35e8	0.16817439
97	0x3cc31060	0.02381152
98	0xbc038d38	-0.008029275
99	0x3c348c10	0.011019722
100	0xbd8c54c5	-0.06852106
101	0xbd159156	-0.036515556
102	0xba797315	-0.0009515745
103	0xbd550856	-0.052009903
104	0xbc5658ad	-0.013082665
105	0x3d8f471b	0.06995984
106	0xbe0f3b40	-0.13987446
107	0x3ba3de1c	0.0050008427
108	0x3a9362a9	0.0011244613
109	0x3e045fa6	0.12927112
110	0xbdc668ef	-0.09687983
111	0x3dbeb3b0	0.093116164
112	0xbd3b80d9	-0.045777176
113	0xbd69b2fe	-0.057055466
114	0xbc564899	-0.013078832
115	0x3e312da8	0.17302573
116	0x3cd73062	0.026268188
117	0x3c29ab19	0.010355734
118	0xbc665851	-0.014059142
119	0xbbf50e33	-0.0074784993
120	0xbc140d7b	-0.009036417
121	0x3f07a819	0.5299087
122	0xbc29f427	-0.010373152
123	0xbc3f07bc	-0.011659559
124	0xbb5b81e8	-0.0033494178
125	0xbd3ca7e1	-0.04605854
126	0x3d3be4a1	0.045872334
127	0xbe6a48b8	-0.22879303
128	0xbcabf6dd	-0.020991737
129	0xbdc3905d	-0.095490195
130	0x3c40d5ac	0.011769693
131	0xbc3eae28	-0.011638202
132	0x3bb75583	0.0055949106
133	0xbda531c6	-0.08066134
134	0x3dbf81f9	0.09350962
135	0x3c1ee603	0.009698394
136	0x3c234f12	0.009967582
137	0x3df5d103	0.120027564
138	0xbab31893	-0.001366394
139	0xbc6085cf	-0.013703777
140	0x3c2afd22	0.010436328
141	0x3d9336ec	0.0718821
142	0xbd9b519b	-0.075839244
143	0xbd00038c	-0.031253383
144	0xbcd9a58b	-0.026568195
145	0x3e35c845	0.17752178
146	0xbf0adcea	-0.5424334
147	0xbccd3a19	-0.025052117
148	0x3c30d157	0.010792098
149	0x3e7301ee	0.23731205
150	0xbe29b878	-0.16574275
151	0x3e97f56d	0.29679433
152	0xbc6f6759	-0.014612042
153	0x3b468dc4	0.0030296901
154	0xb93decfd	-0.0001811273
155	0x3a19cbfa	0.00058668817
156	0xbcc67d4f	-0.024229674
157	0x3ae5ced8	0.0017532958
158	0x3c2664ce	0.01015587
159	0x3c0b9334	0.008518983
160	0xbdc85cad	-0.097833015
161	0xbc1b3eb8	-0.0094754025
162	0xbb322a54	-0.0027185874
163	0x3ac37a53	0.0014913775
164	0x3d6a662e	0.057226352
165	0xbce6986f	-0.028148858
166	0x3cac817f	0.021057842
167	0xbbe23e3e	-0.0069043925
168	0xbd7ac3c4	-0.061221853
169	0xb9bdbe8a	-0.00036190852
170	0xbc1d1376	-0.009587159
171	0x3a94752c	0.0011326424
172	0xbdf93d6c	-0.121699184
173	0xbbedc667	-0.0072563174
174	0x3cbdc209	0.023163812
175	0x3c10ab13	0.00882985
176	0xbe098c8f	-0.13432525
177	0xbd19fd68	-0.037595183
178	0xbb1cd3d6	-0.0023929975
179	0xbb93b0df	-0.0045071687
180	0x3dab954e	0.08378087
181	0xbc894947	-0.016758574
182	0x3d2eaeb9	0.042647097
183	0x3d67955b	0.05653892
184	0xbd6d55d1	-0.05794317
185	0xbd60c79d	-0.054877866
186	0xbd1f42cf	-0.038882073
187	0xbc82924a	-0.015938897
188	0x3a6b9aca	0.0008987604
189	0x3e398f49	0.18121065
190	0xbe90b571	-0.2826343
191	0xbe81c7f3	-0.25347862
192	0xbbd375f7	-0.0064532715
193	0x3cf33150	0.0296866
194	0xbdd056ec	-0.10172829
195	0x3aebf384	0.001800165
196	0x3bec617d	0.00721377
197	0x3d08aa1e	0.03336536
198	0xbc12eaf8	-0.008967154
199	0x3d8a56a2	0.06754805
200	0x3d95017d	0.072756745
201	0xbccc72d3	-0.024957096
202	0xbb6ae47c	-0.0035841754
203	0x3d734ae0	0.05939758
204	0xbd2f0250	-0.042726815
205	0xbbfa1e0e	-0.0076329773
206	0x3c263b28	0.01014594
207	0xbce33b7c	-0.027738325
208	0xb8067523	-3.205718e-05
209	0xbc06c118	-0.008224748
210	0xbaa45b0e	-0.0012539343
211	0x3a08b60d	0.0005215116
212	0xbb08b6f2	-0.0020860997
213	0x3d39aa86	0.04532864
214	0x3d4b38b1	0.049614612
215	0xbc28fa82	-0.010313632
216	0x3d84f433	0.0649189
217	0xbc307622	-0.010770353
218	0x39e51c20	0.00043699238
219	0x3bff4d94	0.0077912305
220	0x3df53bf7	0.11974328
221	0x3d36ef71	0.044661943
222	0x3d4a30ea	0.049363054
223	0xbccfb2fb	-0.0253539
224	0x3c7dd62a	0.015492955
225	0x3e7dd176	0.24786934
226	0xbe026a39	-0.12735833
227	0x3c0488d6	0.008089265
228	0x3bda7373	0.0066665947
229	0x3e3a18c4	0.1817351
230	0xbd5f5fc4	-0.05453469
231	0x3e7b464c	0.24538535
232	0xbc9d21d7	-0.019181175
233	0x3cb22239	0.021744834
234	0xba867d77	-0.001026078
235	0xbcafcafb	-0.021459093
236	0x3b6dd900	0.0036292672
237	0x3e5fa928	0.21841872
238	0xbeabca21	-0.3355265
239	0xbe4d7a55	-0.20066197
240	0x3bed1fd0	0.0072364584
241	0xbbffb30d	-0.007803327
242	0xba9bbaa1	-0.0011881181
243	0xbe2ee6c2	-0.17080215
244	0xbc057f7e	-0.008148072
245	0x3abd85f2	0.0014459474
246	0xbb465816	-0.0030264906
247	0xbc81b086	-0.015831243
248	0xbd8fc73c	-0.07020423
249	0x3b0c7fa1	0.0021438377
250	0x3bb2b144	0.0054532606
251	0x3b80658a	0.0039183544
252	0xbe00407b	-0.12524597
253	0x3beb1c25	0.007174986
254	0x3b9aeaa3	0.004727678
255	0xbb2a29d7	-0.002596488

model/mobilenetv2_0.35_96/block_1_project/Conv2D f4 [8, 1, 1, 48]
0	0xbf5b3577	-0.85628456
1	0xbcf47d7d	-0.029844994
2	0x3f071997	0.5277342
3	0xc0b551b5	-5.666224
4	0x3f2573c2	0.6462976
5	0x3fcb1af3	1.5867599
6	0x3ec060c0	0.37573814
7	0x3ee1bfe5	0.44091716
8	0x3d6c1933	0.05764122
9	0x3eedfc08	0.46481347
10	0x3d9f5e6a	0.0778168
11	0xbee40bd9	-0.4454029
12	0x40c26de4	6.0759144
13	0x1c7232f4	8.013694e-22
14	0xbea78eef	-0.32726237
15	0x3f221f2b	0.6332881
16	0x9d4e0a84	-2.726931e-21
17	0xbe7a81e4	-0.24463612
18	0xbe3fa92e	-0.1871688
19	0xbe8ada53	-0.27119693
20	0x4098f8a7	4.780353
21	0xbf251bc6	-0.64495504
22	0xbe39f44f	-0.18159603
23	0x3df2f5b1	0.11863268
24	0x40042cf9	2.065245
25	0x3fc03cd0	1.5018559
26	0x3f05c9de	0.5226115
27	0x3f63fb1c	0.8905504
28	0x3de747d2	0.112929955
29	0x3e8e3346	0.27773494
30	0x3de286dc	0.11060879
31	0xc0fdcea5	-7.931475
32	0x3f25e589	0.6480337
33	0x3e59dbe3	0.21275286
34	0x3d280281	0.041018013
35	0xbdf876b4	-0.12132016
36	0xbfeda044	-1.8564534
37	0xbe0fc5c3	-0.14040284
38	0xbf5d4096	-0.86426675
39	0x40009f14	2.0097094
40	0x3f161da7	0.58638996
41	0xbfc0f7db	-1.507564
42	0xbeba263f	-0.36357304
43	0x3edb6608	0.4285128
44	0x3e128148	0.1430713
45	0xbe14307b	-0.14471619
46	0x3e333246	0.17499647
47	0x3eb40845	0.3516256
48	0xbf605d0f	-0.87641996
49	0xbda62403	-0.081123374
50	0xbd3a2d93	-0.04545362
51	0xbe20f67f	-0.15719031
52	0x3f9aa948	1.208291
53	0x3f5a2ff8	0.85229445
54	0xbf4f4ca1	-0.809763
55	0x400d3ea1	2.2069476
56	0x3efc0744	0.49224293
57	0x3df07923	0.11741855
58	0xbf821200	-1.0161743
59	0xbf0cc0ba	-0.5498158
60	0x3e86c61c	0.2632302
61	0x1bea8a8e	3.8801592e-22
62	0x3f093459	0.535955
63	0x3f748e3f	0.9552955
64	0x1b4f489f	1.7146104e-22
65	0x3fa94f4a	1.3227322
66	0x3f067151	0.5251666
67	0xbfb37fbf	-1.402336
68	0xbce32e8c	-0.027732156
69	0x3f8a8587	1.0821999
70	0x406a0d74	3.657071
71	0x3f04d569	0.5188814
72	0xbf3fd5e1	-0.7493573
73	0xbe1ba14b	-0.15198247
74	0x3fdf261a	1.7433503
75	0x3e2a9070	0.16656661
76	0x3ef72ea8	0.48277783
77	0x3cd58afc	0.02606725
78	0x3ef81fcd	0.48461762
79	0xbebfc52d	-0.3745512
80	0x3eaf3d2e	0.34226364
81	0xbdebfb4a	-0.11522539
82	0xbe5cfac7	-0.21580039
83	0xbf21b238	-0.63162565
84	0x3e7904fc	0.24318308
85	0xbff6a7fb	-1.9270014
86	0x3e490072	0.19629076
87	0x3e1e2fe1	0.15447952
88	0xbd4c73ee	-0.049915247
89	0xbe854817	-0.26031563
90	0xc00c4b08	-2.1920795
91	0xbe3c3f33	-0.18383484
92	0xbf6b0185	-0.91799194
93	0x3e767765	0.24068983
94	0xbfc290a5	-1.5200392
95	0xc02e9f39	-2.7284682
96	0xc0489ceb	-3.1345775
97	0x3f927a61	1.1443597
98	0xbc3a922d	-0.01138739
99	0x3ef22177	0.47291157
100	0x400c3201	2.190552
101	0xbededfd6	-0.43530148
102	0x3fb11092	1.3833182
103	0x3fb4d870	1.4128551
104	0xbedf5128	-0.43616605
105	0x4046b466	3.1047606
106	0x3f38c013	0.7216808
107	0xbe9feec5	-0.31236854
108	0x3d26a268	0.040682226
109	0x9d651ae5	-3.0321802e-21
110	0x3ed437e5	0.41448894
111	0x402ed0e0	2.7314987
112	0x1d6dd345	3.1475913e-21
113	0x3e800ae4	0.2500831
114	0xc0cebe19	-6.4607053
115	0x3faa7a56	1.3318584
116	0x3d33e0d9	0.043915603
117	0x3f89bcf9	1.0760795
118	0x3ef15f7c	0.4714316
119	0xbf8e450a	-1.1114819
120	0xbfc8bf93	-1.5683464
121	0xbd829847	-0.06376701
122	0x400b1541	2.1731722
123	0x3e6c5346	0.23078641
124	0xbde32ef5	-0.11092941
125	0x3fe9f655	1.82783
126	0x3fcd108a	1.6020672
127	0x3e1da730	0.15395808
128	0x3f14ba3a	0.5809666
129	0xbea59d5e	-0.32346624
130	0xbf40b264	-0.752722
131	0xbf68cd98	-0.9093871
132	0x3f1f498c	0.622216
133	0xbde55a09	-0.111988135
134	0x3dbc7b58	0.092032135
135	0xbeb6f85c	-0.35736358
136	0x401fab02	2.4948125
137	0xbebf479c	-0.3735932
138	0xbfdca23c	-1.723701
139	0xbe06c96b	-0.13162772
140	0x3f83ab7d	1.0286709
141	0xc044c63c	-3.0745993
142	0x3f7c1d98	0.98482656
143	0x3f1f1d93	0.621545
144	0x3e9d5d67	0.30735323
145	0xbd873850	-0.06602538
146	0xbcd0b8fd	-0.025478834
147	0x3f00d71b	0.50328225
148	0xbf17e5af	-0.59334844
149	0x3fcf4244	1.6192098
150	0x3e58dd80	0.21178246
151	0xbd9ba420	-0.07599664
152	0x405888fa	3.3833604
153	0x3f514030	0.8173857
154	0xbe902fbc	-0.28161418
155	0xbe8ef7c0	-0.27923393
156	0x3fc28b70	1.5198803
157	0x1d7cecc3	3.3474325e-21
158	0xbff7718c	-1.9331527
159	0xbf36c51d	-0.7139452
160	0x1cfce117	1.6734146e-21
161	0x3e991659	0.29899862
162	0xbf270c9a	-0.65253603
163	0xbe78477c	-0.24246019
164	0xbe060a54	-0.13089877
165	0x3dd7a291	0.10529054
166	0x3e7abcd7	0.24486099
167	0xbf6de03f	-0.929203
168	0xbf3f4234	-0.7471039
169	0xbef158c6	-0.4713804
170	0xbf42cde0	-0.7609539
171	0xbdb5d095	-0.088776745
172	0xbe823181	-0.25428393
173	0xbef1f325	-0.47255817
174	0x3d6cbe8d	0.05779891
175	0xbf2082b5	-0.62699443
176	0xc02aa132	-2.6660886
177	0x40355489	2.8332846
178	0xc06ee2e1	-3.7325976
179	0xbe0d699c	-0.13809818
180	0x3ead3168	0.33826756
181	0x3c958fad	0.018256987
182	0x3d16145d	0.036640514
183	0xc0f92525	-7.7857842
184	0x3e4d94e2	0.20076326
185	0x3ea2371d	0.31682673
186	0x3da83ce3	0.08214738
187	0xc06c5574	-3.6927156
188	0xbe77feec	-0.24218339
189	0xbc98d136	-0.018654447
190	0x3e2ca53d	0.16859908
191	0x3f03cb8a	0.5148245
192	0x3de8f5c9	0.11375005
193	0xbe24cbb4	-0.16093332
194	0x4077db9b	3.8727787
195	0x3ffe1bcf	1.9852237
196	0x3d72b703	0.059256565
197	0xbf4b92fe	-0.7952117
198	0xbd79b52b	-0.06096379
199	0xbd8535f1	-0.06504429
200	0x3da31df4	0.079646975
201	0xbde79dee	-0.113094196
202	0x3d8cccc6	0.06874995
203	0xbf37600f	-0.7163095
204	0xc08cb130	-4.3966293
205	0x9c469db2	-6.571652e-22
206	0xbf5590af	-0.83423895
207	0x3dd8f856	0.10594241
208	0x9ce77ee7	-1.5319101e-21
209	0x3e7efac6	0.2490035
210	0x3e92d3ca	0.28677207
211	0xbe6dd708	-0.23226559
212	0x405bcfb9	3.4345534
213	0x3ebfb774	0.3744465
214	0x3e0c1971	0.1368158
215	0xbea81fb4	-0.32836688
216	0xbf6a2dc9	-0.9147611
217	0x3fb7de4b	1.4364713
218	0xbe08e5ad	-0.13368864
219	0x40537140	3.3037872
220	0xbe654561	-0.22389747
221	0xbdc0b5ae	-0.09409653
222	0xbc387d87	-0.011260397
223	0x40a60376	5.1879225
224	0x3eca7565	0.3954269
225	0x3e281fc3	0.16418366
226	0xbe360bd0	-0.17777944
227	0xbd28d52c	-0.04121892
228	0x3f79406e	0.97363937
229	0xbc69856b	-0.014253001
230	0xbf430040	-0.76172256
231	0xbf6a7234	-0.9158051
232	0xbde3ce6e	-0.11123358
233	0xc0d66a66	-6.700488
234	0x3d149828	0.03627792
235	0xbcdaa477	-0.026689751
236	0xbe33d768	-0.1756264
237	0xbe1a8552	-0.1508992
238	0xbe136f8f	-0.14398025
239	0x3d2399b1	0.039941493
240	0xbec45817	-0.38348457
241	0x3ffb419e	1.96294
242	0x3c83544d	0.016031409
243	0xbea9b55f	-0.33146188
244	0x3e6603ec	0.22462434
245	0x400bce33	2.1844604
246	0x3fae303e	1.3608472
247	0x3eec10e4	0.46106637
248	0xbf6704d6	-0.90241754
249	0x3fbf72c2	1.4956896
250	0x3ee82fad	0.45348874
251	0x40313844	2.7690592
252	0x3fa6c10d	1.3027664
253	0x9c4cf096	-6.780889e-22
254	0xc0ccd842	-6.4013987
255	0xbcf936e6	-0.030421685

model/mobilenetv2_0.35_96/block_1_expand/Conv2D f4 [48, 1, 1, 8]
0	0x3c661b0d	0.014044535
1	0xbdfeb4d2	-0.124368325
2	0x3d56f0c3	0.052475702
3	0xbd3f8738	-0.046759814
4	0x3cf26596	0.029589456
5	0xbc5a3436	-0.013318112
6	0xbd504101	-0.050843243
7	0x3cb07fa7	0.021545244
8	0x3d826103	0.0636616
9	0x3d62af85	0.05534317
10	0xbc634d44	-0.013873402
11	0xbd9624de	-0.073312506
12	0x3baec893	0.005333969
13	0xbbe75d91	-0.0070607145
14	0xbd97953a	-0.074015096
15	0x3de05690	0.109540105
16	0x3cbd077e	0.023074862
17	0x3b6f891a	0.0036550225
18	0xbd06f0b4	-0.032944396
19	0x3da37edf	0.07983183
20	0x3c92b972	0.017910693
21	0x3dc7291a	0.097246364
22	0x3d114197	0.035462942
23	0x3d7db235	0.06193753
24	0x3d2c4de4	0.04206647
25	0x3d0c9359	0.03432021
26	0xbd0c76d6	-0.03429302
27	0x3d8ec58b	0.06971272
28	0xbd193fe0	-0.03741443
29	0xbb733793	-0.0037111982
30	0xbb97c2a7	-0.0046313587
31	0x3c21ebd1	0.009882883
32	0xbc9c15fb	-0.01905345
33	0xbd5e8781	-0.054328445
34	0x3d375c49	0.044765744
35	0x3805c6ea	3.1894924e-05
36	0x3c378944	0.01120216
37	0x3c521f37	0.012824825
38	0xbcddb6e9	-0.027064757
39	0xbd9041aa	-0.070437744
40	0x3ca5c573	0.020235753
41	0x39d62256	0.00040842843
42	0xbcc3f7fb	-0.023921957
43	0x3cd680b6	0.026184421
44	0xb90bd12b	-0.00013333994
45	0xbc892bb8	-0.01674448
46	0x3cab366d	0.020899976
47	0x3da5f807	0.08103948
48	0x3d3c86f4	0.04602714
49	0xbc680fa2	-0.014163883
50	0xbda5c358	-0.080938995
51	0xbd8d31d8	-0.068942726
52	0x3d9cf2b3	0.07663479
53	0xbbe36c68	-0.0069404133
54	0x3d4319b7	0.047631945
55	0xbcd68571	-0.026186677
56	0x3e9df343	0.30849656
57	0x3d0482e6	0.032351397
58	0x3d51f468	0.051258475
59	0xbd84258e	-0.064524755
60	0x3d9059cd	0.07048378
61	0xbcda2f05	-0.026633749
62	0x3e6cfe57	0.23143898
63	0xbe1f360c	-0.15547961
64	0x3c656ba2	0.014002712
65	0xbd8f93ef	-0.07010638
66	0x3c406f9c	0.01174536
67	0x3da8f7af	0.08250367
68	0xbb83d031	-0.004022621
69	0x3cb62b6b	0.0222375
70	0xbc3d2b85	-0.01154602
71	0xbdd01c79	-0.10161681
72	0x3eeb67c4	0.45977604
73	0xbf1d2a5d	-0.61392766
74	0x3d390f6a	0.045180716
75	0xbc914950	-0.017735153
76	0x3b764fc7	0.0037584172
77	0x3d0a3c23	0.033748757
78	0xbf1283e6	-0.5723251
79	0x3ed0e327	0.40798303
80	0xbe23c2ef	-0.1599233
81	0xbd41370c	-0.047171637
82	0xbe179a86	-0.1480504
83	0x3c8df1df	0.017327247
84	0xbc9ab80a	-0.018886585
85	0x3b969981	0.004595936
86	0xbdfa6745	-0.12226728
87	0x3d2d6375	0.042331178
88	0xbd9ce2a2	-0.07660414
89	0xbe1e371c	-0.1545071
90	0xbd2d4cc8	-0.042309552
91	0xbec5b732	-0.3861633
92	0xbf0db31f	-0.5535144
93	0xbdb7f6c5	-0.089826144
94	0x3e44db2b	0.19224231
95	0xbd4efb89	-0.05053285
96	0x3bae678c	0.0053224023
97	0x3b6101f1	0.0034333433
98	0xbc910009	-0.017700212
99	0x3cb93b30	0.02261123
100	0xbcc1c1b1	-0.02365193
101	0xbc450e8b	-0.012027393
102	0x3caf856f	0.02142593
103	0x3d3203bd	0.043460596
104	0x9c75f1ca	-8.1376205e-22
105	0x9e605189	-1.1875322e-20
106	0x9e94e1e8	-1.5763542e-20
107	0x9eb0fe01	-1.8739778e-20
108	0x1ec9a258	2.1348847e-20
109	0x9eaa3214	-1.8020162e-20
110	0x1ea34f24	1.7291028e-20
111	0x1ded276e	6.2774147e-21
112	0xbca39278	-0.019967303
113	0xbd92ee07	-0.07174306
114	0xbc427bff	-0.011870383
115	0x3c4c330f	0.012463345
116	0x3d97a044	0.07403615
117	0x3e9abaf9	0.30220774
118	0x3ddc5d7a	0.10760017
119	0x3db86742	0.0900407
120	0x3c7801f9	0.015137189
121	0xbb1bdb02	-0.0023781662
122	0x3bcdbccf	0.0062786113
123	0xbd344767	-0.044013407
124	0x3c99f21e	0.018792208
125	0x3be42a72	0.0069630677
126	0xbcaece22	-0.021338526
127	0x3cd637d2	0.026149664
128	0x9ce611c3	-1.5224715e-21
129	0x9e6b8d3f	-1.24700054e-20
130	0x9e3baa54	-9.934921e-21
131	0x9cf96b06	-1.6505103e-21
132	0x1e946969	1.5713706e-20
133	0x9eebfe3f	-2.4986747e-20
134	0x9e6bf781	-1.2491979e-20
135	0x9e88f5b6	-1.4501184e-20
136	0x3e999cf9	0.30002573
137	0x3ebbd47e	0.36685556
138	0x3fc7bd4d	1.5604645
139	0x3ec1692c	0.37775552
140	0xbe9d2d75	-0.30698743
141	0xbdb22438	-0.086983144
142	0x3edba143	0.4289647
143	0x3ebf168d	0.37321892
144	0x3d94b5ec	0.07261261
145	0xbdcdd613	-0.10050597
146	0x3c832292	0.016007695
147	0x3ce5eed6	0.028067987
148	0xbc0e6b5c	-0.008692589
149	0x3c857b16	0.016294044
150	0xbdbde40e	-0.092720136
151	0x3bc34736	0.0059594167
152	0xbd38499a	-0.044992067
153	0xbbd2457b	-0.006416974
154	0x3bd98753	0.0066384464
155	0x3d514425	0.05109038
156	0xbd0346a4	-0.03204979
157	0xbca9bbca	-0.020719428
158	0xbd52158f	-0.05129009
159	0x3d3e782a	0.046501316
160	0x3c8e7d5d	0.017393762
161	0x3c899cdf	0.016798435
162	0xbcbb4fad	-0.02286514
163	0x3d6808ad	0.0566489
164	0xbc36c4dd	-0.011155334
165	0xbd80fcc1	-0.06298209
166	0xbb626589	-0.0034545383
167	0x3d04fc6b	0.032467287
168	0x3f1000de	0.56251323
169	0x3e40b8d7	0.18820511
170	0x3f92753d	1.1442028
171	0x3e162d61	0.14665748
172	0xbde3a38a	-0.11115177
173	0xbe02440e	-0.12721273
174	0x3f1169b0	0.5680189
175	0x3e01bc7e	0.1266956
176	0xbd5a7352	-0.053332634
177	0xbc7a29a4	-0.015268717
178	0xbda07fa4	-0.078368455
179	0xb9dc80c9	-0.00042057622
180	0x3af31b10	0.0018547494
181	0x3bf45607	0.0074565443
182	0xbd83152b	-0.06400522
183	0x3aedd23a	0.0018144317
184	0xbea09364	-0.3136245
185	0x3eb9c380	0.36281967
186	0xbd8e6775	-0.069533266
187	0xbd4c4354	-0.049868897
188	0x3d00b6a9	0.0314242
189	0xbd30bd66	-0.043149374
190	0x3ecc4825	0.39898792
191	0xbe66284b	-0.22476308
192	0x3c3985a8	0.01132337
193	0xbdeeebab	-0.11666044
194	0xbddaf3ed	-0.106910564
195	0x3e3b9dbe	0.18321893
196	0xbce397a7	-0.027782274
197	0xbe00b089	-0.12567343
198	0x3e5dda35	0.2166527
199	0x3e8591fd	0.26087943
200	0x3c6dc3ae	0.014511986
201	0x3d892bf7	0.06697839
202	0x3ca67e05	0.020323763
203	0x3cec4be4	0.028844781
204	0x3e3673a0	0.17817545
205	0x3e1d6917	0.1537212
206	0xbddca624	-0.10773876
207	0xbd6cdfcf	-0.057830628
208	0xbeb3cfe2	-0.3511954
209	0xbdea62cb	-0.114446245
210	0xbf13eba5	-0.5778144
211	0x3c6b190c	0.014349233
212	0x3d663c69	0.056209955
213	0x3d9b70ea	0.07589896
214	0xbed95e33	-0.4245468
215	0x3c096b90	0.008387461
216	0x3c7a783e	0.015287457
217	0xbde8b7d2	-0.11363186
218	0xbddf1f38	-0.108946264
219	0x3d619a10	0.055078566
220	0xbe3f6d26	-0.1869398
221	0x3efec029	0.49755982
222	0x3e83c936	0.2573945
223	0x3e46298c	0.19351786
224	0x3b312d63	0.002703511
225	0xbc5ca607	-0.013467318
226	0xbc75e603	-0.015008452
227	0x3cd47bb6	0.025937896
228	0x3c364986	0.011125928
229	0x3dad8de7	0.08474331
230	0x3d0e3ccb	0.034725945
231	0x3d280d6e	0.041028433
232	0x3eaac916	0.3335654
233	0x3dc6c8d7	0.09706276
234	0x3ed01238	0.406389
235	0x3d0db307	0.034594562
236	0xbd2856df	-0.04109847
237	0xbc5a70f9	-0.013332599
238	0x3e8b1c46	0.27170008
239	0xbc070994	-0.00824203
240	0xbe402fc9	-0.18768229
241	0x3e9e5611	0.30925038
242	0xbd24c49d	-0.040226568
243	0xbcefdf90	-0.029281408
244	0x3bf93cf2	0.007606142
245	0x3ba96cf9	0.0051704613
246	0x3e70ce02	0.23516086
247	0xbe12116f	-0.14264463
248	0xbc595093	-0.013263839
249	0xbcf999c0	-0.030468822
250	0xbbe5b18f	-0.007009692
251	0x3af16141	0.0018415825
252	0x3c310f3c	0.010806855
253	0xbccb9135	-0.024849514
254	0x3d2e9001	0.0426178
255	0x3d1437e5	0.036186118

model/mobilenetv2_0.35_96/expanded_conv_project/Conv2D f4 [8, 1, 1, 16]
0	0x9e6779d6	-1.2254233e-20
1	0xbfa3cf85	-1.2797705
2	0xbf72ed63	-0.94893473
3	0x3e0773ca	0.13227764
4	0x4128138f	10.504775
5	0xbc1e4d3c	-0.009661969
6	0xbd1b5b05	-0.0379286
7	0x3ceb499d	0.028721625
8	0xbcbe9e20	-0.02326876
9	0xc12de011	-10.867204
10	0xc0fabc89	-7.8355145
11	0xbe8b4e1f	-0.2720804
12	0x1e50ca37	1.1053245e-20
13	0x4120c95c	10.04916
14	0xbe813226	-0.25233573
15	0x1ed21487	2.2243105e-20
16	0x1e374e8d	9.704183e-21
17	0xc01a5ca6	-2.4119048
18	0x3e95fe8b	0.29295763
19	0x40e5f440	7.1860657
20	0x40c4d97b	6.151548
21	0x3f9201d3	1.1406807
22	0x40098151	2.1485178
23	0x3efdc98d	0.49567834
24	0x3c9afd93	0.018919742
25	0xbee81b92	-0.45333534
26	0x41300d51	11.003251
27	0xc06a2bae	-3.658916
28	0x1ec39973	2.0709893e-20
29	0x402bd8ad	2.6850998
30	0xbf89f4d1	-1.0777837
31	0xa020c03a	-1.361613e-19
32	0x1d860702	3.547675e-21
33	0xbde841d3	-0.1134068
34	0x3f4863b5	0.7827714
35	0xbf8b0374	-1.0860429
36	0xc0bf85da	-5.9850893
37	0x3f0a8b60	0.5411892
38	0x3f90edf8	1.1322622
39	0x3f42bdde	0.76070964
40	0x3cd85b4b	0.02641072
41	0x3e9abcf6	0.3022229
42	0xbfe7afa6	-1.8100479
43	0x3e1217c5	0.1426688
44	0x1e314439	9.38441e-21
45	0x4151610c	13.086193
46	0xbf526a1f	-0.8219318
47	0x9d8fa446	-3.802164e-21
48	0x9e242600	-8.689946e-21
49	0xbeddf5a8	-0.43351483
50	0xbfc832e2	-1.5640528
51	0xc0c35f2f	-6.105369
52	0x4074064f	3.812885
53	0x3f93f2d9	1.1558486
54	0x40546ac1	3.3190157
55	0x3f0abad6	0.5419134
56	0xbc949dc5	-0.018141637
57	0x4035d904	2.8413706
58	0xbd58bd85	-0.052915115
59	0x3fed9494	1.8560967
60	0x9df6c68f	-6.5320963e-21
61	0xbdcb87eb	-0.09938034
62	0x3f851b29	1.0398914
63	0x9ef30825	-2.5731994e-20
64	0x9c2af0b5	-5.655939e-22
65	0x40000c71	2.0007594
66	0xbf2101f4	-0.62893605
67	0x3fd12df8	1.6342154
68	0xc04a457d	-3.1604912
69	0x3f50cd36	0.8156313
70	0x40be0f9f	5.939407
71	0xbd892344	-0.066961795
72	0x3ab2e465	0.0013648389
73	0xc04377a7	-3.054178
74	0x3f55c79a	0.8350769
75	0xbeaca781	-0.33721545
76	0x9e70e8e9	-1.2753659e-20
77	0xbecf2eb4	-0.4046532
78	0x3f475cf7	0.7787623
79	0x1ef37e01	2.578074e-20
80	0x9e077bc2	-7.172433e-21
81	0xbfc36be8	-1.5267305
82	0xbf406183	-0.7514879
83	0x3dd7f1e8	0.10544187
84	0xc0139a10	-2.3062782
85	0xc016fa9b	-2.3590457
86	0xc00bc0c4	-2.1836405
87	0x3fe162d6	1.7608287
88	0xbc0b3fd2	-0.008499103
89	0x3f8475dd	1.0348469
90	0xbefbb77e	-0.4916343
91	0xc08cf801	-4.405274
92	0x9edabbb6	-2.3159283e-20
93	0xbf094757	-0.5362448
94	0x414ba784	12.728397
95	0xa0167ff6	-1.2747833e-19
96	0x9e19b169	-8.13644e-21
97	0x3f9819e3	1.18829
98	0xbe4d3a0a	-0.20041671
99	0xbe29ef32	-0.16595152
100	0x404c5c6d	3.1931412
101	0xbfa9c17e	-1.3262174
102	0xbfd74718	-1.6818571
103	0xbf0b0565	-0.54305106
104	0x3cea23b8	0.028581485
105	0xc0caeab2	-6.3411493
106	0x40da65a8	6.824909
107	0x4062915c	3.540122
108	0x1dc234e8	5.1406076e-21
109	0x40ed9936	7.4249525
110	0x40655b16	3.5836844
111	0x1f1c24e5	3.3064803e-20
112	0x1da40785	4.3418214e-21
113	0x3f50460b	0.8135688
114	0xbfa1c9f1	-1.2639753
115	0x40b1f6e8	5.56139
116	0x3ed76932	0.42072445
117	0xbe8a49e5	-0.27009502
118	0x3f21fe19	0.6327835
119	0x3db4b3cf	0.08823358
120	0x3a457f88	0.0007533957
121	0x403dd179	2.9659102
122	0xc01b1ebc	-2.4237509
123	0x40511a78	3.2672405
124	0x1d6f74a5	3.169169e-21
125	0xbeba31b6	-0.3636605
126	0x40077685	2.1166089
127	0x9f124029	-3.0969775e-20
