ios/GSSDKSimpleDemo/GSSDKSimpleDemo.xcarchive/Products/Applications/GSSDKSimpleDemo.app/Frameworks/GSSDK.framework/head_classif.tflite (tflite, 170384 bytes, 3 tensors)

sequential/dense_1/Tensordot/MatMul f4 [1, 128]
000000 90 5a cb be b4 e8 23 3f f5 fa 6e 3f ac 36 9c 3f
       -0.3971753 0.6402695 0.9335168 1.2204185
000010 a9 1b 0f 3f db 40 5a 3f 7b a2 2b bf 94 ad 3b bf
       0.5590158 0.8525521 -0.670448 -0.73311734
000020 f9 07 5b 3f 71 cd 49 bf 5f 77 26 bf 97 e3 7b 3f
       0.8555904 -0.78829104 -0.65025896 0.9839415
000030 ad fc 16 bf 19 22 2d bf fc 0d 82 3f 0a 09 2b 3f
       -0.589793 -0.67630154 1.0160518 0.6681067
000040 c5 99 87 3f e3 a3 83 3f 52 00 08 bf df f8 2a bf
       1.0593802 1.0284389 -0.5312549 -0.66786
000050 48 e0 72 bf 43 8c 55 3f f6 cb 44 bf ef 6a 9f 3f
       -0.94873476 0.8341715 -0.7687372 1.2454509
000060 17 ab 80 3f 4f 60 59 3f 98 62 3f bf 81 0a 16 bf
       1.0052212 0.8491258 -0.7475982 -0.5860978
000070 5a a9 37 bf 35 14 2a 3f 9c de be be 2d e8 af 3f
       -0.71742785 0.66437083 -0.37279212 1.374273
000080 7d 87 18 bf 32 3f dd be 73 b3 2a bf 84 ed 74 3f
       -0.5958174 -0.43212277 -0.6668007 0.9567492
000090 09 f2 65 3f 47 68 43 bf 44 50 72 3f 9d f5 59 3f
       0.8982244 -0.7633099 0.94653726 0.851404
0000a0 93 c3 2c bf 9e 3f 7d 3f 2b 7b 46 3f db e5 0e bf
       -0.6748592 0.989252 0.7753169 -0.5581948
0000b0 02 c5 7b 3f 58 b2 7a 3f 78 82 f6 be d6 dd 47 bf
       0.98347485 0.9792838 -0.48146415 -0.7807287
0000c0 74 31 75 3f 47 00 45 3f 35 c5 5a 3f 74 79 27 bf
       0.95778584 0.7695355 0.85457164 -0.654197
0000d0 03 b2 37 bf 43 77 6a 3f 02 49 eb be 8f 88 78 3f
       -0.71756 0.9158823 -0.45954138 0.9708337
0000e0 e8 8d 17 bf ae 1f 45 3f 6a 3b 56 3f 65 f2 3b bf
       -0.59200907 0.77001464 0.8368441 -0.7341674
0000f0 42 bb 40 3f 51 8b de be 77 5e 23 bf 76 be 65 3f
       0.7528573 -0.43465665 -0.63816017 0.89743745
000100 61 02 35 bf 15 d3 21 3f 63 e2 2e 3f 1e b9 8e 3f
       -0.70706755 0.6321271 0.6831419 1.1150243
000110 73 29 62 bf b4 1b 66 3f 46 c4 9b 3f d2 be 84 bf
       -0.88344496 0.8988602 1.2169273 -1.0370734
000120 5b 19 57 bf 6e fd 33 3f 34 57 82 3f d0 82 4d 3f
       -0.84023064 0.7030858 1.0182862 0.8027773
000130 cc 46 31 bf 54 ac 1d bf f7 24 39 bf a2 50 2d bf
       -0.6924865 -0.61591077 -0.7232203 -0.6770116
000140 4e 33 3a bf 63 54 6e 3f 78 bc 00 bf 46 68 32 bf
       -0.72734535 0.93097514 -0.5028758 -0.6969036
000150 90 c8 17 bf ca 72 95 3f 25 c2 81 bf 94 27 3f bf
       -0.5929041 1.1675656 -1.0137373 -0.74669766
000160 ec 7b 06 bf da 17 34 bf 5f 15 93 3f fc 20 29 bf
       -0.5253284 -0.70348895 1.1490897 -0.66065955
000170 f4 58 4a bf f5 b6 3d 3f 65 bf 37 bf c7 9e d7 be
       -0.7904198 0.74107295 -0.7177642 -0.42113325
000180 c6 6f ae 3f 3a d2 5f bf 5d b8 2e bf 8e e3 91 3f
       1.362786 -0.87430155 -0.68250066 1.1397569
000190 5d 94 b6 be 6b 9d 92 3f 48 45 7c 3f fc d8 0e bf
       -0.35660067 1.145429 0.98543215 -0.5579984
0001a0 d3 de fd be a5 fc a0 3f b2 c9 35 bf 5b ff 79 3f
       -0.49584064 1.2577101 -0.7101089 0.97655267
0001b0 48 49 43 bf e3 85 75 3f 68 83 3b bf 0c 96 1f bf
       -0.76283693 0.9590742 -0.73247385 -0.6233833
0001c0 f1 b2 67 3f 87 6d a0 3f 1a b0 39 bf 90 fa 80 3f
       0.9050742 1.2533425 -0.72534335 1.0076466
0001d0 12 e0 81 3f cb cd 60 3f 3b 75 13 bf ee 60 a3 3f
       1.0146506 0.87814015 -0.57600754 1.2763956
0001e0 57 0e 3b bf 60 65 4a bf f7 49 59 bf d9 19 4e bf
       -0.73068756 -0.79060936 -0.84878486 -0.8050819
0001f0 ac 07 16 bf 6e 64 1e 3f db ea 1f bf e8 01 22 bf
       -0.58605456 0.61871994 -0.62467736 -0.6328416

sequential/dense/BiasAdd/ReadVariableOp f4 [128]
000000 13 33 81 bc a9 90 e7 3d 70 1e 15 3e 27 cb 03 3e
       -0.015771424 0.113068886 0.14562392 0.12870465
000010 8d 21 0e 3e a2 84 c8 3d 74 e5 a5 bc 1a 6d be bb
       0.13879986 0.09790923 -0.020251013 -0.0058113458
000020 83 b0 98 3d c4 d0 a8 bb 19 6b 6e bc 1d 80 dd 3d
       0.07455542 -0.00515184 -0.014551901 0.10815451
000030 93 dd 20 3c 87 33 74 3c e3 5e 15 3e 48 16 10 3e
       0.009818452 0.014904863 0.14586978 0.14071
000040 91 13 eb 3d 54 88 07 3e 96 bb c0 bc 28 4a a0 3c
       0.11478341 0.13235599 -0.023526948 0.01956661
000050 ce 7d da bb 5b 2b fc 3d 29 fc a3 3c 40 0f 03 3e
       -0.006667829 0.12312957 0.0200177 0.12798786
000060 3b e2 11 3e 2d 7e c9 3d 70 2b e1 3b 35 61 26 3c
       0.14246456 0.09838519 0.006871633 0.010155012
000070 a0 31 a1 bb 13 28 d4 3d bc a7 ed bc b7 a7 e4 3d
       -0.004919246 0.10359206 -0.029010646 0.111648016
000080 ee 89 2e bc 33 8c ac bc 24 44 88 3c 68 67 e8 3d
       -0.010653002 -0.021062946 0.016634054 0.11347848
000090 04 a1 04 3e be 81 6f 3c 98 39 ce 3d a5 20 e0 3d
       0.12952048 0.014618335 0.10069579 0.109437265
0000a0 84 e5 46 3c 10 c1 c3 3d b0 cf 03 3e 56 2d 41 bc
       0.012139682 0.09558308 0.12872195 -0.011790594
0000b0 87 f0 06 3e ab 3c 0c 3e 2f 5b b4 bc 9d 24 d1 bc
       0.13177691 0.13695018 -0.022016136 -0.025530154
0000c0 32 9c fe 3d 3b 77 ef 3d 3c f0 df 3d 91 69 a5 bc
       0.12432136 0.11692663 0.10934493 -0.02019194
0000d0 bc 86 12 3c 64 b3 ee 3d fe cd 9b bc a5 d5 05 3e
       0.008943256 0.1165531 -0.019019123 0.1306978
0000e0 38 34 e2 bb 1c 7d 0f 3e 1e 73 e7 3d a1 d3 76 38
       -0.0069031976 0.14012569 0.11301254 5.8848065e-05
0000f0 5b 4b f8 3d 03 5e b8 bc 09 1b b5 bc 0f 22 da 3d
       0.12123748 -0.022505766 -0.022107618 0.106510274
000100 44 0a 91 bc 0b 59 e5 3d 77 f1 d8 3d d9 e4 08 3e
       -0.01770509 0.11198624 0.10592931 0.13368548
000110 d9 6d 1d bd ff 1a e0 3d 9d 45 f4 3d ec 87 29 3c
       -0.038434837 0.10942649 0.1192734 0.010347348
000120 ea 1e 7b bc 13 4d b5 3d f0 e4 c1 3d 8e d2 f6 3d
       -0.015327195 0.08852591 0.094674945 0.12051879
000130 75 23 b2 3c 0e 55 9d bc 36 a7 95 3b 67 ef 76 bc
       0.021745423 -0.019205596 0.0045670522 -0.015071726
000140 92 0a 5d 3c 26 fb e3 3d 57 d0 3d ba 17 90 de bb
       0.01349129 0.11131887 -0.0007240823 -0.006792079
000150 5b 14 a3 bc 12 f5 e3 3d de fa 2e bd b8 b0 e3 3b
       -0.019907167 0.11130728 -0.042719714 0.0069485568
000160 19 86 85 3c e9 29 cf 3b c3 9e f6 3d 6b 10 d4 bc
       0.016299294 0.0063221348 0.12042 -0.025886735
000170 b9 c4 ea 3a 4a d1 f6 3d 6e 7c 17 bc ce 90 90 bc
       0.0017911411 0.120516375 -0.009245975 -0.017647173
000180 a6 bc 07 3e 9c 06 87 bc 24 30 44 bc e5 d8 e9 3d
       0.13255557 -0.016482644 -0.011974368 0.114183225
000190 13 ef ce bc a0 5d e5 3d 10 ad 1a 3e 81 1a 93 bc
       -0.025260484 0.11199498 0.1510508 -0.017956974
0001a0 41 da 21 bc bc 44 01 3e 2a 93 23 bc 22 2e dd 3d
       -0.009878696 0.12623876 -0.009983817 0.10799815
0001b0 4d 11 9d bc b8 ed e7 3d 1d a5 04 3c 4a 1f 8c 3b
       -0.019173289 0.11324638 0.008096007 0.004276191
0001c0 15 36 f3 3d 48 ba 0f 3e 0e bb 9a bc 2f e7 0d 3e
       0.1187555 0.14035904 -0.018888023 0.13857721
0001d0 66 0d 0d 3e 35 fb d6 3d 5e 7d bf bb b8 59 fb 3d
       0.13774642 0.10497133 -0.0058438024 0.12272972
0001e0 56 1e 2d 3c 03 e7 81 bc ee b4 b5 bc 88 ad af bb
       0.010566315 -0.015857225 -0.022181 -0.0053612627
0001f0 eb 68 ac bc a7 85 e3 3d 60 ae e7 bc 02 68 a7 3c
       -0.021046123 0.111094765 -0.02828139 0.020435337

sequential/dense/Tensordot/MatMul1 i1 [128, 1280] scale=0.0114251105 zero_point=0
000000 1e 0a 05 03 13 1f f7 0e fa 08 05 fd eb 02 00 fa
       0.34275332 0.11425111 0.057125553 0.03427533 0.2170771 0.35417843 -0.10282599 0.15995155 -0.06855066 0.091400884 0.057125553 -0.03427533 -0.23992732 0.022850221 0.0 -0.06855066
000010 fc fe 09 09 ff 03 01 00 0d ef 05 fc 05 06 04 32
       -0.045700442 -0.022850221 0.10282599 0.10282599 -0.0114251105 0.03427533 0.0114251105 0.0 0.14852643 -0.19422688 0.057125553 -0.045700442 0.057125553 0.06855066 0.045700442 0.5712555
000020 17 03 f0 06 fd 02 0e ff df 0b f3 02 f8 12 01 e4
       0.26277754 0.03427533 -0.18280177 0.06855066 -0.03427533 0.022850221 0.15995155 -0.0114251105 -0.37702864 0.12567621 -0.14852643 0.022850221 -0.091400884 0.20565198 0.0114251105 -0.3199031
000030 01 03 c3 22 f1 15 19 fa 03 0b db 3c fb 01 03 05
       0.0114251105 0.03427533 -0.6969317 0.38845375 -0.17137666 0.23992732 0.28562775 -0.06855066 0.03427533 0.12567621 -0.42272907 0.68550664 -0.057125553 0.0114251105 0.03427533 0.057125553
000040 01 19 03 ff 03 fe e8 fe fb fb 00 02 ff 08 06 f1
       0.0114251105 0.28562775 0.03427533 -0.0114251105 0.03427533 -0.022850221 -0.27420264 -0.022850221 -0.057125553 -0.057125553 0.0 0.022850221 -0.0114251105 0.091400884 0.06855066 -0.17137666
000050 05 12 fe 07 02 1d 0a 05 30 04 fb 15 ec fe fd 13
       0.057125553 0.20565198 -0.022850221 0.07997578 0.022850221 0.3313282 0.11425111 0.057125553 0.5484053 0.045700442 -0.057125553 0.23992732 -0.22850221 -0.022850221 -0.03427533 0.2170771
000060 05 00 24 16 06 00 fa fb 02 c2 00 04 02 00 04 01
       0.057125553 0.0 0.41130397 0.25135243 0.06855066 0.0 -0.06855066 -0.057125553 0.022850221 -0.70835686 0.0 0.045700442 0.022850221 0.0 0.045700442 0.0114251105
000070 0e 12 03 0a ff 01 06 fd 29 fc 07 f1 01 f2 01 f3
       0.15995155 0.20565198 0.03427533 0.11425111 -0.0114251105 0.0114251105 0.06855066 -0.03427533 0.46842954 -0.045700442 0.07997578 -0.17137666 0.0114251105 -0.15995155 0.0114251105 -0.14852643
000080 f4 1b 02 f0 fa 14 0d 00 0a 0e 05 11 fc fd 33 ff
       -0.13710132 0.308478 0.022850221 -0.18280177 -0.06855066 0.22850221 0.14852643 0.0 0.11425111 0.15995155 0.057125553 0.19422688 -0.045700442 -0.03427533 0.58268064 -0.0114251105
000090 06 e7 fc fa ff 11 ff 02 0b fb fc 03 dc 29 03 01
       0.06855066 -0.28562775 -0.045700442 -0.06855066 -0.0114251105 0.19422688 -0.0114251105 0.022850221 0.12567621 -0.057125553 -0.045700442 0.03427533 -0.41130397 0.46842954 0.03427533 0.0114251105
0000a0 fc 06 f4 19 fd ee 07 ed 00 dd ff 0a 01 e4 01 f4
       -0.045700442 0.06855066 -0.13710132 0.28562775 -0.03427533 -0.20565198 0.07997578 -0.2170771 0.0 -0.39987886 -0.0114251105 0.11425111 0.0114251105 -0.3199031 0.0114251105 -0.13710132
0000b0 01 02 0f ed 03 0b fe 09 f9 02 01 04 fa 03 0a 01
       0.0114251105 0.022850221 0.17137666 -0.2170771 0.03427533 0.12567621 -0.022850221 0.10282599 -0.07997578 0.022850221 0.0114251105 0.045700442 -0.06855066 0.03427533 0.11425111 0.0114251105
0000c0 12 22 0f 0a 1e 02 f0 da 05 ff 14 f1 fe fd f4 fa
       0.20565198 0.38845375 0.17137666 0.11425111 0.34275332 0.022850221 -0.18280177 -0.4341542 0.057125553 -0.0114251105 0.22850221 -0.17137666 -0.022850221 -0.03427533 -0.13710132 -0.06855066
0000d0 03 16 f6 f9 09 00 fc ee ef 0d f7 ff 21 fe 06 02
       0.03427533 0.25135243 -0.11425111 -0.07997578 0.10282599 0.0 -0.045700442 -0.20565198 -0.19422688 0.14852643 -0.10282599 -0.0114251105 0.37702864 -0.022850221 0.06855066 0.022850221
0000e0 ed 34 05 03 fc e7 03 ff 02 fe 00 f7 fd 0e 0e f7
       -0.2170771 0.5941057 0.057125553 0.03427533 -0.045700442 -0.28562775 0.03427533 -0.0114251105 0.022850221 -0.022850221 0.0 -0.10282599 -0.03427533 0.15995155 0.15995155 -0.10282599
0000f0 15 ef 17 fd ed 04 fc f3 fd 04 2a 07 00 1d fa 02
       0.23992732 -0.19422688 0.26277754 -0.03427533 -0.2170771 0.045700442 -0.045700442 -0.14852643 -0.03427533 0.045700442 0.47985464 0.07997578 0.0 0.3313282 -0.06855066 0.022850221
