ios/GSSDKSimpleDemo/GSSDKSimpleDemo.xcarchive/Products/Applications/GSSDKSimpleDemo.app/Frameworks/GSSDK.framework/mobilenetV2_orientation_quant_opti.tflite (tflite, 676368 bytes, 53 tensors)

sequential/dense/MatMul/ReadVariableOp/transpose i1 [4, 1280] scale=0.0032302102 zero_point=0
0	0xe8	-0.07752504
1	0x14	0.0646042
2	0x20	0.103366725
3	0xe4	-0.09044588
4	0xf9	-0.02261147
5	0xc0	-0.20673345
6	0xdf	-0.10659693
7	0xf7	-0.029071892
8	0xce	-0.16151051
9	0x2f	0.15181988
10	0xfc	-0.012920841
11	0xfd	-0.00969063
12	0x01	0.0032302102
13	0xbe	-0.21319386
14	0x0d	0.04199273
15	0x18	0.07752504
16	0xba	-0.2261147
17	0xf6	-0.0323021
18	0x42	0.21319386
19	0xf0	-0.051683363
20	0xf5	-0.03553231
21	0x14	0.0646042
22	0x97	-0.33917207
23	0xe9	-0.074294835
24	0x09	0.029071892
25	0xe1	-0.10013652
26	0x0b	0.03553231
27	0xe7	-0.080755256
28	0xfb	-0.01615105
29	0xf2	-0.04522294
30	0xf6	-0.0323021
31	0x05	0.01615105
32	0x03	0.00969063
33	0xe8	-0.07752504
34	0x10	0.051683363
35	0x1f	0.10013652
36	0x2a	0.13566883
37	0xed	-0.061373994
38	0xe7	-0.080755256
39	0x07	0.02261147
40	0x07	0.02261147
41	0xe7	-0.080755256
42	0x0e	0.04522294
43	0xf4	-0.03876252
44	0xe3	-0.0936761
45	0x0e	0.04522294
46	0x11	0.054913573
47	0xce	-0.16151051
48	0x09	0.029071892
49	0xfc	-0.012920841
50	0xe9	-0.074294835
51	0x0e	0.04522294
52	0x1a	0.08398546
53	0xce	-0.16151051
54	0x1d	0.0936761
55	0x11	0.054913573
56	0x21	0.10659693
57	0xf5	-0.03553231
58	0xc7	-0.18412198
59	0xd4	-0.14212924
60	0xfd	-0.00969063
61	0xe0	-0.103366725
62	0xe3	-0.0936761
63	0xc4	-0.19381261
64	0xe9	-0.074294835
65	0xdb	-0.11951777
66	0x08	0.025841681
67	0x1a	0.08398546
68	0xeb	-0.067834415
69	0xdf	-0.10659693
70	0xf2	-0.04522294
71	0xf0	-0.051683363
72	0xf1	-0.048453152
73	0x07	0.02261147
74	0xfc	-0.012920841
75	0x05	0.01615105
76	0x01	0.0032302102
77	0xda	-0.12274799
78	0x26	0.12274799
79	0xc5	-0.1905824
80	0xff	-0.0032302102
81	0x29	0.13243861
82	0x12	0.058143783
83	0x05	0.01615105
84	0xe5	-0.08721568
85	0x2d	0.14535946
86	0xea	-0.07106462
87	0xf7	-0.029071892
88	0x15	0.067834415
89	0x02	0.0064604203
90	0x23	0.11305735
91	0x18	0.07752504
92	0x00	0.0
93	0xbd	-0.21642408
94	0x07	0.02261147
95	0xef	-0.054913573
96	0xf1	-0.048453152
97	0xee	-0.058143783
98	0x04	0.012920841
99	0xe2	-0.096906304
100	0xfc	-0.012920841
101	0xf5	-0.03553231
102	0xef	-0.054913573
103	0xce	-0.16151051
104	0x0a	0.0323021
105	0xc0	-0.20673345
106	0x1b	0.08721568
107	0xd5	-0.13889904
108	0xb8	-0.23257513
109	0x19	0.080755256
110	0xf4	-0.03876252
111	0xf7	-0.029071892
112	0x02	0.0064604203
113	0xf0	-0.051683363
114	0xf8	-0.025841681
115	0x1c	0.09044588
116	0x0f	0.048453152
117	0xe2	-0.096906304
118	0xfb	-0.01615105
119	0x12	0.058143783
120	0x13	0.061373994
121	0x12	0.058143783
122	0xe5	-0.08721568
123	0xf3	-0.04199273
124	0xf6	-0.0323021
125	0xec	-0.0646042
126	0xce	-0.16151051
127	0x0b	0.03553231
128	0xcf	-0.1582803
129	0xdf	-0.10659693
130	0x12	0.058143783
131	0xf0	-0.051683363
132	0xec	-0.0646042
133	0xf4	-0.03876252
134	0x17	0.074294835
135	0x0c	0.03876252
136	0x13	0.061373994
137	0xf6	-0.0323021
138	0xe2	-0.096906304
139	0xdb	-0.11951777
140	0xd0	-0.15505008
141	0x05	0.01615105
142	0x1f	0.10013652
143	0xee	-0.058143783
144	0xf0	-0.051683363
145	0xe8	-0.07752504
146	0xee	-0.058143783
147	0x0f	0.048453152
148	0x21	0.10659693
149	0xb8	-0.23257513
150	0x12	0.058143783
151	0xe1	-0.10013652
152	0xf4	-0.03876252
153	0x16	0.07106462
154	0xfe	-0.0064604203
155	0x0f	0.048453152
156	0xfd	-0.00969063
157	0x04	0.012920841
158	0xe7	-0.080755256
159	0xf5	-0.03553231
160	0xf0	-0.051683363
161	0xee	-0.058143783
162	0xd0	-0.15505008
163	0x0b	0.03553231
164	0xf5	-0.03553231
165	0x0b	0.03553231
166	0x0c	0.03876252
167	0x07	0.02261147
168	0xf4	-0.03876252
169	0x1d	0.0936761
170	0x26	0.12274799
171	0x14	0.0646042
172	0xe1	-0.10013652
173	0xfd	-0.00969063
174	0x26	0.12274799
175	0x1d	0.0936761
176	0x16	0.07106462
177	0xf5	-0.03553231
178	0x17	0.074294835
179	0x12	0.058143783
180	0x0d	0.04199273
181	0x02	0.0064604203
182	0xf0	-0.051683363
183	0x05	0.01615105
184	0xf3	-0.04199273
185	0x03	0.00969063
186	0x1f	0.10013652
187	0x2b	0.13889904
188	0x05	0.01615105
189	0x16	0.07106462
190	0x03	0.00969063
191	0x0d	0.04199273
192	0xe8	-0.07752504
193	0x11	0.054913573
194	0xf5	-0.03553231
195	0x3c	0.19381261
196	0xe7	-0.080755256
197	0x09	0.029071892
198	0xf7	-0.029071892
199	0x07	0.02261147
200	0xf3	-0.04199273
201	0x27	0.1259782
202	0x03	0.00969063
203	0x0d	0.04199273
204	0xe0	-0.103366725
205	0x22	0.109827146
206	0xf1	-0.048453152
207	0xfb	-0.01615105
208	0x13	0.061373994
209	0xef	-0.054913573
210	0x1f	0.10013652
211	0xf1	-0.048453152
212	0xf7	-0.029071892
213	0xd7	-0.13243861
214	0xe4	-0.09044588
215	0x0c	0.03876252
216	0xe2	-0.096906304
217	0x49	0.23580535
218	0x12	0.058143783
219	0xe6	-0.08398546
220	0xc8	-0.18089177
221	0xf8	-0.025841681
222	0xfd	-0.00969063
223	0xeb	-0.067834415
224	0xec	-0.0646042
225	0xed	-0.061373994
226	0xd9	-0.1259782
227	0x1a	0.08398546
228	0x0e	0.04522294
229	0x14	0.0646042
230	0xf0	-0.051683363
231	0xe5	-0.08721568
232	0xfe	-0.0064604203
233	0xcf	-0.1582803
234	0x05	0.01615105
235	0xe5	-0.08721568
236	0x11	0.054913573
237	0xea	-0.07106462
238	0xff	-0.0032302102
239	0xe7	-0.080755256
240	0xc9	-0.17766155
241	0x9d	-0.3197908
242	0x04	0.012920841
243	0xea	-0.07106462
244	0xf6	-0.0323021
245	0xe5	-0.08721568
246	0xf9	-0.02261147
247	0xe9	-0.074294835
248	0x1e	0.096906304
249	0xf7	-0.029071892
250	0x11	0.054913573
251	0x1b	0.08721568
252	0x1d	0.0936761
253	0xe4	-0.09044588
254	0x10	0.051683363
255	0xc0	-0.20673345

sequential/mobilenetv2_0.35_224/Conv1/Conv2D/ReadVariableOp i1 [16, 3, 3, 3]
0	0x31	49
1	0x32	50
2	0x1f	31
3	0xc6	-58
4	0x81	-127
5	0xe1	-31
6	0x20	32
7	0x2a	42
8	0x0d	13
9	0x19	25
10	0x1e	30
11	0x13	19
12	0xcc	-52
13	0x94	-108
14	0xe5	-27
15	0x36	54
16	0x3b	59
17	0x10	16
18	0xfb	-5
19	0xf5	-11
20	0xfc	-4
21	0x00	0
22	0xf6	-10
23	0xff	-1
24	0x0d	13
25	0xff	-1
26	0x02	2
27	0xfd	-3
28	0xea	-22
29	0x0d	13
30	0x18	24
31	0x05	5
32	0x53	83
33	0x30	48
34	0x16	22
35	0x7f	127
36	0xf8	-8
37	0xf0	-16
38	0x01	1
39	0xf6	-10
40	0xe5	-27
41	0x08	8
42	0x0d	13
43	0xf6	-10
44	0x15	21
45	0x0a	10
46	0xf4	-12
47	0x1a	26
48	0x17	23
49	0x05	5
50	0x35	53
51	0x0a	10
52	0xf6	-10
53	0x26	38
54	0xd1	-47
55	0x98	-104
56	0xfa	-6
57	0xcd	-51
58	0x81	-127
59	0x00	0
60	0xf2	-14
61	0xd1	-47
62	0x0c	12
63	0x2b	43
64	0x44	68
65	0x34	52
66	0x02	2
67	0x1a	26
68	0x18	24
69	0xed	-19
70	0xe6	-26
71	0x02	2
72	0x1e	30
73	0x23	35
74	0x01	1
75	0x25	37
76	0x3f	63
77	0x11	17
78	0x14	20
79	0xff	-1
80	0x12	18
81	0x00	0
82	0x00	0
83	0x00	0
84	0x00	0
85	0x00	0
86	0x00	0
87	0x00	0
88	0x00	0
89	0x00	0
90	0x00	0
91	0x00	0
92	0x00	0
93	0x00	0
94	0x00	0
95	0x00	0
96	0x00	0
97	0x00	0
98	0x00	0
99	0x00	0
100	0x00	0
101	0x00	0
102	0x00	0
103	0x00	0
104	0x00	0
105	0x00	0
106	0x00	0
107	0x00	0
108	0x1d	29
109	0x6c	108
110	0x17	23
111	0xfe	-2
112	0xe9	-23
113	0xf7	-9
114	0xf7	-9
115	0x01	1
116	0xef	-17
117	0x32	50
118	0x7f	127
119	0x27	39
120	0xe0	-32
121	0xc4	-60
122	0xe5	-27
123	0x07	7
124	0x0d	13
125	0x01	1
126	0x03	3
127	0x20	32
128	0x0a	10
129	0xf1	-15
130	0xec	-20
131	0xf5	-11
132	0x08	8
133	0x0e	14
134	0x04	4
135	0x00	0
136	0x00	0
137	0x00	0
138	0x00	0
139	0x00	0
140	0x00	0
141	0x00	0
142	0x00	0
143	0x00	0
144	0x00	0
145	0x00	0
146	0x00	0
147	0x00	0
148	0x00	0
149	0x00	0
150	0x00	0
151	0x00	0
152	0x00	0
153	0x00	0
154	0x00	0
155	0x00	0
156	0x00	0
157	0x00	0
158	0x00	0
159	0x00	0
160	0x00	0
161	0x00	0
162	0xaa	-86
163	0xc8	-56
164	0x81	-127
165	0x18	24
166	0xc1	-63
167	0x91	-111
168	0x39	57
169	0xe3	-29
170	0xa0	-96
171	0xd5	-43
172	0xce	-50
173	0x8a	-118
174	0x57	87
175	0xd7	-41
176	0xa6	-90
177	0x51	81
178	0x15	21
179	0xe2	-30
180	0x2d	45
181	0x12	18
182	0xcb	-53
183	0x2b	43
184	0xec	-20
185	0xb9	-71
186	0x1a	26
187	0x30	48
188	0x0e	14
189	0x00	0
190	0x00	0
191	0x00	0
192	0x00	0
193	0x00	0
194	0x00	0
195	0x00	0
196	0x00	0
197	0x00	0
198	0x00	0
199	0x00	0
200	0x00	0
201	0x00	0
202	0x00	0
203	0x00	0
204	0x00	0
205	0x00	0
206	0x00	0
207	0x00	0
208	0x00	0
209	0x00	0
210	0x00	0
211	0x00	0
212	0x00	0
213	0x00	0
214	0x00	0
215	0x00	0
216	0xf0	-16
217	0xc3	-61
218	0xff	-1
219	0xfe	-2
220	0xcf	-49
221	0x07	7
222	0x07	7
223	0xd4	-44
224	0x06	6
225	0xe6	-26
226	0xbc	-68
227	0x09	9
228	0xc4	-60
229	0x81	-127
230	0x03	3
231	0xdf	-33
232	0xce	-50
233	0xf7	-9
234	0xf2	-14
235	0xf2	-14
236	0x19	25
237	0xe7	-25
238	0xef	-17
239	0x21	33
240	0xe7	-25
241	0xf4	-12
242	0x05	5
243	0xca	-54
244	0x02	2
245	0xec	-20
246	0xeb	-21
247	0x1d	29
248	0xf4	-12
249	0x04	4
250	0xf5	-11
251	0xfd	-3
252	0xe7	-25
253	0x07	7
254	0x0b	11
255	0xf8	-8

sequential/mobilenetv2_0.35_224/Conv_1/Conv2D/ReadVariableOp i1 [1280, 1, 1, 112]
0	0x34	52
1	0xc2	-62
2	0xe4	-28
3	0xde	-34
4	0xe0	-32
5	0xd8	-40
6	0xd8	-40
7	0x00	0
8	0x22	34
9	0xfd	-3
10	0xf8	-8
11	0xe9	-23
12	0x14	20
13	0xff	-1
14	0xc8	-56
15	0x03	3
16	0xaa	-86
17	0x3a	58
18	0x3d	61
19	0x24	36
20	0xff	-1
21	0xf2	-14
22	0xb0	-80
23	0xea	-22
24	0x1a	26
25	0xce	-50
26	0x2a	42
27	0x12	18
28	0xf2	-14
29	0xf7	-9
30	0xed	-19
31	0x38	56
32	0xd4	-44
33	0x19	25
34	0x88	-120
35	0xf1	-15
36	0x25	37
37	0x33	51
38	0xc4	-60
39	0x1e	30
40	0xf7	-9
41	0xd4	-44
42	0x89	-119
43	0xd7	-41
44	0xed	-19
45	0x3a	58
46	0x39	57
47	0x05	5
48	0xf9	-7
49	0x09	9
50	0x49	73
51	0x1f	31
52	0x1b	27
53	0xd0	-48
54	0xc3	-61
55	0x3b	59
56	0x48	72
57	0xf4	-12
58	0xab	-85
59	0xff	-1
60	0xff	-1
61	0xa7	-89
62	0x90	-112
63	0x14	20
64	0xd3	-45
65	0xe1	-31
66	0x2c	44
67	0xc0	-64
68	0xe5	-27
69	0xa5	-91
70	0x7f	127
71	0x4a	74
72	0x04	4
73	0xc3	-61
74	0xe9	-23
75	0x6b	107
76	0x22	34
77	0xa8	-88
78	0x04	4
79	0x21	33
80	0x3b	59
81	0x1c	28
82	0xe3	-29
83	0xd8	-40
84	0x08	8
85	0x9a	-102
86	0xa8	-88
87	0x0c	12
88	0xe0	-32
89	0xcd	-51
90	0x24	36
91	0x1a	26
92	0xa8	-88
93	0xe6	-26
94	0x26	38
95	0x12	18
96	0x29	41
97	0x8a	-118
98	0xd5	-43
99	0x26	38
100	0x70	112
101	0x08	8
102	0xe3	-29
103	0x44	68
104	0xf4	-12
105	0xe6	-26
106	0x58	88
107	0x0b	11
108	0x1a	26
109	0xca	-54
110	0xdc	-36
111	0x45	69
112	0x13	19
113	0xbb	-69
114	0xe1	-31
115	0xea	-22
116	0xe5	-27
117	0xdd	-35
118	0x18	24
119	0x29	41
120	0x22	34
121	0xf1	-15
122	0x4a	74
123	0xe3	-29
124	0xd8	-40
125	0xbc	-68
126	0x14	20
127	0xec	-20
128	0x81	-127
129	0xee	-18
130	0x27	39
131	0x01	1
132	0xf4	-12
133	0x24	36
134	0xea	-22
135	0xd0	-48
136	0x1d	29
137	0xde	-34
138	0x08	8
139	0xee	-18
140	0x08	8
141	0x00	0
142	0xba	-70
143	0xe1	-31
144	0xd9	-39
145	0xf8	-8
146	0xdd	-35
147	0x38	56
148	0x35	53
149	0x12	18
150	0x33	51
151	0xd0	-48
152	0x19	25
153	0xec	-20
154	0xe2	-30
155	0xc2	-62
156	0x20	32
157	0x32	50
158	0x3e	62
159	0x09	9
160	0x3c	60
161	0x24	36
162	0x08	8
163	0xb7	-73
164	0x12	18
165	0x02	2
166	0xb7	-73
167	0xfa	-6
168	0x40	64
169	0xeb	-21
170	0xb0	-80
171	0xcc	-52
172	0x33	51
173	0xe0	-32
174	0xf0	-16
175	0xde	-34
176	0xba	-70
177	0xdd	-35
178	0xe7	-25
179	0xd0	-48
180	0xe5	-27
181	0x1f	31
182	0x2e	46
183	0x1a	26
184	0x29	41
185	0xbe	-66
186	0xce	-50
187	0x3c	60
188	0x99	-103
189	0xe0	-32
190	0xf5	-11
191	0x47	71
192	0x2c	44
193	0x00	0
194	0x11	17
195	0xe7	-25
196	0xfa	-6
197	0xb6	-74
198	0xbb	-69
199	0x01	1
200	0x26	38
201	0xfd	-3
202	0xd1	-47
203	0x0c	12
204	0xe4	-28
205	0xd1	-47
206	0x19	25
207	0xa9	-87
208	0x0f	15
209	0xd5	-43
210	0xc2	-62
211	0xe9	-23
212	0x5c	92
213	0x31	49
214	0xf0	-16
215	0x2e	46
216	0xe1	-31
217	0x9b	-101
218	0x0d	13
219	0x2c	44
220	0x53	83
221	0xf6	-10
222	0xe4	-28
223	0xfb	-5
224	0xff	-1
225	0x1a	26
226	0xfc	-4
227	0xf9	-7
228	0x26	38
229	0x17	23
230	0xbf	-65
231	0x09	9
232	0xd4	-44
233	0xd7	-41
234	0x2f	47
235	0xc1	-63
236	0xe8	-24
237	0xb5	-75
238	0xf5	-11
239	0x29	41
240	0xf7	-9
241	0xe7	-25
242	0x0a	10
243	0xef	-17
244	0xef	-17
245	0x08	8
246	0x3c	60
247	0xf8	-8
248	0xea	-22
249	0xff	-1
250	0x24	36
251	0xfb	-5
252	0x0c	12
253	0x0d	13
254	0x0b	11
255	0xd3	-45

sequential/mobilenetv2_0.35_224/block_10_depthwise/depthwise/ReadVariableOp i1 [1, 3, 3, 144]
0	0xeb	-21
1	0x00	0
2	0xfa	-6
3	0xd2	-46
4	0x08	8
5	0x2d	45
6	0xf8	-8
7	0x17	23
8	0x2c	44
9	0xdd	-35
10	0x04	4
11	0xf3	-13
12	0xff	-1
13	0xff	-1
14	0x21	33
15	0xfe	-2
16	0xdb	-37
17	0xfb	-5
18	0xdf	-33
19	0x15	21
20	0x0b	11
21	0xeb	-21
22	0xfe	-2
23	0xec	-20
24	0x09	9
25	0x09	9
26	0xc6	-58
27	0x03	3
28	0xc5	-59
29	0xf7	-9
30	0x31	49
31	0x1e	30
32	0x1c	28
33	0x20	32
34	0x21	33
35	0xb5	-75
36	0x83	-125
37	0xf1	-15
38	0xd1	-47
39	0x03	3
40	0xfc	-4
41	0x06	6
42	0xf5	-11
43	0x0e	14
44	0xf7	-9
45	0x10	16
46	0xf8	-8
47	0xfe	-2
48	0xfe	-2
49	0xa6	-90
50	0xe3	-29
51	0x0c	12
52	0xf8	-8
53	0x19	25
54	0xec	-20
55	0xfb	-5
56	0x02	2
57	0xde	-34
58	0x07	7
59	0xfc	-4
60	0xf1	-15
61	0xb2	-78
62	0x43	67
63	0x1c	28
64	0x36	54
65	0xfe	-2
66	0x02	2
67	0xc7	-57
68	0x0c	12
69	0x01	1
70	0xc2	-62
71	0x22	34
72	0xd9	-39
73	0xfb	-5
74	0x01	1
75	0xa5	-91
76	0x81	-127
77	0xdd	-35
78	0x09	9
79	0x23	35
80	0xd6	-42
81	0xec	-20
82	0x07	7
83	0x10	16
84	0x04	4
85	0x0a	10
86	0x19	25
87	0xbd	-67
88	0x28	40
89	0xf7	-9
90	0x24	36
91	0x04	4
92	0x44	68
93	0x0e	14
94	0x0f	15
95	0xfe	-2
96	0xf5	-11
97	0x92	-110
98	0xd7	-41
99	0xed	-19
100	0xe8	-24
101	0xf6	-10
102	0xfa	-6
103	0xfc	-4
104	0x30	48
105	0x11	17
106	0xed	-19
107	0x3d	61
108	0x0a	10
109	0x0d	13
110	0xe3	-29
111	0xcc	-52
112	0x12	18
113	0x0b	11
114	0xf9	-7
115	0xe8	-24
116	0xfd	-3
117	0xda	-38
118	0x1d	29
119	0xf9	-7
120	0xda	-38
121	0xf3	-13
122	0x55	85
123	0xf3	-13
124	0x1d	29
125	0xe2	-30
126	0x04	4
127	0x2c	44
128	0x3c	60
129	0xfc	-4
130	0x12	18
131	0x24	36
132	0xfc	-4
133	0x0e	14
134	0xdb	-37
135	0x1c	28
136	0x0a	10
137	0xe9	-23
138	0xf3	-13
139	0x06	6
140	0xfa	-6
141	0xf6	-10
142	0x81	-127
143	0xd1	-47
144	0x0b	11
145	0x23	35
146	0x12	18
147	0xc5	-59
148	0x11	17
149	0xe5	-27
150	0xb1	-79
151	0x3d	61
152	0x7f	127
153	0xe9	-23
154	0xd9	-39
155	0xf4	-12
156	0x11	17
157	0x09	9
158	0x2c	44
159	0x14	20
160	0x9d	-99
161	0x1f	31
162	0x0f	15
163	0x21	33
164	0x07	7
165	0xe6	-26
166	0x06	6
167	0xf5	-11
168	0xcb	-53
169	0x09	9
170	0x0d	13
171	0xe3	-29
172	0xf5	-11
173	0x9e	-98
174	0xc0	-64
175	0x27	39
176	0x1d	29
177	0x7f	127
178	0x7f	127
179	0xac	-84
180	0x84	-124
181	0x10	16
182	0x05	5
183	0x2e	46
184	0xe3	-29
185	0xfa	-6
186	0xfd	-3
187	0xef	-17
188	0xc9	-55
189	0xf7	-9
190	0x0f	15
191	0x05	5
192	0xff	-1
193	0x8f	-113
194	0x28	40
195	0x23	35
196	0x0d	13
197	0xf4	-12
198	0xf5	-11
199	0x25	37
200	0x00	0
201	0xc7	-57
202	0x17	23
203	0x2b	43
204	0xdc	-36
205	0xeb	-21
206	0x60	96
207	0x2c	44
208	0xfd	-3
209	0xd8	-40
210	0x05	5
211	0xdf	-33
212	0x0a	10
213	0x20	32
214	0xbf	-65
215	0x1e	30
216	0x0f	15
217	0x50	80
218	0x1c	28
219	0x81	-127
220	0xf0	-16
221	0xda	-38
222	0x6a	106
223	0x38	56
224	0x2c	44
225	0xfe	-2
226	0x44	68
227	0xc1	-63
228	0xd6	-42
229	0xcf	-49
230	0x63	99
231	0x19	25
232	0x14	20
233	0xf1	-15
234	0x1b	27
235	0x4b	75
236	0x83	-125
237	0x09	9
238	0xe9	-23
239	0xfd	-3
240	0xf7	-9
241	0x89	-119
242	0xc3	-61
243	0xdc	-36
244	0xdf	-33
245	0x2d	45
246	0x0f	15
247	0x03	3
248	0x34	52
249	0x47	71
250	0xd8	-40
251	0x4a	74
252	0xff	-1
253	0x81	-127
254	0xad	-83
255	0xfc	-4

sequential/mobilenetv2_0.35_224/block_10_expand/Conv2D/ReadVariableOp i1 [144, 1, 1, 24]
0	0xe7	-25
1	0x1e	30
2	0xf6	-10
3	0x04	4
4	0xe1	-31
5	0xfc	-4
6	0x12	18
7	0x81	-127
8	0xc3	-61
9	0x4b	75
10	0x12	18
11	0xfc	-4
12	0x01	1
13	0x53	83
14	0x03	3
15	0xe9	-23
16	0x12	18
17	0x2f	47
18	0xe0	-32
19	0x04	4
20	0x0f	15
21	0x01	1
22	0xe0	-32
23	0x11	17
24	0x47	71
25	0xe5	-27
26	0x7f	127
27	0x1c	28
28	0x0c	12
29	0xf0	-16
30	0xff	-1
31	0x1c	28
32	0xcc	-52
33	0x07	7
34	0xe7	-25
35	0x0a	10
36	0x03	3
37	0x10	16
38	0xe6	-26
39	0x1d	29
40	0x26	38
41	0xc5	-59
42	0xd9	-39
43	0xfa	-6
44	0xf4	-12
45	0x05	5
46	0xda	-38
47	0xf8	-8
48	0x7f	127
49	0x41	65
50	0x04	4
51	0x1e	30
52	0xed	-19
53	0x07	7
54	0x1d	29
55	0x02	2
56	0x22	34
57	0xe5	-27
58	0xfa	-6
59	0x1c	28
60	0xcb	-53
61	0xba	-70
62	0xca	-54
63	0x11	17
64	0x40	64
65	0xf7	-9
66	0xd0	-48
67	0xfe	-2
68	0x90	-112
69	0xe8	-24
70	0x1f	31
71	0x0d	13
72	0xdf	-33
73	0xdc	-36
74	0xdf	-33
75	0xe8	-24
76	0x27	39
77	0xb9	-71
78	0xea	-22
79	0x0e	14
80	0x09	9
81	0x2d	45
82	0x63	99
83	0x3a	58
84	0x33	51
85	0x81	-127
86	0x7c	124
87	0x21	33
88	0x33	51
89	0x47	71
90	0xe9	-23
91	0x14	20
92	0xdf	-33
93	0x28	40
94	0xf9	-7
95	0x33	51
96	0xf6	-10
97	0x2c	44
98	0xd4	-44
99	0xa6	-90
100	0xf2	-14
101	0xdc	-36
102	0xf4	-12
103	0x0b	11
104	0x00	0
105	0x16	22
106	0x7f	127
107	0xfb	-5
108	0x05	5
109	0x10	16
110	0x23	35
111	0x17	23
112	0xee	-18
113	0x45	69
114	0xe4	-28
115	0xba	-70
116	0xc7	-57
117	0x00	0
118	0xec	-20
119	0x0b	11
120	0x38	56
121	0xa8	-88
122	0xa3	-93
123	0xc6	-58
124	0x81	-127
125	0xe8	-24
126	0x64	100
127	0xc1	-63
128	0x2d	45
129	0xf0	-16
130	0x5e	94
131	0x0c	12
132	0xaa	-86
133	0xee	-18
134	0xa8	-88
135	0xf5	-11
136	0x9f	-97
137	0xc6	-58
138	0xf8	-8
139	0x3b	59
140	0x0c	12
141	0x39	57
142	0x21	33
143	0x10	16
144	0x81	-127
145	0x2e	46
146	0x55	85
147	0xc7	-57
148	0x18	24
149	0x02	2
150	0xec	-20
151	0x0a	10
152	0x4f	79
153	0xfb	-5
154	0x24	36
155	0xa9	-87
156	0x0f	15
157	0xfa	-6
158	0x49	73
159	0x4a	74
160	0x0b	11
161	0x37	55
162	0xbb	-69
163	0x50	80
164	0x33	51
165	0x2d	45
166	0xec	-20
167	0x31	49
168	0x3a	58
169	0x2d	45
170	0xe5	-27
171	0xfd	-3
172	0xd7	-41
173	0xf1	-15
174	0x8e	-114
175	0xd6	-42
176	0xd9	-39
177	0xf8	-8
178	0x1c	28
179	0x56	86
180	0x1f	31
181	0x21	33
182	0x9a	-102
183	0x88	-120
184	0x7f	127
185	0x66	102
186	0x24	36
187	0x3f	63
188	0xfe	-2
189	0xcd	-51
190	0xce	-50
191	0x0c	12
192	0xfb	-5
193	0xc4	-60
194	0xfc	-4
195	0x2e	46
196	0x22	34
197	0xf3	-13
198	0xe2	-30
199	0x07	7
200	0xdd	-35
201	0x18	24
202	0xeb	-21
203	0x12	18
204	0xb3	-77
205	0xf9	-7
206	0x66	102
207	0xf8	-8
208	0x09	9
209	0x03	3
210	0xa2	-94
211	0x81	-127
212	0xf3	-13
213	0x44	68
214	0x47	71
215	0x42	66
216	0x0c	12
217	0xcf	-49
218	0x0b	11
219	0xf3	-13
220	0xd4	-44
221	0xe8	-24
222	0x33	51
223	0xf8	-8
224	0x11	17
225	0x15	21
226	0xfb	-5
227	0xee	-18
228	0x01	1
229	0xf0	-16
230	0xf8	-8
231	0xf2	-14
232	0x0b	11
233	0x09	9
234	0xee	-18
235	0x10	16
236	0x09	9
237	0x1d	29
238	0x7f	127
239	0xe7	-25
240	0xc1	-63
241	0x02	2
242	0xd8	-40
243	0xd7	-41
244	0x91	-111
245	0xfc	-4
246	0xdd	-35
247	0x32	50
248	0x18	24
249	0x1e	30
250	0x44	68
251	0xea	-22
252	0x1c	28
253	0x19	25
254	0x11	17
255	0x02	2

sequential/mobilenetv2_0.35_224/block_10_project/Conv2D/ReadVariableOp i1 [32, 1, 1, 144]
0	0xff	-1
1	0x07	7
2	0x14	20
3	0x0c	12
4	0xfd	-3
5	0xfb	-5
6	0xdf	-33
7	0x07	7
8	0x9f	-97
9	0xfd	-3
10	0x1a	26
11	0x17	23
12	0xfc	-4
13	0x12	18
14	0xf1	-15
15	0xfd	-3
16	0xf1	-15
17	0xfd	-3
18	0x06	6
19	0xfb	-5
20	0xe2	-30
21	0xe4	-28
22	0x05	5
23	0xe4	-28
24	0x11	17
25	0xf9	-7
26	0xe6	-26
27	0xf0	-16
28	0xfa	-6
29	0xf7	-9
30	0xf3	-13
31	0x22	34
32	0xef	-17
33	0xeb	-21
34	0x0c	12
35	0x0f	15
36	0xf2	-14
37	0xe3	-29
38	0xf8	-8
39	0x0d	13
40	0x16	22
41	0xfd	-3
42	0x0d	13
43	0xf8	-8
44	0x1b	27
45	0x13	19
46	0x12	18
47	0x07	7
48	0x0c	12
49	0x11	17
50	0xee	-18
51	0xe3	-29
52	0x3d	61
53	0xf8	-8
54	0x0d	13
55	0x01	1
56	0xea	-22
57	0x05	5
58	0x2c	44
59	0x21	33
60	0x06	6
61	0x08	8
62	0xed	-19
63	0x0a	10
64	0x32	50
65	0xf2	-14
66	0x06	6
67	0x2c	44
68	0x2b	43
69	0x0b	11
70	0xf0	-16
71	0x22	34
72	0x02	2
73	0x2b	43
74	0x10	16
75	0x0b	11
76	0xf2	-14
77	0xe2	-30
78	0x13	19
79	0x18	24
80	0xee	-18
81	0xd9	-39
82	0x20	32
83	0x0a	10
84	0xfa	-6
85	0xe9	-23
86	0xf6	-10
87	0x17	23
88	0x07	7
89	0x12	18
90	0xf7	-9
91	0xf1	-15
92	0x03	3
93	0x11	17
94	0x2d	45
95	0xfa	-6
96	0xeb	-21
97	0x06	6
98	0x12	18
99	0xfd	-3
100	0xfe	-2
101	0x08	8
102	0x0b	11
103	0xed	-19
104	0x07	7
105	0xfa	-6
106	0x21	33
107	0x08	8
108	0x04	4
109	0xf1	-15
110	0xc8	-56
111	0xdc	-36
112	0x03	3
113	0xe7	-25
114	0x13	19
115	0xf7	-9
116	0x0a	10
117	0x08	8
118	0x81	-127
119	0x28	40
120	0x05	5
121	0xe4	-28
122	0x22	34
123	0x06	6
124	0xd4	-44
125	0x0d	13
126	0x16	22
127	0xea	-22
128	0xfe	-2
129	0xe6	-26
130	0x03	3
131	0xea	-22
132	0x01	1
133	0x0e	14
134	0x03	3
135	0x20	32
136	0xe7	-25
137	0xf8	-8
138	0x0f	15
139	0xcf	-49
140	0xf2	-14
141	0x18	24
142	0xe1	-31
143	0x0f	15
144	0xf2	-14
145	0x04	4
146	0xd4	-44
147	0xfa	-6
148	0xc8	-56
149	0x12	18
150	0xc7	-57
151	0x2d	45
152	0x0d	13
153	0xdc	-36
154	0xca	-54
155	0x32	50
156	0x2b	43
157	0x1a	26
158	0xf1	-15
159	0x36	54
160	0x81	-127
161	0x0b	11
162	0x08	8
163	0xce	-50
164	0xf3	-13
165	0x04	4
166	0x52	82
167	0xf6	-10
168	0xca	-54
169	0x59	89
170	0xfa	-6
171	0xf5	-11
172	0xf5	-11
173	0x05	5
174	0xe7	-25
175	0xb0	-80
176	0x1a	26
177	0xfc	-4
178	0x09	9
179	0xf3	-13
180	0x09	9
181	0xe1	-31
182	0xed	-19
183	0x00	0
184	0x10	16
185	0x00	0
186	0x0f	15
187	0x1b	27
188	0xc2	-62
189	0xe3	-29
190	0xae	-82
191	0x23	35
192	0x07	7
193	0x14	20
194	0x05	5
195	0xe3	-29
196	0x0e	14
197	0xf1	-15
198	0xe0	-32
199	0xe2	-30
200	0x12	18
201	0x51	81
202	0x3d	61
203	0xf2	-14
204	0xfc	-4
205	0x70	112
206	0xc2	-62
207	0xd6	-42
208	0xf5	-11
209	0xd3	-45
210	0xf0	-16
211	0x09	9
212	0xfe	-2
213	0x06	6
214	0x22	34
215	0x26	38
216	0x27	39
217	0xf0	-16
218	0x01	1
219	0xfb	-5
220	0xe0	-32
221	0x07	7
222	0xfb	-5
223	0xb2	-78
224	0xfe	-2
225	0x1b	27
226	0xc9	-55
227	0x3d	61
228	0xcd	-51
229	0xa3	-93
230	0x08	8
231	0x2a	42
232	0xe7	-25
233	0x12	18
234	0x1f	31
235	0xe7	-25
236	0xce	-50
237	0x21	33
238	0xba	-70
239	0x13	19
240	0x0f	15
241	0x0b	11
242	0x18	24
243	0xff	-1
244	0x00	0
245	0xdc	-36
246	0x1b	27
247	0xe5	-27
248	0x37	55
249	0xe1	-31
250	0x79	121
251	0xea	-22
252	0x0a	10
253	0xfd	-3
254	0xe3	-29
255	0xff	-1

sequential/mobilenetv2_0.35_224/block_11_depthwise/depthwise/ReadVariableOp i1 [1, 3, 3, 192]
0	0x11	17
1	0x1e	30
2	0xf3	-13
3	0x0c	12
4	0xf5	-11
5	0xf5	-11
6	0x24	36
7	0x30	48
8	0xb0	-80
9	0x6e	110
10	0x76	118
11	0x74	116
12	0x39	57
13	0x96	-106
14	0xef	-17
15	0x19	25
16	0xfb	-5
17	0xcd	-51
18	0x7f	127
19	0xa9	-87
20	0xd4	-44
21	0xf7	-9
22	0xf7	-9
23	0xe0	-32
24	0xb3	-77
25	0x4e	78
26	0x1a	26
27	0x19	25
28	0x0c	12
29	0xe7	-25
30	0xc6	-58
31	0x0d	13
32	0xbb	-69
33	0x11	17
34	0x46	70
35	0x25	37
36	0x11	17
37	0x03	3
38	0xd8	-40
39	0xe6	-26
40	0x7f	127
41	0xc1	-63
42	0x00	0
43	0x23	35
44	0x08	8
45	0xeb	-21
46	0x03	3
47	0xfc	-4
48	0x2a	42
49	0xe6	-26
50	0xee	-18
51	0x04	4
52	0x81	-127
53	0x24	36
54	0x53	83
55	0x3b	59
56	0x54	84
57	0xd8	-40
58	0x04	4
59	0x33	51
60	0x30	48
61	0x50	80
62	0x5b	91
63	0x15	21
64	0xf8	-8
65	0xa8	-88
66	0xc9	-55
67	0x19	25
68	0x23	35
69	0x2e	46
70	0x97	-105
71	0x06	6
72	0x26	38
73	0x00	0
74	0x1f	31
75	0x11	17
76	0xfc	-4
77	0xf2	-14
78	0x9d	-99
79	0x7f	127
80	0x30	48
81	0xd8	-40
82	0x81	-127
83	0x98	-104
84	0x81	-127
85	0x1b	27
86	0xc2	-62
87	0x4f	79
88	0xba	-70
89	0x1a	26
90	0xf9	-7
91	0x05	5
92	0x01	1
93	0xae	-82
94	0xa3	-93
95	0x1f	31
96	0x50	80
97	0xa6	-90
98	0x1c	28
99	0x0b	11
100	0x0d	13
101	0xf6	-10
102	0x65	101
103	0xbf	-65
104	0x62	98
105	0x37	55
106	0xef	-17
107	0xf2	-14
108	0x57	87
109	0x66	102
110	0x0d	13
111	0x81	-127
112	0xfe	-2
113	0x40	64
114	0xf3	-13
115	0xf8	-8
116	0x07	7
117	0x35	53
118	0x92	-110
119	0xfd	-3
120	0xd8	-40
121	0x2d	45
122	0xf3	-13
123	0xd0	-48
124	0x02	2
125	0x18	24
126	0x1a	26
127	0xc0	-64
128	0xfd	-3
129	0x0b	11
130	0x10	16
131	0xc3	-61
132	0x27	39
133	0x5b	91
134	0x37	55
135	0xc6	-58
136	0x29	41
137	0xd6	-42
138	0x7d	125
139	0xdb	-37
140	0x08	8
141	0x1d	29
142	0x85	-123
143	0x29	41
144	0x5d	93
145	0xf0	-16
146	0xce	-50
147	0x73	115
148	0x0c	12
149	0x48	72
150	0xfd	-3
151	0xe3	-29
152	0x90	-112
153	0xb9	-71
154	0xd3	-45
155	0x81	-127
156	0xe2	-30
157	0xdb	-37
158	0xd7	-41
159	0xd5	-43
160	0xa8	-88
161	0xe7	-25
162	0xba	-70
163	0x2b	43
164	0xf9	-7
165	0x23	35
166	0x03	3
167	0xf5	-11
168	0x32	50
169	0x3d	61
170	0xfd	-3
171	0xf0	-16
172	0x44	68
173	0xcd	-51
174	0xd7	-41
175	0x00	0
176	0x07	7
177	0x82	-126
178	0xea	-22
179	0xf9	-7
180	0x15	21
181	0x81	-127
182	0x05	5
183	0xd7	-41
184	0x01	1
185	0xfa	-6
186	0x10	16
187	0x44	68
188	0xe1	-31
189	0x0e	14
190	0x37	55
191	0x07	7
192	0xc2	-62
193	0x37	55
194	0x02	2
195	0x81	-127
196	0x10	16
197	0x76	118
198	0xda	-38
199	0xdb	-37
200	0xb9	-71
201	0x22	34
202	0x0f	15
203	0x81	-127
204	0x7f	127
205	0x13	19
206	0x81	-127
207	0x7f	127
208	0x7f	127
209	0x81	-127
210	0x17	23
211	0x81	-127
212	0x81	-127
213	0xf0	-16
214	0xea	-22
215	0xc6	-58
216	0x8b	-117
217	0x7f	127
218	0x7f	127
219	0x38	56
220	0xf3	-13
221	0xcb	-53
222	0x9e	-98
223	0x7f	127
224	0x76	118
225	0x7f	127
226	0x6f	111
227	0x22	34
228	0xbd	-67
229	0x1d	29
230	0x36	54
231	0xc5	-59
232	0x81	-127
233	0x81	-127
234	0x02	2
235	0x7f	127
236	0xee	-18
237	0xb5	-75
238	0xf5	-11
239	0xbd	-67
240	0x7c	124
241	0xcf	-49
242	0xc0	-64
243	0x7f	127
244	0xde	-34
245	0x1c	28
246	0x60	96
247	0x02	2
248	0x66	102
249	0x81	-127
250	0x7f	127
251	0x6b	107
252	0x60	96
253	0xa0	-96
254	0x7f	127
255	0xd5	-43

sequential/mobilenetv2_0.35_224/block_11_expand/Conv2D/ReadVariableOp i1 [192, 1, 1, 32]
0	0x06	6
1	0x21	33
2	0x26	38
3	0xf4	-12
4	0x0b	11
5	0x43	67
6	0xcb	-53
7	0x53	83
8	0x9f	-97
9	0x81	-127
10	0x22	34
11	0x3b	59
12	0x1a	26
13	0x01	1
14	0xff	-1
15	0x95	-107
16	0x5d	93
17	0xc4	-60
18	0xe1	-31
19	0xfd	-3
20	0xf7	-9
21	0x3b	59
22	0x3a	58
23	0xc7	-57
24	0x20	32
25	0xe3	-29
26	0x09	9
27	0xf2	-14
28	0x4c	76
29	0xf8	-8
30	0x00	0
31	0xed	-19
32	0x0d	13
33	0x17	23
34	0x05	5
35	0x3f	63
36	0xe8	-24
37	0xcd	-51
38	0xe5	-27
39	0x09	9
40	0xe0	-32
41	0x25	37
42	0xe9	-23
43	0xf4	-12
44	0x1b	27
45	0x16	22
46	0x20	32
47	0xed	-19
48	0xa5	-91
49	0x7f	127
50	0x10	16
51	0x1e	30
52	0x2d	45
53	0xab	-85
54	0x1b	27
55	0xf7	-9
56	0xc2	-62
57	0x1a	26
58	0x2d	45
59	0xa5	-91
60	0xc7	-57
61	0xf5	-11
62	0xfa	-6
63	0xe4	-28
64	0xd9	-39
65	0x49	73
66	0xd0	-48
67	0x81	-127
68	0xbf	-65
69	0xfe	-2
70	0x05	5
71	0x4c	76
72	0x35	53
73	0x27	39
74	0x42	66
75	0xfa	-6
76	0xc5	-59
77	0x16	22
78	0x29	41
79	0x11	17
80	0xe2	-30
81	0x18	24
82	0xf5	-11
83	0xcd	-51
84	0xd8	-40
85	0xf7	-9
86	0xcf	-49
87	0x28	40
88	0x05	5
89	0xc8	-56
90	0x07	7
91	0x36	54
92	0x59	89
93	0x17	23
94	0x7b	123
95	0x2b	43
96	0xec	-20
97	0xbd	-67
98	0x0d	13
99	0xfd	-3
100	0xf3	-13
101	0x9e	-98
102	0x2a	42
103	0x1a	26
104	0x7f	127
105	0xaa	-86
106	0xe3	-29
107	0xdd	-35
108	0xfc	-4
109	0xef	-17
110	0x06	6
111	0xf7	-9
112	0x68	104
113	0xf6	-10
114	0x27	39
115	0x2c	44
116	0x06	6
117	0xd8	-40
118	0x1b	27
119	0xf1	-15
120	0x05	5
121	0x35	53
122	0xf2	-14
123	0xf2	-14
124	0xb3	-77
125	0xd1	-47
126	0x19	25
127	0xbb	-69
128	0xbb	-69
129	0x0c	12
130	0xa2	-94
131	0xf6	-10
132	0xcf	-49
133	0xeb	-21
134	0xeb	-21
135	0x48	72
136	0x65	101
137	0x04	4
138	0x32	50
139	0x93	-109
140	0xc2	-62
141	0xce	-50
142	0x40	64
143	0x21	33
144	0xef	-17
145	0xf2	-14
146	0xe7	-25
147	0x33	51
148	0x21	33
149	0x81	-127
150	0x37	55
151	0x15	21
152	0xe5	-27
153	0xfe	-2
154	0x50	80
155	0xfd	-3
156	0x0d	13
157	0xf4	-12
158	0x1e	30
159	0x35	53
160	0xce	-50
161	0x81	-127
162	0x4f	79
163	0x4b	75
164	0x95	-107
165	0x12	18
166	0x08	8
167	0x9a	-102
168	0x62	98
169	0xbb	-69
170	0x8c	-116
171	0x88	-120
172	0xb5	-75
173	0xa1	-95
174	0x33	51
175	0x18	24
176	0xdb	-37
177	0x59	89
178	0xaf	-81
179	0x03	3
180	0x1e	30
181	0x96	-106
182	0xeb	-21
183	0x35	53
184	0x5c	92
185	0xd1	-47
186	0x34	52
187	0x13	19
188	0x21	33
189	0x00	0
190	0x6e	110
191	0xb0	-80
192	0x2f	47
193	0xde	-34
194	0xdc	-36
195	0xdc	-36
196	0x28	40
197	0xfa	-6
198	0xe9	-23
199	0x05	5
200	0xce	-50
201	0x00	0
202	0x46	70
203	0x12	18
204	0x44	68
205	0x1c	28
206	0xb9	-71
207	0x0c	12
208	0xfa	-6
209	0xee	-18
210	0x0e	14
211	0x19	25
212	0xfb	-5
213	0x1d	29
214	0xf1	-15
215	0x12	18
216	0x00	0
217	0x5e	94
218	0x06	6
219	0x22	34
220	0x81	-127
221	0x03	3
222	0xed	-19
223	0x36	54
224	0x0d	13
225	0x04	4
226	0xed	-19
227	0x04	4
228	0x14	20
229	0xf9	-7
230	0x91	-111
231	0x5a	90
232	0xd9	-39
233	0x2f	47
234	0xdd	-35
235	0xef	-17
236	0xde	-34
237	0xdc	-36
238	0x2b	43
239	0x0a	10
240	0x06	6
241	0xd4	-44
242	0xe9	-23
243	0xf7	-9
244	0x03	3
245	0x0c	12
246	0x3c	60
247	0x1c	28
248	0x0f	15
249	0xbd	-67
250	0x00	0
251	0x07	7
252	0x0a	10
253	0x7f	127
254	0x20	32
255	0x19	25

sequential/mobilenetv2_0.35_224/block_11_project/Conv2D/ReadVariableOp i1 [32, 1, 1, 192]
0	0x01	1
1	0xf1	-15
2	0xe0	-32
3	0x01	1
4	0x13	19
5	0x05	5
6	0xe3	-29
7	0xf7	-9
8	0x00	0
9	0x32	50
10	0x56	86
11	0x10	16
12	0x10	16
13	0xf1	-15
14	0x09	9
15	0x42	66
16	0x10	16
17	0x0a	10
18	0xe0	-32
19	0xd6	-42
20	0xc1	-63
21	0x12	18
22	0xfe	-2
23	0xea	-22
24	0x44	68
25	0xdb	-37
26	0xcf	-49
27	0x28	40
28	0x05	5
29	0xee	-18
30	0xfe	-2
31	0xeb	-21
32	0x15	21
33	0xeb	-21
34	0x0c	12
35	0x13	19
36	0xf0	-16
37	0x19	25
38	0xef	-17
39	0x1a	26
40	0x2f	47
41	0xed	-19
42	0x13	19
43	0xd3	-45
44	0x1f	31
45	0xc6	-58
46	0xdc	-36
47	0x25	37
48	0x56	86
49	0xdf	-33
50	0xdc	-36
51	0x00	0
52	0xca	-54
53	0x44	68
54	0xcc	-52
55	0x0c	12
56	0x38	56
57	0xad	-83
58	0xea	-22
59	0xcc	-52
60	0xf0	-16
61	0xec	-20
62	0x0c	12
63	0x17	23
64	0xe8	-24
65	0x14	20
66	0xdc	-36
67	0xab	-85
68	0xd4	-44
69	0x0f	15
70	0xf2	-14
71	0x5e	94
72	0x01	1
73	0x00	0
74	0xd4	-44
75	0x17	23
76	0x03	3
77	0x1d	29
78	0x21	33
79	0xf0	-16
80	0x33	51
81	0x3f	63
82	0x0e	14
83	0xdb	-37
84	0x1f	31
85	0xfd	-3
86	0x4d	77
87	0x5e	94
88	0x13	19
89	0x0a	10
90	0x2b	43
91	0xe7	-25
92	0xea	-22
93	0x0f	15
94	0x12	18
95	0xfd	-3
96	0xed	-19
97	0xc5	-59
98	0x33	51
99	0x2b	43
100	0xfd	-3
101	0xcf	-49
102	0x9d	-99
103	0x28	40
104	0xfa	-6
105	0x23	35
106	0x12	18
107	0xdf	-33
108	0x25	37
109	0x06	6
110	0x2e	46
111	0x09	9
112	0x0f	15
113	0xe4	-28
114	0x18	24
115	0xe9	-23
116	0xf9	-7
117	0x2c	44
118	0x04	4
119	0x20	32
120	0xcc	-52
121	0xfc	-4
122	0xb5	-75
123	0x60	96
124	0xc9	-55
125	0x16	22
126	0xdf	-33
127	0x1e	30
128	0xfc	-4
129	0x2f	47
130	0x4b	75
131	0xff	-1
132	0xea	-22
133	0xeb	-21
134	0xfe	-2
135	0x3a	58
136	0xe1	-31
137	0x2b	43
138	0xd7	-41
139	0xfd	-3
140	0x1b	27
141	0xf7	-9
142	0xda	-38
143	0xe5	-27
144	0xcd	-51
145	0x0a	10
146	0x02	2
147	0x38	56
148	0x0b	11
149	0xe3	-29
150	0x31	49
151	0x08	8
152	0xe1	-31
153	0xe6	-26
154	0xe8	-24
155	0x71	113
156	0x15	21
157	0x7f	127
158	0x1c	28
159	0x14	20
160	0x15	21
161	0xe9	-23
162	0x21	33
163	0x00	0
164	0xce	-50
165	0x06	6
166	0x2f	47
167	0x0a	10
168	0xe2	-30
169	0x13	19
170	0xf8	-8
171	0x1f	31
172	0x1d	29
173	0xbe	-66
174	0x60	96
175	0x11	17
176	0x08	8
177	0xdc	-36
178	0xf5	-11
179	0x08	8
180	0x0b	11
181	0xf4	-12
182	0x33	51
183	0xde	-34
184	0xe1	-31
185	0xe5	-27
186	0x4f	79
187	0x56	86
188	0xe6	-26
189	0xfa	-6
190	0x24	36
191	0x1e	30
192	0x53	83
193	0x13	19
194	0xf4	-12
195	0x4f	79
196	0xf8	-8
197	0x05	5
198	0xc8	-56
199	0xf0	-16
200	0xdb	-37
201	0x24	36
202	0xe8	-24
203	0x01	1
204	0x21	33
205	0x04	4
206	0x2e	46
207	0x19	25
208	0xa6	-90
209	0x17	23
210	0x06	6
211	0xc3	-61
212	0x28	40
213	0xcd	-51
214	0x25	37
215	0x08	8
216	0xc8	-56
217	0xf5	-11
218	0xfc	-4
219	0xe3	-29
220	0xd8	-40
221	0xf2	-14
222	0xc1	-63
223	0x52	82
224	0x4a	74
225	0xc7	-57
226	0x2e	46
227	0xf1	-15
228	0x19	25
229	0x00	0
230	0x1e	30
231	0x0c	12
232	0x33	51
233	0x33	51
234	0xf9	-7
235	0x1d	29
236	0xf7	-9
237	0xf3	-13
238	0xf1	-15
239	0x0c	12
240	0xdd	-35
241	0x12	18
242	0x26	38
243	0xf3	-13
244	0x00	0
245	0x08	8
246	0xed	-19
247	0xca	-54
248	0x52	82
249	0xec	-20
250	0x1a	26
251	0x38	56
252	0x4a	74
253	0x0f	15
254	0xeb	-21
255	0x13	19

sequential/mobilenetv2_0.35_224/block_12_depthwise/depthwise/ReadVariableOp i1 [1, 3, 3, 192]
0	0x2a	42
1	0xe3	-29
2	0xfd	-3
3	0xa3	-93
4	0x31	49
5	0x09	9
6	0x04	4
7	0x26	38
8	0x68	104
9	0x13	19
10	0xfd	-3
11	0x1a	26
12	0x2b	43
13	0x33	51
14	0x01	1
15	0xe9	-23
16	0x07	7
17	0xf3	-13
18	0x44	68
19	0xfb	-5
20	0x44	68
21	0x8f	-113
22	0x07	7
23	0xe9	-23
24	0xd9	-39
25	0xeb	-21
26	0x1f	31
27	0xe5	-27
28	0x22	34
29	0xf8	-8
30	0x42	66
31	0x13	19
32	0xf6	-10
33	0xe9	-23
34	0x29	41
35	0x10	16
36	0x20	32
37	0x82	-126
38	0xd5	-43
39	0x44	68
40	0x12	18
41	0x11	17
42	0xf4	-12
43	0x4e	78
44	0xd8	-40
45	0xf9	-7
46	0xec	-20
47	0xf0	-16
48	0x50	80
49	0x05	5
50	0x0b	11
51	0x81	-127
52	0xb3	-77
53	0x12	18
54	0x20	32
55	0x89	-119
56	0x10	16
57	0x01	1
58	0x42	66
59	0x27	39
60	0x3e	62
61	0xf6	-10
62	0xe6	-26
63	0x1e	30
64	0xfe	-2
65	0x68	104
66	0x23	35
67	0xe8	-24
68	0x13	19
69	0x99	-103
70	0x5a	90
71	0xf4	-12
72	0x7f	127
73	0xf1	-15
74	0x7e	126
75	0x39	57
76	0x20	32
77	0x2f	47
78	0x0f	15
79	0xc3	-61
80	0xe0	-32
81	0x18	24
82	0xd0	-48
83	0x3f	63
84	0xf9	-7
85	0xcb	-53
86	0xe5	-27
87	0x0c	12
88	0x2a	42
89	0x9a	-102
90	0x22	34
91	0x1e	30
92	0xf9	-7
93	0xfc	-4
94	0xd8	-40
95	0x64	100
96	0x18	24
97	0x1c	28
98	0x2f	47
99	0xe5	-27
100	0xe6	-26
101	0x7f	127
102	0x2b	43
103	0xf3	-13
104	0x00	0
105	0x4b	75
106	0x05	5
107	0xf8	-8
108	0x0c	12
109	0xd9	-39
110	0x15	21
111	0x74	116
112	0x96	-106
113	0xb4	-76
114	0x4f	79
115	0xca	-54
116	0x2a	42
117	0x00	0
118	0x81	-127
119	0xb9	-71
120	0xdd	-35
121	0x18	24
122	0xd7	-41
123	0x16	22
124	0x29	41
125	0xec	-20
126	0x03	3
127	0x1e	30
128	0x48	72
129	0x8a	-118
130	0x65	101
131	0x04	4
132	0x5e	94
133	0x25	37
134	0x33	51
135	0x20	32
136	0xca	-54
137	0xdd	-35
138	0xc1	-63
139	0xcd	-51
140	0xf3	-13
141	0x50	80
142	0x1c	28
143	0xb2	-78
144	0xeb	-21
145	0x0e	14
146	0x05	5
147	0x7f	127
148	0xf8	-8
149	0xef	-17
150	0x3c	60
151	0xe7	-25
152	0x93	-109
153	0x4b	75
154	0x81	-127
155	0x49	73
156	0xf7	-9
157	0x39	57
158	0xbd	-67
159	0x4e	78
160	0xa3	-93
161	0x38	56
162	0xe0	-32
163	0xe4	-28
164	0x0b	11
165	0xb9	-71
166	0x40	64
167	0x73	115
168	0x32	50
169	0x2c	44
170	0x01	1
171	0xe8	-24
172	0xdf	-33
173	0xd6	-42
174	0x1a	26
175	0xf4	-12
176	0xeb	-21
177	0xe5	-27
178	0x01	1
179	0xf1	-15
180	0x06	6
181	0xf5	-11
182	0x32	50
183	0x93	-109
184	0x06	6
185	0xce	-50
186	0x0f	15
187	0x0e	14
188	0x14	20
189	0xd2	-46
190	0xeb	-21
191	0xa5	-91
192	0xdf	-33
193	0x7f	127
194	0x69	105
195	0x8b	-117
196	0xe8	-24
197	0xef	-17
198	0xdc	-36
199	0x3c	60
200	0x38	56
201	0x7f	127
202	0xfe	-2
203	0x39	57
204	0x7f	127
205	0x3d	61
206	0x81	-127
207	0xb6	-74
208	0x4c	76
209	0xfc	-4
210	0x62	98
211	0x7f	127
212	0x2d	45
213	0xe3	-29
214	0x2a	42
215	0x07	7
216	0x3d	61
217	0xa4	-92
218	0x7f	127
219	0x7f	127
220	0x1b	27
221	0x2d	45
222	0xe6	-26
223	0x7f	127
224	0xe1	-31
225	0x3c	60
226	0xf5	-11
227	0x24	36
228	0x02	2
229	0xb0	-80
230	0x9e	-98
231	0x3d	61
232	0x29	41
233	0xe3	-29
234	0xf2	-14
235	0xfe	-2
236	0xbc	-68
237	0x7f	127
238	0xe0	-32
239	0x02	2
240	0xe7	-25
241	0xe1	-31
242	0x7f	127
243	0xad	-83
244	0xd1	-47
245	0x57	87
246	0x2b	43
247	0x50	80
248	0x29	41
249	0x59	89
250	0xa6	-90
251	0x05	5
252	0x5e	94
253	0xc6	-58
254	0xe8	-24
255	0x43	67

sequential/mobilenetv2_0.35_224/block_12_expand/Conv2D/ReadVariableOp i1 [192, 1, 1, 32]
0	0xcf	-49
1	0x02	2
2	0x79	121
3	0x0f	15
4	0xc4	-60
5	0x09	9
6	0xc9	-55
7	0x09	9
8	0x0c	12
9	0xbb	-69
10	0xf0	-16
11	0xbb	-69
12	0xfd	-3
13	0xd1	-47
14	0x18	24
15	0xfd	-3
16	0x74	116
17	0xd1	-47
18	0xfd	-3
19	0x07	7
20	0x32	50
21	0x17	23
22	0x30	48
23	0xea	-22
24	0xf3	-13
25	0xfc	-4
26	0x1f	31
27	0x81	-127
28	0xfa	-6
29	0x0f	15
30	0xe0	-32
31	0xa3	-93
32	0x38	56
33	0xe1	-31
34	0x2e	46
35	0x13	19
36	0xa8	-88
37	0xe3	-29
38	0x05	5
39	0x2d	45
40	0x00	0
41	0xed	-19
42	0xd5	-43
43	0xe7	-25
44	0x13	19
45	0x11	17
46	0x60	96
47	0x09	9
48	0x7f	127
49	0xec	-20
50	0x2c	44
51	0xef	-17
52	0x52	82
53	0x61	97
54	0x0b	11
55	0x0c	12
56	0x31	49
57	0xf3	-13
58	0xe4	-28
59	0xd5	-43
60	0x0d	13
61	0x16	22
62	0x12	18
63	0x03	3
64	0x57	87
65	0xbf	-65
66	0xda	-38
67	0x83	-125
68	0x25	37
69	0x28	40
70	0x30	48
71	0x0b	11
72	0x8a	-118
73	0x38	56
74	0x7f	127
75	0x35	53
76	0x5a	90
77	0xdc	-36
78	0x00	0
79	0xd1	-47
80	0x17	23
81	0x09	9
82	0xe6	-26
83	0xfa	-6
84	0x53	83
85	0x3b	59
86	0x11	17
87	0x2e	46
88	0xd2	-46
89	0x9c	-100
90	0x5b	91
91	0xdb	-37
92	0xf7	-9
93	0xf8	-8
94	0x37	55
95	0x45	69
96	0x2d	45
97	0x2e	46
98	0xd3	-45
99	0xb5	-75
100	0x29	41
101	0x81	-127
102	0xdf	-33
103	0x66	102
104	0x47	71
105	0xd4	-44
106	0x0a	10
107	0x2f	47
108	0xb4	-76
109	0x12	18
110	0x4b	75
111	0x3a	58
112	0xec	-20
113	0x15	21
114	0x47	71
115	0x14	20
116	0xe4	-28
117	0x0d	13
118	0x98	-104
119	0xf6	-10
120	0x20	32
121	0xbe	-66
122	0x1b	27
123	0xe9	-23
124	0x45	69
125	0x17	23
126	0x24	36
127	0xf2	-14
128	0xfc	-4
129	0xf7	-9
130	0x05	5
131	0x09	9
132	0x44	68
133	0x02	2
134	0x2b	43
135	0x0f	15
136	0x09	9
137	0x21	33
138	0x0b	11
139	0x09	9
140	0x1a	26
141	0x7f	127
142	0x04	4
143	0xef	-17
144	0xdf	-33
145	0xea	-22
146	0x09	9
147	0x23	35
148	0x7b	123
149	0x09	9
150	0xce	-50
151	0xfe	-2
152	0xd4	-44
153	0xf4	-12
154	0x19	25
155	0x74	116
156	0x04	4
157	0x17	23
158	0xfb	-5
159	0xd7	-41
160	0xf9	-7
161	0xe1	-31
162	0x01	1
163	0x07	7
164	0xe2	-30
165	0xf1	-15
166	0xe4	-28
167	0x33	51
168	0x10	16
169	0xd4	-44
170	0xb0	-80
171	0xf6	-10
172	0x43	67
173	0x35	53
174	0xfd	-3
175	0x06	6
176	0x14	20
177	0x1f	31
178	0x0e	14
179	0x3d	61
180	0x24	36
181	0xed	-19
182	0xf3	-13
183	0xeb	-21
184	0xd4	-44
185	0x1f	31
186	0x01	1
187	0xe1	-31
188	0x81	-127
189	0xfb	-5
190	0xe9	-23
191	0x01	1
192	0xd2	-46
193	0xd7	-41
194	0xda	-38
195	0xf2	-14
196	0x92	-110
197	0xd2	-46
198	0x23	35
199	0xe4	-28
200	0x0c	12
201	0x2a	42
202	0x32	50
203	0xae	-82
204	0x25	37
205	0x55	85
206	0x45	69
207	0x00	0
208	0x8a	-118
209	0x41	65
210	0x2e	46
211	0x15	21
212	0x39	57
213	0x82	-126
214	0x40	64
215	0x29	41
216	0x8f	-113
217	0x7f	127
218	0xcb	-53
219	0xe1	-31
220	0xdf	-33
221	0x06	6
222	0xde	-34
223	0x53	83
224	0xef	-17
225	0xc4	-60
226	0xee	-18
227	0x7d	125
228	0x18	24
229	0xa9	-87
230	0xf3	-13
231	0x81	-127
232	0x24	36
233	0xf6	-10
234	0xfa	-6
235	0xf2	-14
236	0xcd	-51
237	0xee	-18
238	0x06	6
239	0xcd	-51
240	0xd4	-44
241	0x35	53
242	0x29	41
243	0x50	80
244	0x28	40
245	0xbd	-67
246	0xae	-82
247	0xeb	-21
248	0x11	17
249	0x63	99
250	0x97	-105
251	0xec	-20
252	0xdd	-35
253	0xd6	-42
254	0xc2	-62
255	0x25	37

sequential/mobilenetv2_0.35_224/block_12_project/Conv2D/ReadVariableOp i1 [32, 1, 1, 192]
0	0x28	40
1	0xaa	-86
2	0x81	-127
3	0x0a	10
4	0x2c	44
5	0x17	23
6	0xdd	-35
7	0xd1	-47
8	0xd1	-47
9	0xb6	-74
10	0xcd	-51
11	0x44	68
12	0x14	20
13	0x06	6
14	0xc8	-56
15	0x16	22
16	0xd2	-46
17	0x0f	15
18	0x0a	10
19	0x1d	29
20	0x27	39
21	0x0f	15
22	0xec	-20
23	0x32	50
24	0xed	-19
25	0x2e	46
26	0xc3	-61
27	0xcc	-52
28	0xc7	-57
29	0xd0	-48
30	0x08	8
31	0x08	8
32	0xd7	-41
33	0x02	2
34	0x64	100
35	0xfe	-2
36	0x2c	44
37	0xfc	-4
38	0x8e	-114
39	0xf8	-8
40	0xdd	-35
41	0x14	20
42	0xd1	-47
43	0x50	80
44	0xeb	-21
45	0x06	6
46	0x23	35
47	0x94	-108
48	0x43	67
49	0xc3	-61
50	0x31	49
51	0x00	0
52	0x1c	28
53	0xd5	-43
54	0xe5	-27
55	0x11	17
56	0xdd	-35
57	0x16	22
58	0xa2	-94
59	0xd2	-46
60	0x0d	13
61	0x09	9
62	0xd1	-47
63	0x43	67
64	0x24	36
65	0x02	2
66	0xe4	-28
67	0xb2	-78
68	0x03	3
69	0x0e	14
70	0xf0	-16
71	0x02	2
72	0x6b	107
73	0xff	-1
74	0x10	16
75	0x34	52
76	0x15	21
77	0x26	38
78	0xeb	-21
79	0x04	4
80	0x0c	12
81	0x45	69
82	0xd1	-47
83	0x32	50
84	0x07	7
85	0x07	7
86	0x37	55
87	0x0f	15
88	0xff	-1
89	0xda	-38
90	0xfe	-2
91	0x1d	29
92	0x02	2
93	0x09	9
94	0xf5	-11
95	0xd7	-41
96	0x2b	43
97	0x0f	15
98	0x47	71
99	0xf7	-9
100	0xf1	-15
101	0x11	17
102	0xc4	-60
103	0x2d	45
104	0xe0	-32
105	0xf9	-7
106	0xfb	-5
107	0xe2	-30
108	0xbc	-68
109	0x1b	27
110	0xfa	-6
111	0xb8	-72
112	0xe7	-25
113	0xed	-19
114	0x37	55
115	0xd0	-48
116	0x35	53
117	0xee	-18
118	0xe7	-25
119	0xf5	-11
120	0x2b	43
121	0x16	22
122	0xac	-84
123	0xba	-70
124	0xf1	-15
125	0x18	24
126	0x15	21
127	0x02	2
128	0x9a	-102
129	0xd1	-47
130	0xe6	-26
131	0x2a	42
132	0xb2	-78
133	0x1c	28
134	0xd1	-47
135	0xef	-17
136	0xe7	-25
137	0x1c	28
138	0xce	-50
139	0x0b	11
140	0x2d	45
141	0x02	2
142	0xb9	-71
143	0x59	89
144	0xe4	-28
145	0xdb	-37
146	0x03	3
147	0xf2	-14
148	0xe6	-26
149	0x14	20
150	0x09	9
151	0x30	48
152	0x35	53
153	0x46	70
154	0x15	21
155	0x09	9
156	0xfb	-5
157	0x3b	59
158	0x25	37
159	0x03	3
160	0x01	1
161	0x34	52
162	0xe0	-32
163	0xf6	-10
164	0x14	20
165	0xe2	-30
166	0x1a	26
167	0x2e	46
168	0xf2	-14
169	0xd9	-39
170	0x15	21
171	0x08	8
172	0x35	53
173	0xe5	-27
174	0x0d	13
175	0xc8	-56
176	0xb8	-72
177	0x34	52
178	0xf1	-15
179	0x08	8
180	0x0c	12
181	0x2f	47
182	0x0a	10
183	0xf3	-13
184	0x15	21
185	0x4d	77
186	0x0e	14
187	0x2e	46
188	0x0c	12
189	0x26	38
190	0xbf	-65
191	0xfc	-4
192	0x05	5
193	0x19	25
194	0x33	51
195	0x06	6
196	0x1b	27
197	0x13	19
198	0x09	9
199	0xc0	-64
200	0xfb	-5
201	0xff	-1
202	0xfd	-3
203	0xc3	-61
204	0x0a	10
205	0xf0	-16
206	0x55	85
207	0x15	21
208	0xbb	-69
209	0xf5	-11
210	0xc2	-62
211	0x33	51
212	0xfe	-2
213	0x5b	91
214	0x22	34
215	0x66	102
216	0x1c	28
217	0xed	-19
218	0xba	-70
219	0xfc	-4
220	0xcb	-53
221	0x3e	62
222	0x60	96
223	0xf4	-12
224	0x00	0
225	0xf1	-15
226	0xf9	-7
227	0x34	52
228	0xf1	-15
229	0x18	24
230	0x0e	14
231	0xf9	-7
232	0x0b	11
233	0xa3	-93
234	0xfc	-4
235	0xfb	-5
236	0x3f	63
237	0x21	33
238	0x1d	29
239	0x27	39
240	0x1d	29
241	0xa6	-90
242	0x1c	28
243	0x29	41
244	0xc0	-64
245	0xea	-22
246	0xa3	-93
247	0xfd	-3
248	0x0d	13
249	0xb7	-73
250	0x05	5
251	0x19	25
252	0xf9	-7
253	0xc5	-59
254	0xd4	-44
255	0x0b	11

sequential/mobilenetv2_0.35_224/block_13_depthwise/depthwise/ReadVariableOp i1 [1, 3, 3, 192]
0	0x32	50
1	0x3a	58
2	0x53	83
3	0x84	-124
4	0x59	89
5	0x6a	106
6	0xb0	-80
7	0x52	82
8	0x66	102
9	0x69	105
10	0x0f	15
11	0x4e	78
12	0x87	-121
13	0x67	103
14	0x1f	31
15	0xe6	-26
16	0xd3	-45
17	0xfb	-5
18	0x2e	46
19	0x40	64
20	0xc6	-58
21	0x81	-127
22	0x43	67
23	0x4b	75
24	0xc1	-63
25	0x3c	60
26	0x4b	75
27	0xb8	-72
28	0x62	98
29	0xaa	-86
30	0xa6	-90
31	0xa6	-90
32	0x93	-109
33	0x9c	-100
34	0x5e	94
35	0x45	69
36	0xba	-70
37	0xd8	-40
38	0x4a	74
39	0xcf	-49
40	0x3d	61
41	0x98	-104
42	0x4c	76
43	0xb9	-71
44	0x67	103
45	0xc2	-62
46	0x32	50
47	0x56	86
48	0x4c	76
49	0x53	83
50	0xd4	-44
51	0xdd	-35
52	0x3b	59
53	0xd0	-48
54	0x63	99
55	0xce	-50
56	0x13	19
57	0x36	54
58	0x3e	62
59	0xb8	-72
60	0xe9	-23
61	0xb9	-71
62	0x1f	31
63	0x30	48
64	0x41	65
65	0x2a	42
66	0xc7	-57
67	0x33	51
68	0xbe	-66
69	0x9d	-99
70	0xcc	-52
71	0x0e	14
72	0x48	72
73	0x84	-124
74	0x43	67
75	0x1f	31
76	0x6e	110
77	0xcd	-51
78	0x86	-122
79	0xa1	-95
80	0x47	71
81	0x57	87
82	0xcf	-49
83	0x88	-120
84	0xcb	-53
85	0xb6	-74
86	0x3e	62
87	0xbf	-65
88	0x2b	43
89	0x54	84
90	0xe2	-30
91	0x5c	92
92	0x3b	59
93	0x45	69
94	0xd1	-47
95	0x32	50
96	0x92	-110
97	0x13	19
98	0x53	83
99	0x6c	108
100	0x4f	79
101	0x5b	91
102	0xeb	-21
103	0xd3	-45
104	0x32	50
105	0xc1	-63
106	0xe6	-26
107	0xe0	-32
108	0x3a	58
109	0x46	70
110	0x31	49
111	0xcb	-53
112	0x3b	59
113	0x94	-108
114	0x39	57
115	0x32	50
116	0xa9	-87
117	0x1e	30
118	0x46	70
119	0x44	68
120	0x5d	93
121	0x81	-127
122	0x78	120
123	0x4c	76
124	0xcf	-49
125	0xd8	-40
126	0x4a	74
127	0x8c	-116
128	0xbf	-65
129	0xaf	-81
130	0xc1	-63
131	0x68	104
132	0xa5	-91
133	0xd0	-48
134	0x6f	111
135	0x39	57
136	0x1b	27
137	0x3a	58
138	0x45	69
139	0x27	39
140	0x35	53
141	0x3c	60
142	0x96	-106
143	0xab	-85
144	0x58	88
145	0xc1	-63
146	0x5f	95
147	0x38	56
148	0x51	81
149	0x42	66
150	0x3d	61
151	0x3a	58
152	0x1d	29
153	0xa4	-92
154	0x36	54
155	0xb6	-74
156	0x45	69
157	0x2d	45
158	0x9a	-102
159	0x5f	95
160	0x31	49
161	0x6e	110
162	0x7b	123
163	0x5a	90
164	0xa1	-95
165	0x4c	76
166	0x81	-127
167	0x2c	44
168	0x2e	46
169	0x2b	43
170	0x3e	62
171	0xcd	-51
172	0x5c	92
173	0x99	-103
174	0x42	66
175	0x2b	43
176	0x45	69
177	0x53	83
178	0x33	51
179	0x6f	111
180	0xaf	-81
181	0x3c	60
182	0x6b	107
183	0xb3	-77
184	0xe5	-27
185	0x38	56
186	0xd2	-46
187	0x35	53
188	0x4c	76
189	0x3d	61
190	0x33	51
191	0xf7	-9
192	0x42	66
193	0x39	57
194	0x42	66
195	0x19	25
196	0x7f	127
197	0x52	82
198	0xa0	-96
199	0x7f	127
200	0x72	114
201	0x65	101
202	0x4d	77
203	0x7f	127
204	0x81	-127
205	0x63	99
206	0x3f	63
207	0xb9	-71
208	0xc5	-59
209	0x13	19
210	0x57	87
211	0x75	117
212	0xab	-85
213	0x94	-108
214	0x5e	94
215	0x69	105
216	0xa0	-96
217	0x3f	63
218	0x42	66
219	0x81	-127
220	0x7f	127
221	0xb2	-78
222	0xbd	-67
223	0x9c	-100
224	0x9f	-97
225	0xb5	-75
226	0x58	88
227	0x4e	78
228	0xb4	-76
229	0xbe	-66
230	0x75	117
231	0xc7	-57
232	0x41	65
233	0x81	-127
234	0x5c	92
235	0x9c	-100
236	0x73	115
237	0xa0	-96
238	0x5a	90
239	0x7e	126
240	0x5f	95
241	0x7f	127
242	0xc5	-59
243	0x81	-127
244	0x36	54
245	0xb7	-73
246	0x37	55
247	0xbd	-67
248	0x36	54
249	0x38	56
250	0x61	97
251	0x33	51
252	0xe2	-30
253	0xb8	-72
254	0x3f	63
255	0x4b	75

sequential/mobilenetv2_0.35_224/block_13_expand/Conv2D/ReadVariableOp i1 [192, 1, 1, 32]
0	0x49	73
1	0xf7	-9
2	0x29	41
3	0xe3	-29
4	0x1e	30
5	0x04	4
6	0x05	5
7	0x17	23
8	0xeb	-21
9	0x7f	127
10	0x00	0
11	0x44	68
12	0x25	37
13	0x4e	78
14	0x35	53
15	0xdc	-36
16	0xb0	-80
17	0xfe	-2
18	0xe1	-31
19	0x2a	42
20	0x1e	30
21	0xef	-17
22	0x04	4
23	0x26	38
24	0xe2	-30
25	0xc8	-56
26	0x13	19
27	0xaa	-86
28	0xd1	-47
29	0x14	20
30	0x25	37
31	0xe6	-26
32	0x7e	126
33	0x2d	45
34	0x5a	90
35	0x3f	63
36	0x0a	10
37	0x0a	10
38	0x3d	61
39	0x4c	76
40	0x01	1
41	0x31	49
42	0x4b	75
43	0x52	82
44	0x0c	12
45	0x1f	31
46	0x08	8
47	0x01	1
48	0xf9	-7
49	0xfa	-6
50	0xb5	-75
51	0x58	88
52	0x0d	13
53	0x52	82
54	0x30	48
55	0x33	51
56	0x02	2
57	0x81	-127
58	0x0e	14
59	0x33	51
60	0x23	35
61	0xfb	-5
62	0xe9	-23
63	0x53	83
64	0x4f	79
65	0x7f	127
66	0xfe	-2
67	0x7e	126
68	0x04	4
69	0xdf	-33
70	0xf3	-13
71	0x2e	46
72	0xdb	-37
73	0x39	57
74	0x04	4
75	0x2c	44
76	0x15	21
77	0x0f	15
78	0x22	34
79	0xf2	-14
80	0xcb	-53
81	0xe5	-27
82	0xb8	-72
83	0x18	24
84	0xf7	-9
85	0x9a	-102
86	0xe6	-26
87	0xf7	-9
88	0xef	-17
89	0xec	-20
90	0xf2	-14
91	0x1e	30
92	0x37	55
93	0x14	20
94	0xe2	-30
95	0xa8	-88
96	0x19	25
97	0x7a	122
98	0x71	113
99	0x38	56
100	0x0a	10
101	0xeb	-21
102	0x8f	-113
103	0x09	9
104	0x22	34
105	0x17	23
106	0xf6	-10
107	0xf5	-11
108	0x7f	127
109	0x3b	59
110	0x5b	91
111	0x3b	59
112	0x42	66
113	0xee	-18
114	0xff	-1
115	0x3d	61
116	0x7a	122
117	0x1b	27
118	0x0c	12
119	0xac	-84
120	0xff	-1
121	0x27	39
122	0x37	55
123	0xb0	-80
124	0xf8	-8
125	0xc3	-61
126	0xd2	-46
127	0xdc	-36
128	0x7f	127
129	0xc8	-56
130	0x5d	93
131	0x05	5
132	0x2b	43
133	0xb7	-73
134	0x12	18
135	0xc6	-58
136	0xfc	-4
137	0x1e	30
138	0x18	24
139	0xff	-1
140	0xfa	-6
141	0xcd	-51
142	0x40	64
143	0xb8	-72
144	0xdf	-33
145	0x03	3
146	0x40	64
147	0x14	20
148	0xdd	-35
149	0x0f	15
150	0xd9	-39
151	0x30	48
152	0x32	50
153	0xc0	-64
154	0x0a	10
155	0xfa	-6
156	0x13	19
157	0xc0	-64
158	0xe3	-29
159	0x61	97
160	0x98	-104
161	0x47	71
162	0x6e	110
163	0xde	-34
164	0x0a	10
165	0x7f	127
166	0xa6	-90
167	0x0e	14
168	0x63	99
169	0x15	21
170	0xeb	-21
171	0xa3	-93
172	0x11	17
173	0x76	118
174	0x66	102
175	0xc8	-56
176	0x30	48
177	0x93	-109
178	0xb9	-71
179	0x20	32
180	0xc0	-64
181	0x2b	43
182	0x0e	14
183	0xe3	-29
184	0xad	-83
185	0x32	50
186	0xf9	-7
187	0x0b	11
188	0x4d	77
189	0x31	49
190	0x97	-105
191	0x85	-123
192	0x85	-123
193	0xa8	-88
194	0x4b	75
195	0x34	52
196	0xa5	-91
197	0x0d	13
198	0x19	25
199	0xd6	-42
200	0x26	38
201	0x42	66
202	0xf0	-16
203	0xc5	-59
204	0xfd	-3
205	0x4f	79
206	0xe3	-29
207	0x09	9
208	0xca	-54
209	0x33	51
210	0x3b	59
211	0x7d	125
212	0xe9	-23
213	0xde	-34
214	0x88	-120
215	0x43	67
216	0xa2	-94
217	0x7f	127
218	0x96	-106
219	0xe0	-32
220	0x2f	47
221	0x19	25
222	0xa4	-92
223	0xb3	-77
224	0xce	-50
225	0x00	0
226	0x38	56
227	0x7b	123
228	0x17	23
229	0x0b	11
230	0x9d	-99
231	0x2b	43
232	0x3a	58
233	0x0a	10
234	0xd5	-43
235	0x29	41
236	0x0a	10
237	0x0c	12
238	0xcf	-49
239	0xe6	-26
240	0xd3	-45
241	0x1f	31
242	0x1b	27
243	0xf3	-13
244	0xff	-1
245	0xf5	-11
246	0xde	-34
247	0xbc	-68
248	0xba	-70
249	0xd6	-42
250	0xe4	-28
251	0xa3	-93
252	0xcd	-51
253	0xf6	-10
254	0x81	-127
255	0x11	17

sequential/mobilenetv2_0.35_224/block_13_project/Conv2D/ReadVariableOp i1 [56, 1, 1, 192]
0	0xe4	-28
1	0x1f	31
2	0x0e	14
3	0xf4	-12
4	0xbd	-67
5	0x03	3
6	0xd7	-41
7	0xe6	-26
8	0xc9	-55
9	0xb4	-76
10	0x1b	27
11	0x00	0
12	0xd4	-44
13	0x10	16
14	0x05	5
15	0xf3	-13
16	0xb9	-71
17	0xd7	-41
18	0x3e	62
19	0xd3	-45
20	0x0b	11
21	0x0a	10
22	0x28	40
23	0x29	41
24	0xcf	-49
25	0x23	35
26	0xe5	-27
27	0x15	21
28	0x12	18
29	0xc4	-60
30	0x03	3
31	0x19	25
32	0xe5	-27
33	0x06	6
34	0xc3	-61
35	0xc6	-58
36	0x10	16
37	0xe1	-31
38	0xe1	-31
39	0x10	16
40	0x22	34
41	0x01	1
42	0x2f	47
43	0x0c	12
44	0x2c	44
45	0xda	-38
46	0x12	18
47	0x1e	30
48	0x0d	13
49	0x0c	12
50	0xda	-38
51	0xed	-19
52	0x0b	11
53	0xd4	-44
54	0x0c	12
55	0x35	53
56	0xd5	-43
57	0xee	-18
58	0x25	37
59	0x34	52
60	0x3b	59
61	0x36	54
62	0x3a	58
63	0xf7	-9
64	0xea	-22
65	0xf7	-9
66	0xec	-20
67	0xc3	-61
68	0xdf	-33
69	0xdf	-33
70	0xf5	-11
71	0x05	5
72	0xd1	-47
73	0x03	3
74	0x0a	10
75	0xf3	-13
76	0x0b	11
77	0xed	-19
78	0x3a	58
79	0xdd	-35
80	0x24	36
81	0xb8	-72
82	0xe3	-29
83	0xf8	-8
84	0x2a	42
85	0xe0	-32
86	0xd8	-40
87	0x3a	58
88	0xf3	-13
89	0x0b	11
90	0x5a	90
91	0x14	20
92	0x5a	90
93	0x05	5
94	0xf9	-7
95	0xf8	-8
96	0x06	6
97	0x14	20
98	0xcb	-53
99	0x00	0
100	0x01	1
101	0x0f	15
102	0xf9	-7
103	0xf5	-11
104	0xb3	-77
105	0xfc	-4
106	0x34	52
107	0x2c	44
108	0xeb	-21
109	0x2a	42
110	0xfd	-3
111	0xf0	-16
112	0xf1	-15
113	0xf4	-12
114	0xfd	-3
115	0x02	2
116	0xfa	-6
117	0xff	-1
118	0xbf	-65
119	0x1a	26
120	0xbe	-66
121	0xec	-20
122	0xf0	-16
123	0xc4	-60
124	0x28	40
125	0xff	-1
126	0x0e	14
127	0xb9	-71
128	0xe4	-28
129	0xf8	-8
130	0x4c	76
131	0x0c	12
132	0x4e	78
133	0x29	41
134	0x08	8
135	0x14	20
136	0x23	35
137	0x07	7
138	0x08	8
139	0x30	48
140	0xff	-1
141	0x24	36
142	0xc2	-62
143	0x2d	45
144	0xc8	-56
145	0xe7	-25
146	0xd4	-44
147	0x2a	42
148	0x0c	12
149	0xd7	-41
150	0x09	9
151	0xcd	-51
152	0x81	-127
153	0xe5	-27
154	0xcf	-49
155	0x10	16
156	0x0f	15
157	0xe2	-30
158	0xec	-20
159	0xf7	-9
160	0xde	-34
161	0xfb	-5
162	0xf2	-14
163	0xf2	-14
164	0xf2	-14
165	0xe8	-24
166	0x04	4
167	0x92	-110
168	0xeb	-21
169	0xe1	-31
170	0x36	54
171	0x19	25
172	0xf8	-8
173	0xfa	-6
174	0xf1	-15
175	0xb8	-72
176	0x25	37
177	0x0a	10
178	0xa5	-91
179	0xef	-17
180	0x21	33
181	0xe0	-32
182	0xbc	-68
183	0xe9	-23
184	0xf2	-14
185	0xf3	-13
186	0xbf	-65
187	0x11	17
188	0xec	-20
189	0x3c	60
190	0x02	2
191	0xeb	-21
192	0x12	18
193	0xd9	-39
194	0xf7	-9
195	0x26	38
196	0xf6	-10
197	0xeb	-21
198	0x18	24
199	0x28	40
200	0xfd	-3
201	0xd4	-44
202	0x3d	61
203	0xd9	-39
204	0xf9	-7
205	0xc2	-62
206	0x1d	29
207	0xf9	-7
208	0x24	36
209	0xbd	-67
210	0x2b	43
211	0x2a	42
212	0x0a	10
213	0x2c	44
214	0x03	3
215	0x09	9
216	0xdf	-33
217	0x47	71
218	0x52	82
219	0xfd	-3
220	0xfd	-3
221	0xe2	-30
222	0xdf	-33
223	0xd6	-42
224	0x07	7
225	0x12	18
226	0x08	8
227	0xbc	-68
228	0x11	17
229	0xcd	-51
230	0x12	18
231	0xe2	-30
232	0x0e	14
233	0xd5	-43
234	0x3a	58
235	0x10	16
236	0x10	16
237	0x36	54
238	0xcb	-53
239	0xc9	-55
240	0xfe	-2
241	0xd1	-47
242	0x0c	12
243	0xd2	-46
244	0x07	7
245	0xbe	-66
246	0x30	48
247	0x2f	47
248	0xea	-22
249	0xb9	-71
250	0xeb	-21
251	0xde	-34
252	0x19	25
253	0xd2	-46
254	0xe1	-31
255	0x39	57
