ios/GSSDKSimpleDemo/GSSDKSimpleDemo.xcarchive/Products/Applications/GSSDKSimpleDemo.app/Frameworks/GSSDK.framework/refineBorder.tflite (tflite, 599840 bytes, 104 tensors)

model/mobilenetv2_0.35_96/Conv_1_bn/FusedBatchNormV3 f4 [1280]
00000000: 3006 aec0 e7a6 aec0 6bad 96c0 cc21 9dc0
00000010: ef48 c0c0 58cc b4c0 10ac b3c0 73e9 bbc0
00000020: 7292 9bc0 e6aa 99c0 86b6 9bc0 242a a9c0
00000030: eaa6 a2c0 76ea a8c0 5c85 a5c0 9043 a5c0
00000040: 4275 93c0 23f3 8bc0 4de5 9ec0 85ea b7c0
00000050: 71d5 a3c0 73ee a6c0 76ee aac0 8fe5 9cc0
00000060: acbe b0c0 29dd b4c0 ca86 98c0 5909 96c0
00000070: 5ffa b6c0 b680 a6c0 d81a b9c0 cb3b 8bc0
00000080: d3d3 a7c0 c3ab acc0 7722 a0c0 ab24 b5c0
00000090: 166f abc0 026a afc0 46a5 b9c0 f309 a6c0
000000a0: be62 acc0 e362 9dc0 5ef4 9fc0 1ad2 99c0
000000b0: aec2 b0c0 a006 abc0 b9dd a9c0 ba82 adc0
000000c0: 7da9 b9c0 deea b6c0 280c a7c0 aae2 acc0
000000d0: 4963 a3c0 02e1 9ac0 422f 8cc0 bf95 a6c0
000000e0: e8c4 b2c0 58be 91c0 c001 a6c0 2c6c a7c0
000000f0: cb83 9fc0 2a2b 9ec0 ad7b afc0 e2ea a3c0
00000100: 5643 aac0 6c24 a2c0 e9ab 96c0 22af afc0
00000110: c8f6 90c0 dd80 a6c0 8363 a9c0 7097 a5c0
00000120: ce83 99c0 1e56 b2c0 10cd 9ac0 aa5b a8c0
00000130: 7933 bac0 2ce2 abc0 4e72 aac0 0f3f afc0
00000140: aef9 bbc0 4e08 a1c0 1724 aec0 7884 a9c0
00000150: fe0f 8cc0 be41 9cc0 514a a3c0 5cab b5c0
00000160: 3f4a 98c0 2b71 99c0 0e8f 8dc0 3b57 a0c0
00000170: a65e c4c0 ed59 9dc0 fdfb a6c0 3ae8 afc0
00000180: 4786 b7c0 218c acc0 4544 9bc0 d705 c0c0
00000190: c7bd 8cc0 cf3a 9ac0 3551 b6c0 bd61 94c0
000001a0: 7da1 9ac0 862c aac0 e765 aec0 088a adc0
000001b0: 7d6a 8cc0 89fc a5c0 330d a4c0 8b4c 9ac0
000001c0: 5395 9fc0 c288 adc0 8bc7 a9c0 386a a3c0
000001d0: 1563 74c0 5a7f 98c0 07b0 9cc0 9876 a0c0
000001e0: e26b abc0 7286 adc0 2c15 a3c0 53fd c1c0
000001f0: 25b3 a2c0 8cd3 a1c0 1a61 b2c0 4f13 8cc0
00000200: 1daa adc0 0b5e a9c0 2668 afc0 14a5 aac0
00000210: 7a89 abc0 f4d3 aac0 9745 9fc0 e917 b1c0
00000220: e2d8 b9c0 580a a6c0 2eee a2c0 5ba1 9fc0
00000230: 20c8 aec0 c3e1 b0c0 ee42 afc0 8614 aec0
00000240: a61a adc0 3708 a3c0 8004 a7c0 8657 a1c0
00000250: a678 a1c0 10c5 a1c0 8171 a9c0 c647 a3c0
00000260: ca6c 88c0 687c a6c0 e909 bbc0 d182 9cc0
00000270: 4e2f cec0 4209 adc0 b5f9 98c0 d153 9ac0
00000280: 481c 92c0 d7e9 8dc0 8b7c 93c0 88fb a0c0
00000290: 6e8b 9ec0 389f c9c0 0ffa 94c0 640d 90c0
000002a0: 136f 9dc0 2ce4 92c0 e32f adc0 23e4 b3c0
000002b0: c33c a6c0 9ffb a3c0 dcf7 99c0 51d6 b1c0
000002c0: d543 9fc0 851f acc0 02f3 9ac0 3222 a2c0
000002d0: 2305 b6c0 d2ef a0c0 614f 9bc0 d290 b9c0
000002e0: 80fe a6c0 0a35 a6c0 cca6 a1c0 2ff7 94c0
000002f0: 50f6 a8c0 4407 93c0 fe6a 94c0 7950 adc0
00000300: b5b4 9ec0 1c1c 9ac0 f60e b3c0 9730 a3c0
00000310: 010a bac0 5e5b a4c0 09d6 a8c0 5084 b4c0
00000320: 7e6a a8c0 4b89 99c0 dbf6 94c0 827c c8c0
00000330: ce6c 9ec0 7c33 9fc0 70ff a2c0 20b8 a7c0
00000340: 14ae b2c0 254b afc0 22c5 b9c0 7cb0 b6c0
00000350: cea4 9ec0 ee14 afc0 9eaf abc0 749d a3c0
00000360: ee79 a0c0 b38d a3c0 76dd 88c0 1034 a2c0
00000370: 42df 9fc0 4c25 a6c0 78d9 a8c0 58ae 99c0
00000380: 0658 a5c0 7685 aac0 6444 a7c0 85c9 a3c0
00000390: 8afc a9c0 d33b bdc0 f475 a7c0 9935 a5c0
000003a0: d0bc 8ec0 7f97 a6c0 6f41 b6c0 de73 aac0
000003b0: 4cba acc0 d57b 9fc0 ab76 99c0 4e28 a3c0
000003c0: 1044 b4c0 1060 9ac0 77fc 92c0 e75e abc0
000003d0: 71df a7c0 1ec3 b7c0 06e8 87c0 7402 a7c0
000003e0: e88e 9bc0 803d 9fc0 0f6d a7c0 60e1 91c0
000003f0: 02ca a5c0 f1a4 a2c0 7fd0 afc0 cd24 9cc0
-5.4382553 -5.457874 -4.708669 -4.9103756 -6.008903 -5.6499443 -5.6147537 -5.872247
-4.8616266 -4.8021116 -4.8660307 -5.286394 -5.0828753 -5.2786207 -5.172529 -5.1644974
-4.6080637 -4.37343 -4.965491 -5.747378 -5.119805 -5.2166076 -5.341609 -4.9030223
-5.5232754 -5.651997 -4.7664537 -4.688641 -5.718063 -5.203212 -5.784527 -4.351049
-5.2446074 -5.395967 -5.004207 -5.660726 -5.3573103 -5.4816904 -5.801425 -5.1887145
-5.3870535 -4.918321 -4.99858 -4.806897 -5.5237646 -5.3445587 -5.3083158 -5.422208
-5.8019395 -5.7161703 -5.220234 -5.402669 -5.10587 -4.839967 -4.380769 -5.2057796
-5.5865364 -4.5544853 -5.1877136 -5.2319546 -4.984838 -4.942769 -5.483847 -5.122422
-5.3207197 -5.066946 -4.708485 -5.4901285 -4.5301247 -5.2032304 -5.2933974 -5.174736
-4.7973394 -5.5730124 -4.837532 -5.2611895 -5.8187833 -5.371359 -5.326453 -5.4764476
-5.8742285 -5.0322638 -5.4419055 -5.2974205 -4.376952 -4.883025 -5.102822 -5.677168
-4.7590632 -4.7950644 -4.4237127 -5.0106483 -6.136554 -4.9172273 -5.2182603 -5.497098
-5.7351413 -5.3921056 -4.8520837 -6.000713 -4.398166 -4.819679 -5.697413 -4.636931
-4.832213 -5.317935 -5.4499393 -5.4230995 -4.387999 -5.187077 -5.126611 -4.8218436
-4.986978 -5.422944 -5.3056083 -5.106716 -3.8185475 -4.765546 -4.8964877 -5.014477
-5.3569193 -5.422662 -5.0963345 -6.0621734 -5.084368 -5.0570736 -5.574353 -4.377357
-5.427016 -5.29273 -5.4814634 -5.332651 -5.360532 -5.338373 -4.977245 -5.5341687
-5.807725 -5.1887627 -5.0915747 -4.9884467 -5.4619293 -5.527559 -5.47692 -5.4400053
-5.409503 -5.094753 -5.2192993 -5.041934 -5.0459776 -5.0553055 -5.2951055 -5.1025114
-4.26328 -5.2026863 -5.8449597 -4.890969 -6.4432745 -5.40738 -4.780482 -4.8227315
-4.5659523 -4.434795 -4.608953 -5.0307045 -4.95452 -6.300686 -4.6555247 -4.5016346
-4.919809 -4.590353 -5.4120955 -5.6215987 -5.194917 -5.1244655 -4.8115063 -5.5574117
-4.9770303 -5.3788476 -4.842164 -5.066674 -5.688127 -5.029275 -4.85344 -5.7989283
-5.218567 -5.1939745 -5.051611 -4.655174 -5.2800674 -4.594637 -4.6380606 -5.4160733
-4.959559 -4.8159313 -5.5955763 -5.0996814 -5.813721 -5.136153 -5.2761273 -5.6411514
-5.2629995 -4.7980094 -4.6551337 -6.2651987 -4.950782 -4.9750347 -5.0936813 -5.241226
-5.58375 -5.477923 -5.805314 -5.7090435 -4.9576178 -5.471305 -5.3651876 -5.1129704
-5.014884 -5.1110473 -4.277034 -5.0688553 -4.996003 -5.192053 -5.2765465 -4.802532
-5.166995 -5.3287916 -5.2270985 -5.1183496 -5.3120775 -5.9135528 -5.2331486 -5.1627927
-4.4605484 -5.205993 -5.6954875 -5.326644 -5.3977413 -4.983866 -4.795736 -5.09867
-5.6333084 -4.8242264 -4.5933185 -5.3553348 -5.2460256 -5.742568 -4.247073 -5.2190495
-4.8611946 -4.9762573 -5.232063 -4.5587616 -5.180909 -5.0826344 -5.494201 -4.8794923

model/mobilenetv2_0.35_96/block_10_depthwise_BN/FusedBatchNormV3 f4 [144]
00000000: eee3 99bd 6553 4e40 ea19 41bf 58e8 98bf
00000010: e9eb 1e40 3cd8 c43f 4339 f340 5f08 1440
00000020: 42e2 5540 48b4 423f 075e 0a40 defa 2440
00000030: 085d 4abd 3278 e2bf 2eb9 983f 0076 8ebf
00000040: f07e 43bc 8b3e 2bbf 6326 823e dd38 1740
00000050: 4f83 0840 29c3 0540 983c a53f d805 f0bf
00000060: c4e0 4540 1f8b 3cbe 86b0 1341 60d2 523f
00000070: 3ce9 73c0 947e b3bf 16d8 4740 77a8 9640
00000080: 75f1 6a40 ccca ce3f 608f 63bf 8a06 38c0
00000090: 74f2 1940 748c ca3f db78 d03f b8f7 f93d
000000a0: 6161 d3bf e8fe 71bf e36f 75bf 062e 0d3e
000000b0: 4239 e4bf 9c0e 7940 ac22 1abf a40c 1dbf
000000c0: 3ad8 6240 a07c 2440 d051 3f3f 9628 9b3f
000000d0: 0c98 a340 c7a2 8940 84dd bcbd 98b2 a33f
000000e0: a58f e3bf b483 c0bd ff1a 953f e3f5 d03f
000000f0: 2086 7f3f aec0 0440 ef68 8ebf 5015 94be
00000100: c0d6 ecbd b190 4440 cc84 a8bf deaf 8e3e
00000110: 91a1 0240 a29e 4fc0 f9d2 4340 794a 2040
00000120: cf86 0840 6bd2 d640 2b01 b4be ec87 debf
00000130: aec0 0e40 5c4f 28bf 60ef b93f 785d 1140
00000140: 1865 d9bd b739 913f 930a 3e40 a0df 0540
00000150: ce61 1340 144b 573f 10f5 7f40 b23a f5bf
00000160: e4c1 963e 5e56 b63f 4b01 fbbe dc99 c03f
00000170: aa01 6440 4e92 c33f 64ac 1c40 cc4f 4cc0
00000180: f23a 0b40 d77c ca3e 59e4 1140 3f3c eebf
00000190: 3826 903f c9be 18be 4e44 1cc0 d855 2640
000001a0: 69f2 af3f c014 0340 50c0 cd3f 4e93 ba3f
000001b0: 479d 633f 9a62 f63f 35db 9ebf 14bb 3240
000001c0: 407b 11bf 3d1c dcbd 3237 8c40 cb5a b33f
000001d0: 326e 0ac0 4eeb 51c0 cea0 3540 9846 7a3e
000001e0: d84f 88bd 7ed0 fbbe a159 0340 0881 31bd
000001f0: 21dd ba3f 1e6c a140 eade 0140 20c3 033e
00000200: fd91 f93f d2c1 ab3f 24b6 cdbf 135f 4d40
00000210: b1d6 6540 1f1f e83f 68db 2d40 e541 193f
00000220: 6134 1c40 69aa 4240 e76b 2140 b921 2e40
00000230: 96b4 1140 b138 c440 7de9 5640 46aa 0a40
-0.07514177 3.22384 -0.75430167 -1.1945906 2.4831488 1.537849 7.60074 2.313011
3.3419347 0.7605634 2.161989 2.5778117 -0.049405128 -1.7692931 1.1931512 -1.1129761
-0.01193212 -0.6689231 0.25419912 2.3628457 2.1330144 2.0900366 1.2909117 -1.8751783
3.0918436 -0.18412445 9.230597 0.82352257 -3.8111105 -1.4023004 3.1225638 4.7080646
3.6709874 1.6155639 -0.8889065 -2.875399 2.4054232 1.5824113 1.6286882 0.12205452
-1.6514093 -0.9452958 -0.9587385 0.13787088 -1.7829974 3.8915167 -0.60209155 -0.61347413
3.5444474 2.5701065 0.7473421 1.2121761 5.1123104 4.3011203 -0.09221938 1.2788877
-1.7778212 -0.094001204 1.1648864 1.6325039 0.99814034 2.0742602 -1.1125773 -0.2892251
-0.11564398 3.0713313 -1.3165526 0.2786855 2.0411112 -3.2440572 3.0597517 2.5045455
2.133228 6.713186 -0.3515714 -1.738523 2.2305102 -0.6574609 1.4526176 2.2713299
-0.10614985 1.1345738 2.9693954 2.091774 2.3028445 0.84098935 3.9993324 -1.9158537
0.29444802 1.4245107 -0.49024424 1.5046954 3.5626016 1.5279024 2.448022 -3.1923704
2.1754727 0.3954837 2.2795622 -1.8612136 1.1261663 -0.14916529 -2.441669 2.5989895
1.3745853 2.0481415 1.6074314 1.4576204 0.8891186 1.9248841 -1.2410647 2.7926683
-0.5682869 -0.107475735 4.3817377 1.4012083 -2.1629758 -3.2799869 2.8379397 0.24440992
-0.06655854 -0.49182504 2.0523455 -0.043335944 1.4598733 5.044448 2.0292306 0.12867403
1.9497677 1.3418524 -1.607121 3.2089279 3.5912287 1.8134497 2.7165165 0.5986617
2.440697 3.041651 2.5222108 2.7208083 2.276647 6.1319203 3.358001 2.1666427

model/mobilenetv2_0.35_96/block_10_expand_BN/FusedBatchNormV3 f4 [144]
00000000: 5299 03bf 2922 b33f ac3a 093e 0326 fa3e
00000010: 5fee 0a40 31d3 d43f 5acd 4140 cd29 b23f
00000020: 01dd ce3f 5215 8e3f 20cb 3240 c9ab 9c3f
00000030: c7c9 8c3f 3235 cbbf 4925 3240 d783 b83f
00000040: 42ac 7a3f 90b8 0fbf 43b0 f63d 8c9e bb3f
00000050: feae 703f 5f86 bb3f 8fec a53e 230c de3e
00000060: 071f 573f a44d 083f 8ade 8b40 26de 0d40
00000070: b8e0 993f be0b 44bf 2a23 ec3f 9880 ddbe
00000080: 7768 0340 5efd 9b3f 12db 403f 3d29 d53d
00000090: 0481 02be 4ef4 64bf 55ca f93f 01dc 5dbf
000000a0: 8c43 a53f e608 cfbe 4af1 d63d 3903 0640
000000b0: 2973 ecbf 2cf2 5ebd 1d5b b83f 6cdb c63f
000000c0: 1da2 d03e ff35 4e3f c319 253f 9c4e 15bf
000000d0: 0d00 573f e3a7 663f fc4d a6be 6af8 9b3f
000000e0: 7407 12c0 c541 b63e 18c5 efbf 5702 1340
000000f0: 375c a23f d28c 00c0 7e20 d03e 7ef3 eebe
00000100: ec9e ca3e 7cb4 9d3f df31 2540 0679 883e
00000110: 268b 14bf 0da5 583f 8eaf b33e 3538 623f
00000120: 5567 3d3f 7f09 c2be a8ca 61bf 6038 fabe
00000130: 52df a33f c55d b6bf ad2d 0b40 5ad0 253f
00000140: 39e3 fe3f 30d9 d0bf f07c a83f c5b1 753f
00000150: ae06 5cbf 7328 c7bf 07c1 21bf e089 c7bf
00000160: e05f ad3d 76c9 2dc0 20bc cfbe be68 be3f
00000170: c9f1 2f40 581c ad3f 05d3 f23e 8800 dbbf
00000180: 613a b3be 02eb 0740 2072 0640 e401 a3bc
00000190: e13c 183d d2a5 ca3d 0745 c43f bedb 7dbd
000001a0: dbed f33f 261b 0c3f 4662 f93f 0ae8 f1bf
000001b0: dc69 d83f 0d93 cf3f 3ee5 48bf baa6 453f
000001c0: e036 0440 580b 843e 352d fa3f d6c4 893f
000001d0: 626a 2b40 55cf 973f 81df e53e a6a4 ed3e
000001e0: 9ad7 0840 a7f3 8d3f 0374 833f 458a 4abf
000001f0: 0d13 cfbe 1557 1140 7cfa cb3f cc8a 9e3f
00000200: d630 5f3d 0f73 eebe 0738 163e dabf 483e
00000210: 2a08 f73d 1cfa 293d 6ac2 f53f fc3c 563f
00000220: b71b f93f 1971 3140 4262 d93f 80dc 38bf
00000230: ce90 1640 e56f 073f d52f af3f cae1 a1bf
-0.51405823 1.39948 0.13401288 0.48857126 2.170799 1.662695 3.0281587 1.3919007
1.6161195 1.1100256 2.7936478 1.2239925 1.0999078 -1.5875609 2.7835257 1.4415234
0.97919095 -0.56140995 0.12045338 1.465776 0.94017017 1.4650382 0.32407042 0.43368635
0.8403172 0.5324347 4.3709154 2.2166839 1.2021704 -0.7658042 1.8448231 -0.43262172
2.053251 1.2186697 0.75334275 0.10408256 -0.12744528 -0.8943528 1.9514872 -0.86663824
1.2911239 -0.40436476 0.10495241 2.0939467 -1.8472644 -0.05443017 1.4402806 1.5535712
0.40748683 0.8055114 0.64492434 -0.58323073 0.8398445 0.90099925 -0.32481372 1.2185185
-2.281705 0.35597053 -1.8732023 2.2970178 1.2684392 -2.008595 0.4064979 -0.46670145
0.39574373 1.2320704 2.581169 0.26654834 -0.58024824 0.8462685 0.35094875 0.88367015
0.739858 -0.3789787 -0.88199854 -0.48871136 1.2802527 -1.4247366 2.1746628 0.64771044
1.9913093 -1.631628 1.3163128 0.9597438 -0.8594769 -1.5559219 -0.6318516 -1.5588951
0.08465552 -2.7154212 -0.40573215 1.4875715 2.7491324 1.3524275 0.4742662 -1.7109537
-0.35005477 2.1237187 2.1007156 -0.019898362 0.037167434 0.09894909 1.5333565 -0.06197714
1.9056963 0.54728925 1.9483116 -1.8898938 1.6907306 1.6216751 -0.78474796 0.7720753
2.0658493 0.25789905 1.9545046 1.0763195 2.678368 1.1860148 0.44897082 0.4641468
2.1381593 1.1089982 1.0269779 -0.7911723 -0.40444222 2.27094 1.5935817 1.2386107
0.054489933 -0.46572158 0.1466981 0.19604436 0.12062104 0.04149829 1.9199955 0.83686805
1.9461583 2.772528 1.6983111 -0.72211456 2.3525882 0.5290511 1.3686472 -1.264703

model/mobilenetv2_0.35_96/block_11_depthwise_BN/FusedBatchNormV3 f4 [192]
00000000: 9311 82bf 2642 d9be e473 893f 22d5 0ec0
00000010: cc45 e83f 2e09 c53f 5249 11bf 6539 d23f
00000020: fa27 80c0 56c8 8b3f e145 d1bf 1ae5 90bf
00000030: 27d4 a6bd 865c 9ebf a2ec eabf 128f 7c3f
00000040: e6e8 56bf 05eb 91c0 f685 7cc0 7021 94bd
00000050: d970 eabf 1419 be3d 3b76 8ac0 264e 2dbf
00000060: e19b 9bbf 2c44 4ec0 5119 8540 40aa 19bd
00000070: 3ebd 31bf 16d9 483f cd4e a8c0 08ae 03c1
00000080: 86f3 91bf 8054 babe c8a0 8640 a02e 3b3f
00000090: 7a60 793e d87e d13f 482c 413f 24ff 9f3f
000000a0: 80fc 81be cebd 9f3f fcfc 4340 fabd 18c0
000000b0: 35ba b2c0 8127 8840 eaae 293f 6eb3 a9be
000000c0: 35db 2fc0 6c12 3740 efee 763f fe64 c6bf
000000d0: 0acf 4bbf a07e c5bd 2080 fe3e 4c8b babf
000000e0: 85ba 8f3f 9068 79bf 85b4 f3bd 74b5 1240
000000f0: defe 25c0 0e6f 24c0 b031 5ac0 33b7 003f
00000100: cf15 d6c0 fc4c f2be a9a6 e6bf 82df 0640
00000110: 963d 833f c905 ce3f ce98 623f 5a36 8dbf
00000120: 7211 4140 b102 ccbd 7765 4340 ec57 92bf
00000130: fea5 013f fc8d 8e3e 427e dc3f 14ea 8fbe
00000140: b58a 7bc0 884e 66c0 5d6b 1f3f 04e6 5cbf
00000150: 7c0f 82c0 2eba da3f 6f9e 08c0 8cc2 1a40
00000160: 0744 5fc0 b78b 793f 2dc7 7fc0 90d0 cbbf
00000170: 5347 44be 7042 163e c1f5 a5be f8be 1ac0
00000180: 9880 1ebf ad28 01bf 043f 7840 4e0e 0abe
00000190: 562b 4abf 5071 1abd e4af a83f 3628 4abf
000001a0: a857 9ec0 8ef0 13c0 a807 31be 1888 fdbe
000001b0: f24f e03f ea9c 833f fc78 40c0 7959 2940
000001c0: e741 1ec0 2774 1340 36da 2440 2b3b e93f
000001d0: 8f10 e4bf fdaa 1ec0 2606 0dc0 9892 ee3f
000001e0: 9ed7 cfbf 71e6 603f f038 ffbe 28ae 3bbe
000001f0: e817 fdbf 26e7 813e 064a 3bc0 397c 13bf
00000200: 9044 5cbf 4d50 823e d051 41bf ec2f 56bf
00000210: 50d2 d83f 247a 3ebf af30 0640 3e52 15be
00000220: 106d 54be a427 4a3f a8cd bcbf fe9a f23f
00000230: 52e7 cf3f 180b e040 4136 65c0 ffca 9d3f
00000240: d2c4 d1bf 9637 903f d8ae 11c0 d410 783f
00000250: cb26 dbbf fbe5 17bf c48b aebf c0f6 ca3f
00000260: 7ca2 71c0 f28b 4dc0 eea8 babe 401e 933f
00000270: e7f2 48c0 7c70 c0bf 2e6a 43c0 deee 9a3f
00000280: f633 e8bf 9efc 0bc0 53c6 1d40 c047 9dbe
00000290: 2f67 cfbf e0f1 873c aeb8 573e 2462 4fc0
000002a0: 4dbf 01bf da10 ebbf 50b6 a83e 5b68 bdbf
000002b0: fd69 c93f 1a91 49bf b83a bc3e b660 3240
000002c0: 50db 70c0 7c70 6bc0 b645 b83f 49ec 2b3f
000002d0: 0a15 89be bba5 3a3d 22fd a0be 8a8d 723f
000002e0: 9203 43c0 3a22 18c0 f6b3 a13f d67d 79bf
000002f0: d15f dabe 353d 3fc0 f06b 72be 7895 73c0
-1.0161613 -0.4243328 1.0738492 -2.2317586 1.81463 1.5393426 -0.567525 1.6423765
-4.00488 1.0920513 -1.634945 -1.1319916 -0.081459336 -1.2371986 -1.8353465 0.9865581
-0.83949125 -4.559939 -3.9456763 -0.0723294 -1.8315688 0.09282127 -4.3269324 -0.6769737
-1.2156945 -3.222911 4.1593404 -0.03751588 -0.69429386 0.78456247 -5.259619 -8.229988
-1.1402442 -0.36392593 4.2071266 0.7311802 0.24353209 1.6366835 0.7545819 1.2499738
-0.25387955 1.2479799 3.062316 -2.3865952 -5.5852304 4.2548223 0.6628252 -0.33144706
-2.7477543 2.8604994 0.96458334 -1.549957 -0.7961279 -0.096432924 0.49707127 -1.457376
1.1228796 -0.97425175 -0.11899666 2.292325 -2.5936809 -2.5692782 -3.4092827 0.5027954
-6.690162 -0.4732436 -1.8019611 2.1073918 1.025317 1.6095515 0.8851441 -1.1032212
3.0166898 -0.09961451 3.053068 -1.1433082 0.5064391 0.278427 1.7226031 -0.28108275
-3.930341 -3.5985432 0.622732 -0.86288476 -4.06439 1.7088068 -2.13467 2.4181242
-3.488527 0.9747881 -3.9965317 -1.5923023 -0.19167833 0.14673781 -0.32414058 -2.4179058
-0.6191497 -0.5045269 3.8788462 -0.1348202 -0.78972375 -0.03770572 1.3178678 -0.7896761
-4.9482 -2.3115573 -0.17288077 -0.49517894 1.7524397 1.0282261 -3.0073843 2.646086
-2.4727724 2.3039644 2.5758185 1.8221182 -1.7817553 -2.4791863 -2.2035003 1.8638487
-1.6237676 0.87851626 -0.49848127 -0.18328154 -1.9772921 0.25371665 -2.926393 -0.57611424
-0.8604212 0.2545189 -0.7551546 -0.8366687 1.6939182 -0.7440512 2.0967214 -0.14582154
-0.20744729 0.78966737 -1.4750261 1.895355 1.6242468 7.001354 -3.5814364 1.2327574
-1.638819 1.1266963 -2.2762966 0.9690068 -1.7121214 -0.593353 -1.3636403 1.5856552
-3.7755423 -3.2116666 -0.36457008 1.1493607 -3.1398256 -1.5034328 -3.0533557 1.2104146
-1.8140857 -2.1872935 2.4652297 -0.30718803 -1.6203364 0.016594827 0.21066543 -3.240365
-0.50682527 -1.8364518 0.32951593 -1.4797472 1.573547 -0.7873703 0.3676355 2.7871528
-3.7633858 -3.6787405 1.4396274 0.6715742 -0.26773864 0.04556821 -0.31443125 0.9474722
-3.047093 -2.377089 1.2633045 -0.97457635 -0.42651227 -2.9881108 -0.23673987 -3.8059978

model/mobilenetv2_0.35_96/block_11_expand_BN/FusedBatchNormV3 f4 [192]
00000000: 3f22 b73f a307 7bbe 4bf8 553d eb44 ff3f
00000010: 1213 903f 9252 833f 91c3 bf3f 32b6 963f
00000020: d0b1 9c3f 6b2d d93f 5cb1 38bf 05b2 78bf
00000030: ab0c 9c3e 9d1f febd cc0c 443f 4ec8 1540
00000040: c24d bcbe 8594 963e d05d e0be 53e5 943f
00000050: b2dd 9d3f cd0c 823f 12e6 aebe 6395 90bd
00000060: eaa0 82be 3d06 493e 06f7 0b40 afff be3f
00000070: 226a 4cbe 9658 0140 8482 b8bf 5c95 c23f
00000080: 0604 7f3f 340b b03f e8d5 4d40 846f 533f
00000090: c97b 5cbe 0a19 83bf e520 853e 6d45 9e3f
000000a0: 7793 863f ea5b e53f 3e1a 5abd 28cd aa3f
000000b0: bd29 833f ff8f febe 6eac 5f3f d7e4 4ebf
000000c0: 518b ad3f f00c 8cbe e936 da3e c4bf db3f
000000d0: c56b 0f40 93fe 683f 9491 2b40 f2a5 ebbe
000000e0: 4540 f13f e662 d5bf d534 8abf e32d aabf
000000f0: baf1 59bf 35a5 d23f 9126 0b40 7b15 d23f
00000100: 56e0 4c3f 666b 18bf 9ca9 4140 d7c2 c63f
00000110: 1524 93bd 5d37 68bf c69e 2d3f 5926 1f40
00000120: 4cfd 0ec0 7107 023f 741c e3bd 45e8 3e3f
00000130: d21d 513f 51c1 be3e 86a2 c93f 8d4c 6cbf
00000140: 5f9f 00bf 61a8 5e3f 21f0 c93d 369f 24bf
00000150: 5173 1c3f 2682 2cbf 2c47 37bf 23d8 c23f
00000160: 2d32 46be 49de 9f3f 372c 0040 11d0 5f3e
00000170: db3e 8a3f 82b0 be3f 5e02 b73f 05aa c2bf
00000180: f436 853f 2ecb 8f3f 7ca1 1440 03cf 22bf
00000190: 013a 00bf 8cbb 623f c5bf 1c3f fafb 6b3f
000001a0: 0f38 1e40 fa10 0e40 df21 553f 876f 8d3f
000001b0: b72e 8cbe 5fd6 0240 9372 913f 8e90 ecbb
000001c0: 8cee e03e abdd 1d3f ff5c 4a3d e519 b63f
000001d0: ba6e fd3f 2e0b c7be c5e4 48bf 9cc6 05c0
000001e0: f6b5 15c0 f41f 06bf f2a1 653f 323a 413f
000001f0: 725c 1140 a0f5 be3e db70 98bf b5d4 7d3f
00000200: 95b9 013f 4282 f1bf c39d 1a40 a898 2cbe
00000210: b003 6f3d ef9b b53f 8d63 7dbe beb1 2540
00000220: e6b1 433f 33be 323f 8d2d 0440 c628 b73f
00000230: 6cb1 35be 1ced 5d40 1148 c33f df0b 1140
00000240: c532 f73f d693 b43f 06c0 e13f eb37 a23f
00000250: 5eae 1940 1a94 913e 2042 9cbf b616 d6bf
00000260: a838 1440 7692 3fbe 34c8 963f 743f d43f
00000270: b3ee b8bf ccc4 cf3d 03c4 19bf 70b5 bb3f
00000280: 3788 d53e d67d c23f aa4e 01bf 45d2 833e
00000290: 7ee2 e6bf 8621 1abf 3904 efbf 6c1e 2bbf
000002a0: 41d6 9a3f b63d bb3f 0d4e 9b3f 49ad 04be
000002b0: 9f5a b6bf 1d72 2840 ce7e 35bf 37f8 9a3f
000002c0: 6c1a 96be 4fea 98bf 9538 97bf a91b 853f
000002d0: e972 1bbf f5d3 06c0 59e4 afbe 0948 4e3f
000002e0: 2bf4 b4bd 65c1 55bf e297 e5bd 9c94 c63f
000002f0: 5ec6 2fbf 5f36 b2bf 7fe2 5d3f 3ec0 c6bf
1.4307326 -0.24514632 0.052238744 1.9942907 1.125582 1.0259573 1.4981557 1.1774352
1.2241764 1.6966985 -0.7214563 -0.97146636 0.30478415 -0.124083735 0.76582026 2.3403506
-0.36778075 0.29410186 -0.43821573 1.1632484 1.2333281 1.0160156 -0.34159905 -0.07059743
-0.25513393 0.19631286 2.186952 1.4921778 -0.19962361 2.0210319 -1.441483 1.5201831
0.99615514 1.3753419 3.2161808 0.82592034 -0.21531595 -1.0242016 0.2600166 1.2364937
1.0513753 1.7918675 -0.053247683 1.3343859 1.0247113 -0.49719235 0.8737248 -0.8081793
1.3558141 -0.2735362 0.42620018 1.7167897 2.2409527 0.9101345 2.6807604 -0.46025044
1.8847739 -1.6670806 -1.0797373 -1.3295254 -0.8513447 1.6456667 2.174229 1.6412805
0.8002981 -0.59538877 3.0259771 1.552821 -0.071846165 -0.9070948 0.67820394 2.4867156
-2.23421 0.50792605 -0.110894114 0.74573165 0.8168613 0.37256864 1.5752723 -0.9230431
-0.5024318 0.86975676 0.09860254 -0.64305437 0.6111346 -0.6738609 -0.71592975 1.522221
-0.19355078 1.2489711 2.0026987 0.21856715 1.0800432 1.4897616 1.4297597 -1.5208136
1.0407395 1.123388 2.3223562 -0.63597125 -0.50088507 0.88567424 0.6123012 0.9218136
2.4721715 2.2197862 0.8325481 1.104966 -0.2737939 2.0443342 1.136309 -0.0072193807
0.43931997 0.61666363 0.049405094 1.4226652 1.9799416 -0.38875717 -0.78474075 -2.0902472
-2.339231 -0.52392507 0.89700234 0.75479424 2.2712674 0.37296772 -1.1909441 0.9915269
0.506738 -1.8867877 2.415879 -0.16855109 0.058353126 1.4188212 -0.24745007 2.5889735
0.76443326 0.6982147 2.0652802 1.4309318 -0.17743462 3.467597 1.5256368 2.2663496
1.9312369 1.4107616 1.7636726 1.2673315 2.4012675 0.28433305 -1.220768 -1.6725681
2.315958 -0.18708214 1.1779847 1.6581864 -1.4447845 0.10144958 -0.60064715 1.4664745
0.41705486 1.5194652 -0.50510657 0.2574636 -1.803787 -0.602074 -1.8673164 -0.66843295
1.2096635 1.4628208 1.2133194 -0.12956728 -1.4246405 2.631965 -0.70896614 1.2106999
-0.29317033 -1.1946505 -1.1814142 1.0399066 -0.60722214 -2.1066868 -0.34353903 0.80578667
-0.08835634 -0.8349822 -0.1121061 1.5514102 -0.6866206 -1.3922843 0.8667373 -1.5527418

model/mobilenetv2_0.35_96/block_12_depthwise_BN/FusedBatchNormV3 f4 [192]
00000000: e5b4 5abf 2287 e13f ec82 0d40 a0c8 74c0
00000010: da79 53c0 7056 65c0 03ca 5c40 664f 4ebf
00000020: 11a8 95c0 8780 bcc0 d487 b9bf d1ea d040
00000030: ae06 2cc0 0c5b 59bf ae17 7ac0 5841 91c0
00000040: 25c5 adbe 1431 99c0 265c c83f dd1a 70bf
00000050: 9c99 29c0 828a 7f3f 759a 5e3f 7a12 89c0
00000060: 240a fd3d 0e2e c940 66bd f9bf 1b8e 0cc0
00000070: e24f 9a3f 60cf dcbe d612 27c0 8e46 5ec0
00000080: 30eb 5ebf ff06 063f 77da 96be 106c 90be
00000090: b0e0 f7bf a0e6 a4bd c705 bdbf 171f 933e
000000a0: 124a 2fc0 9aac 5040 dcbe 3c40 4e16 34bf
000000b0: 0a8f 363f f6ac 6dc0 b15e d3bf 01e9 82be
000000c0: 88ea 2dc0 4535 923e 762e 30bf 318c fb3f
000000d0: d870 d0bf 15d9 12c0 545a a83f c71d 47c0
000000e0: 9630 f2bf 0091 13bf c044 ad3d 8a9f a7be
000000f0: 5026 68c0 460d 58bf 47aa 6640 fbf4 db3f
00000100: 729b 973f 0b74 a2bf eeee 2940 ecb4 9d3e
00000110: 7e46 8440 787a d03f feef d2bf 0c57 1a40
00000120: 90b2 99bc 6d22 13c0 396b d43f 29b1 6d40
00000130: 1d74 b9c0 590b 2a3f 4055 9dbc 38ce 82c0
00000140: 1aeb 6fc0 2a1e 8d3f d477 a7bf 1383 7ac0
00000150: 0855 4d40 d889 81bf a48e f43e 5982 6f3f
00000160: 7c0a a6be ac58 41c0 b88f 1abf 38ef d5bf
00000170: 46c3 5dc0 50b6 40bd 8bda 1cc0 b4ef 0940
00000180: 2a89 5bc0 263f debf cc99 fa3f 2265 68bf
00000190: e021 88c0 2875 05bd 15f0 b3c0 6183 21c0
000001a0: 787b f83f 0ab4 35bf 2108 33c0 4015 21be
000001b0: a8b4 79be 4a0a b23e 1041 16c0 8ef9 2d40
000001c0: 984e ecbf b604 2640 641a a1bd 1ef5 dbbf
000001d0: 73f3 cf3f a685 cdbc e288 2dc0 aa07 7dc0
000001e0: 5ecd 2dbe 3000 5ebd dcad a0bf 9257 41c0
000001f0: bcb5 993f 321e 9ebe 52f6 29c0 bafe ffbe
00000200: 06f5 89c0 b5ed 6040 c620 f23f 5573 703f
00000210: 6437 e8bd 4413 613f 5a4f 28c0 bf16 9abf
00000220: 0c52 9cbf 80ae aac0 5a70 febe e2c8 96bf
00000230: 9340 1dc0 a3f7 16c0 bea5 a2bf 6061 47c0
00000240: 6094 3cc0 d767 0440 990f aabf 66bb a2c0
00000250: d16f e7bd a8cc 803f a275 46bf 0021 d5bb
00000260: 9c7c 623e eabf 3340 e89d a3bd e5d8 a93f
00000270: 915d 4cc0 e870 88bf 49ac 8840 3f1d 2cc0
00000280: ecd6 d6bf d816 d7be 18da c03f cc7d f2be
00000290: 274a c4be 1481 b0bf 88ef 503f 0023 89c0
000002a0: 0d41 03c0 5473 1e40 b935 0dc0 ec16 6a40
000002b0: a052 38c0 c019 ca3e 58c7 75bf 5e0d 1441
000002c0: 28e7 653e a494 fcbe dacf 1ac0 1d08 0340
000002d0: 3722 4cc0 a2ea d03f 3007 f7bf aedd 2fc0
000002e0: 3f35 c33e 789a e7c0 2919 08c0 7f9e 95bf
000002f0: d0df aec0 1bc3 46c0 a065 95bd 2454 a2c0
-0.85432273 1.7619364 2.2111158 -3.8247452 -3.3043122 -3.5834007 3.4498298 -0.805899
-4.676766 -5.8906894 -1.4494576 6.528664 -2.6879077 -0.8490455 -3.9076953 -4.5392265
-0.33939472 -4.787241 1.5653121 -0.9379099 -2.6500006 0.9982072 0.8695443 -4.2835054
0.1235545 6.286872 -1.9510925 -2.1961734 1.2055628 -0.43126965 -2.6105247 -3.4730563
-0.8707762 0.52354425 -0.2946355 -0.28207445 -1.9365444 -0.08051801 -1.4767388 0.28734657
-2.738896 3.2605348 2.9491491 -0.70346534 0.7131201 -3.7136817 -1.6513273 -0.25568393
-2.7174397 0.28556266 -0.68820894 1.9652158 -1.6284437 -2.2944996 1.3152566 -3.1111925
-1.8921077 -0.5764313 0.08460379 -0.32738906 -3.6273384 -0.84395254 3.604143 1.7184137
1.1844313 -1.2691664 2.655208 0.30802095 4.133605 1.6287374 -1.647949 2.411563
-0.018761903 -2.2989762 1.6595222 3.713938 -5.795424 0.66423565 -0.01920569 -4.087673
-3.7487245 1.102483 -1.3083444 -3.9142501 3.208315 -1.0120192 0.47765076 0.9355827
-0.32429874 -3.021037 -0.6037555 -1.6713629 -3.4650435 -0.047048867 -2.4508388 2.1552553
-3.4302468 -1.7363021 1.9578185 -0.90779316 -4.254135 -0.032582432 -5.623057 -2.5236437
1.941268 -0.7097784 -2.7973711 -0.15730762 -0.24385321 0.34773475 -2.347721 2.7183566
-1.8461485 2.5940375 -0.07866362 -1.7184179 1.624617 -0.025088143 -2.7114797 -3.9535928
-0.16972873 -0.054199398 -1.2553058 -3.0209699 1.2008586 -0.30882412 -2.6556592 -0.49999028
-4.31116 3.5145085 1.8916252 0.9392598 -0.1133869 0.8792002 -2.6298432 -1.2038192
-1.2212539 -5.3338013 -0.49695092 -1.1780055 -2.4570663 -2.3588645 -1.270683 -3.1153183
-2.946556 2.068838 -1.328601 -5.085376 -0.11300624 1.0062456 -0.77523243 -0.006504178
0.22117847 2.8085885 -0.079891026 1.3269316 -3.1932108 -1.0659456 4.271031 -2.689285
-1.6784339 -0.42009616 1.5066557 -0.473616 -0.38337824 -1.3789392 0.81615496 -4.2855225
-2.0508454 2.475789 -2.206404 3.657649 -2.880043 0.3947277 -0.960073 9.253263
0.2245146 -0.49332154 -2.4189363 2.0473702 -3.1895883 1.6321604 -1.9299068 -2.7479053
0.3812656 -7.237606 -2.1265357 -1.1688994 -5.464821 -3.1056583 -0.07294774 -5.072771

model/mobilenetv2_0.35_96/block_12_expand_BN/FusedBatchNormV3 f4 [192]
00000000: 185f a3bf 9cc6 fa3e a0b1 c03f d7f1 a23e
00000010: 0055 c63f cd1c 0b40 3cd5 0d3f 9af3 ecbf
00000020: c339 35bd 1f1d dd3e 3e38 2fbf edbb 8140
00000030: ae65 7dbf 0a4e 6e3f 9d16 a23f 4f48 813f
00000040: 125d 81bf dfee c73f 4382 803e d1e8 8b3f
00000050: 6687 2140 4d87 3540 d633 793f 7271 57bf
00000060: df8a a73f e63f 90bd 55c2 b4bf 729b 47bf
00000070: c649 e83e bfbe f93f 28e9 ddbe 0ad5 2540
00000080: 77f8 8fbe f79a b9bf 97db f53f da13 3a3f
00000090: dbe0 74bf e3e5 0e40 8626 71bf b5d9 d63e
000000a0: 78f7 95bf ac42 2d3f 5384 363f ff37 0ec0
000000b0: 2f03 11bf a985 01c0 aca9 8c3e 0f1a bdbf
000000c0: 5338 9cbf 01b5 00bf cb9c 9c3f 123f 353e
000000d0: 933f dfbf a28a dd3f 41ea aabf 34bb de3f
000000e0: 9003 ee3c 21da 4a3f aa3a bf3f 6bd8 dd3f
000000f0: 3221 f1bf 9627 eb3d e8c1 1c3f b32c 883f
00000100: 1fff 5d3e 029c 2ebf 7380 85bf ea1a 523f
00000110: 7139 b5bf 6157 22c0 6889 1c40 4f1e 60bf
00000120: d596 963f 5f3f da3e 8615 043f 1ce5 94bd
00000130: 3319 40be dd41 673f d616 2f3f 259c 4dbf
00000140: afe2 503f c6c8 a6bf 59be f3bf c08a 9ebd
00000150: 37d6 c23f 349e 9cbf 7b40 ae3f 43c2 e1be
00000160: 39b5 753f ae13 9bbf 265b 573e 2c80 13bf
00000170: 764f 95be 8ede a53f 8404 ab3e f3b6 5e3e
00000180: 26f2 d9bf 396c 043f c093 a6be 3ddb 8fbf
00000190: da4b 08c0 bd79 c23f 2e6d b13f 759b 13bf
000001a0: f088 61be 466e b2be 52c8 dbbf abd6 393f
000001b0: 9002 e2be 98b8 543d 950e 4dbf ff26 c3bf
000001c0: 8abc 0d40 4b67 99bf 9d15 fb3e c4a0 93bf
000001d0: 3743 75be 58a4 47bf 6b9e 66bf a21f 37bf
000001e0: d09d 113e ec35 e53e 90e2 eebf 1509 3f40
000001f0: dc9b c33e bb90 1a3f d1a7 ebbe 882a b4bf
00000200: 0e6c 1b3e 2806 2cc0 0403 833e f106 b0be
00000210: 2974 fe3f 0246 563f 0b90 313f 5bb6 6f3f
00000220: f7c6 423e 3db0 153e 15c0 c0be 999f 723f
00000230: c58f f1be 449b 673f 88a5 24bf 77dd f23d
00000240: 9fc1 96be c8e7 fabe 4761 0240 f9ca ecbe
00000250: 97f2 263e a206 653f a096 1c40 31f6 963f
00000260: 3db3 c5bf eda3 d2bf abb5 8a3e 1856 0940
00000270: aa9c 893f da7b ffbf 03c9 f0be f066 b3be
00000280: 7ce2 bf3e 70ab 963f b1bf 16bf dce1 92be
00000290: 86fd debf aa9b 273f 0f47 1a3f 4c10 febf
000002a0: 29cb 5abf 4b49 d23c 99e7 adbf cf8c bd3e
000002b0: 87c1 223f 8482 b63d f42b 31bf 8816 5840
000002c0: e7ee d5bf 480a 8c3e b7c9 cd3e 96c0 aebf
000002d0: 0d95 abbe ad9e 36bf 4cd1 133f 0f76 403f
000002e0: 3e9e 46bf f1ab ef3f bb1f 1340 7ce9 c8bf
000002f0: e0ad 013f 6810 82bf ff0c e83e 0c0f 1a40
-1.2763395 0.48979652 1.5054207 0.31825134 1.549469 2.1736329 0.55403495 -1.8511841
-0.04424454 0.4318628 -0.68445194 4.05419 -0.98983276 0.9308783 1.2663151 1.0100192
-1.0106528 1.5619773 0.25099382 1.0930425 2.523889 2.836383 0.9734472 -0.8415748
1.3089255 -0.07043438 -1.4121805 -0.77971566 0.45368785 1.9511336 -0.43341947 2.5911279
-0.2811925 -1.4500417 1.9207639 0.7268654 -0.956556 2.2327812 -0.9419941 0.41962972
-1.1716146 0.6767986 0.7129566 -2.2221677 -0.5664548 -2.023783 0.274732 -1.4773577
-1.2204689 -0.5027619 1.223535 0.1769984 -1.7441276 1.7307932 -1.3352739 1.740088
0.029054433 0.7923909 1.4939778 1.733167 -1.8838255 0.1148216 0.6123338 1.0638641
0.21679352 -0.682068 -1.0429825 0.8207232 -1.4158155 -2.5365832 2.4458866 -0.8754625
1.176478 0.42626473 0.5159534 -0.07270262 -0.18759613 0.90334874 0.6839422 -0.8031638
0.8159589 -1.3030021 -1.9042464 -0.07741308 1.5221623 -1.223578 1.3613428 -0.44093522
0.9597965 -1.2115381 0.21030864 -0.5761745 -0.29162186 1.2958543 0.33401883 0.21749477
-1.7027023 0.51727635 -0.325346 -1.1238781 -2.1296296 1.5193402 1.3861444 -0.57659084
-0.22024894 -0.34849757 -1.7170508 0.7259318 -0.4414258 0.051933855 -0.80100375 -1.5246276
2.2146325 -1.1984648 0.49039927 -1.1533437 -0.23951422 -0.77985144 -0.90085477 -0.7153264
0.14220357 0.44767702 -1.8662891 2.9849293 0.3820485 0.6037709 -0.4602647 -1.407548
0.15177938 -2.6878757 0.25588238 -0.34380296 1.9879199 0.83700573 0.6936042 0.9363763
0.19021212 0.14618011 -0.37646547 0.94774777 -0.4718 0.9047129 -0.6431508 0.11858647
-0.29444596 -0.4900496 2.0371873 -0.46248606 0.16303478 0.89463246 2.4466934 1.1793882
-1.5445324 -1.6456276 0.27091727 2.1458797 1.0750935 -1.9959671 -0.4702836 -0.35039473
0.3747748 1.1771069 -0.5888625 -0.28687942 -1.7421119 0.654719 0.60264677 -1.9848723
-0.8546625 0.025669714 -1.3586303 0.3702149 0.6357655 0.08911613 -0.6920769 3.3763752
-1.6713532 0.27351594 0.4019296 -1.3652523 -0.33512154 -0.7133587 0.57741237 0.75180143
-0.7758521 1.8724347 2.2988117 -1.5696254 0.5065594 -1.0161257 0.45322415 2.4071684

model/mobilenetv2_0.35_96/block_13_depthwise_BN/FusedBatchNormV3 f4 [192]
00000000: db25 a140 7435 9ebf 9c91 343e d117 b140
00000010: 2f24 0841 e0af 1040 003f 013f 1ec6 993f
00000020: df20 0d3f 7312 9b3e da16 9940 cc9e 71bf
00000030: 0041 b740 303b 3bbe c25a 233e f913 80bf
00000040: c05f 2dbd 5901 ba40 e235 033e edea 2b40
00000050: 5c0a 82bf b035 7bbf 3a27 ce3e 5dd2 043e
00000060: fca8 5abf e0d4 49be 90f4 0e3e e00e 4240
00000070: 9ace 0bbf 59fe 8640 0cbc 4c3e 445d 3240
00000080: fa04 3ebe 20ed 893d 3d9f 8e40 ca4a 6540
00000090: d08e 173e 5f6e 873f 821d 4240 c0ad 42be
000000a0: 7ee5 9940 15ab b740 1bb8 9040 b64d 09bf
000000b0: 169b edbe 987f a040 9f23 91bf 2eff 15bf
000000c0: 66d7 8a3e a589 0c40 6158 8c40 ee4f fd3e
000000d0: f462 a73e 0487 0140 8308 28be 3083 933d
000000e0: 440d a6be 4e3b 9b40 62d8 04bf 2901 59bf
000000f0: 5c6a b840 7c32 ac3e c0af 47bd 0d0c aa40
00000100: 2e3f 043f 08ef fe3e 54f7 39be ce57 00bf
00000110: f401 50bf 51fb 133f 104e 67bf f85d a5be
00000120: ef42 3b40 90ac 043d a85b 373e 1864 e23e
00000130: e28e a9bc 8e42 0f3f 10dd 913e 8168 bb40
00000140: 04fc 88be ae3f ca3f 60a3 723d bab8 b240
00000150: 8029 8a3e 6640 003f 2ed8 273f 10ac 6b3e
00000160: fa3c 063f 4c91 2f3f d133 bfbe 0754 ff3f
00000170: b2dd a640 e8ef 9c3d 0a89 2840 d982 2c3f
00000180: b417 7940 5a5a 3540 d0a7 243d 7090 fd3d
00000190: 7af3 99be ec90 2cc0 21ad 3440 9155 c63e
000001a0: 2888 923d 10a2 243f 5442 20bf a6ab ac3f
000001b0: dfaa b140 eea3 13bf 009f c83d 44a2 be40
000001c0: 6480 5d3e 50dd 093f f344 593f e3f8 babf
000001d0: 4029 b5be e035 1c3d fbe0 2440 0c61 e73e
000001e0: 9781 be40 b630 c640 0ca6 9340 238d d1be
000001f0: 4044 d33c 2085 603e cc55 573e 4950 19bf
00000200: eedb 53c0 722f 5d3f 7e34 b53e 1d75 ad40
00000210: 249f 74bf d982 9ebe d42d 8ac0 0229 a23e
00000220: 97c1 6840 fdf8 1dbf e037 1cbf 75aa ae40
00000230: b2ef 9e3f 2f9b 7940 66d6 e53e 8a64 c740
00000240: e0ac fc3d e8b8 9d40 d8bf a63e 4052 d43f
00000250: 353b bb40 0ef3 18bf 80e6 4c3d 6ee3 9b3e
00000260: 88b5 0f3e d8f4 9f3f 6d2f ac3f f257 5a40
00000270: bab9 d1bf 4c94 3cbf b129 a340 ecff 8bbf
00000280: fd06 68bf 5080 6e3d 40c7 133d 60e0 b440
00000290: 007a 233e 5c39 3cbe a815 e73d 50bf 9a3d
000002a0: 91eb 80bf 34e0 6d3e f0d7 ba40 d8df 793e
000002b0: 38b9 213e 43c1 2940 72be b240 ae48 cf40
000002c0: 9044 6a3d bad3 443f 8083 6c3d 7c46 083f
000002d0: fcb4 db40 6250 20be fd62 733f 035a f93f
000002e0: be40 2a3f 6128 9a40 fc1d 1b3e 0403 933e
000002f0: 8c5e 3e40 50c9 443e b0a1 20be eb50 59bf
5.035871 -1.2360063 0.1763367 5.5341573 8.508834 2.2607346 0.50486755 1.2013586
0.5512828 0.30287513 4.7840395 -0.9438293 5.7266846 -0.18284297 0.1595259 -1.0006095
-0.042327642 5.8126645 0.12813523 2.6862137 -1.0159411 -0.98128796 0.40264302 0.12970872
-0.854141 -0.19710112 0.1396048 3.032158 -0.54612124 4.2185483 0.19993609 2.7869425
-0.18556586 0.06734681 4.4569383 3.5826898 0.14800572 1.0580558 3.033051 -0.19011593
4.809264 5.739634 4.522474 -0.536342 -0.46407384 5.0155754 -1.1338996 -0.585925
0.2711746 2.1959012 4.3857884 0.49475044 0.32692683 2.0238657 -0.16409497 0.072027564
-0.32431996 4.8509893 -0.51892674 -0.84767395 5.7629833 0.33632267 -0.048751593 5.313971
0.51658905 0.4979174 -0.18160754 -0.5013398 -0.8125298 0.57805353 -0.9035349 -0.32298255
2.9259603 0.03239113 0.17906058 0.4421699 -0.020698015 0.5596093 0.2848897 5.856507
-0.26754773 1.5800683 0.059237838 5.5850496 0.26984787 0.50098264 0.6556424 0.23014855
0.5243679 0.6858108 -0.3734422 1.9947518 5.2145624 0.07662946 2.6333642 0.6738716
3.8920717 2.8336396 0.0401991 0.12381065 -0.3006857 -2.6963453 2.823067 0.38737157
0.07154876 0.6430979 -0.6260121 1.3489883 5.5521083 -0.5767201 0.09795952 5.957308
0.21631008 0.5385332 0.84870833 -1.4607204 -0.35383034 0.038137317 2.5762317 0.45191228
5.953319 6.193446 4.6140194 -0.4092799 0.02578938 0.21925783 0.21028823 -0.5988813
-3.3102984 0.8640052 0.3539161 5.420546 -0.9555533 -0.30959204 -4.3180943 0.3167191
3.6368158 -0.6170805 -0.6102276 5.4583077 1.2416899 3.9000967 0.44890136 6.231023
0.12337661 4.9288216 0.3256824 1.6587601 5.8509774 -0.5974587 0.05002451 0.30446953
0.14034092 1.2496595 1.3451973 3.4116178 -1.6384804 -0.73663783 5.0988393 -1.0937476
-0.90635663 0.058227837 0.03607869 5.6523895 0.15964508 -0.18381256 0.112834275 0.07556021
-1.0071889 0.23230058 5.8388596 0.24401796 0.15793312 2.6524208 5.5857477 6.477622
0.057194293 0.7688557 0.057742596 0.5323255 6.865843 -0.15655664 0.9507292 1.9480594
0.6650504 4.817429 0.15148157 0.28713238 2.9745207 0.1921742 -0.15686679 -0.84889096

model/mobilenetv2_0.35_96/block_13_expand_BN/FusedBatchNormV3 f4 [192]
00000000: 26c4 b7bf 5f22 463e f80c 97bf c414 dd3f
00000010: e164 00be 0605 423e 799d cabf 9784 d23f
00000020: 0bb9 d4be 71a1 11c0 3967 253f ca97 e8bf
00000030: 9217 633f 970f 04c0 43fb f2bf a20e d43f
00000040: cc91 7a3f 527b 6bbf 94db afbf cacb c83d
00000050: 9aad 9dbf 1286 1cc0 ce63 0ac0 d4a4 f8bf
00000060: 36ba e3bf c461 25bf 717c 09c0 3df8 86be
00000070: eee2 68bf bf5b 62bf 0a11 d1bf 65bd 0a3e
00000080: 0e53 febf 9ea1 1cbf 1525 f9be c660 a93f
00000090: bba2 23bf 284c 5dbf 08b6 523d 0021 5f3f
000000a0: 3bea 0240 3c81 c4be 894a 4e3f 7193 0dc0
000000b0: 672c f7bf 4b9b 17bf 0170 aabf 5205 b8bf
000000c0: d29b d6bf d39e d5be e82f 09bf 5ac5 1ac0
000000d0: e2b2 85bf 7fbf 0bbf d9dd e0bf b5a7 b3be
000000e0: f4d8 4bbe a8cb c9bd 2348 9c3d 2451 ecbf
000000f0: 5308 7ebf fc6f 73bf 241e 05c0 b80c 41bf
00000100: 821d 35bf f966 63bf 7607 03c0 8c2f 34c0
00000110: 60db 9dbf bb91 cabf 736d aabf b916 5a3f
00000120: 5ac8 39bf 5605 8bbf 5e42 08bf 5291 f8be
00000130: 54e9 03c0 6817 19be 9352 8abf 2cfd 38bf
00000140: 6314 01c0 f7cc 0ec0 b035 41bf 8e42 4dbf
00000150: edbb 9dbe 2498 1bc0 4541 7fbf 622b 99bf
00000160: c95e 923e 88c6 fc3f 864c cfbf 2ab5 bd3e
00000170: 7cd5 82bf eb78 fbbf 4804 3dbf fe6f eebf
00000180: 07b1 be3e a85b 8dbf 95fc f1bf a33b 36bf
00000190: 6769 2ec0 60f3 a3bf 9529 f63e 658c f3bf
000001a0: e024 29c0 0644 ebbf 7042 1bc0 0296 843c
000001b0: 4969 f5be 5ae4 2bbf 8a48 f7bf 7418 c13f
000001c0: 217d f5bf cbc8 babf 7374 9cbf ed2c adbf
000001d0: aae3 f7be c484 a03d c53f da3f 5e93 e7bf
000001e0: b3b5 82bf fd08 3fbe 6f27 26bf d20c b43f
000001f0: f665 e7bf 30a5 1dc0 1415 52bf 694e 01c0
00000200: 5c69 2e40 a717 e4be e91e dfbf 880b 2b3e
00000210: bc98 90bf bc9a 1ec0 528e c93f 82d4 39bf
00000220: a254 fb3f 703e 7a3f d0f9 ec3e 20ca abbe
00000230: c69b 95bf 9727 3abe f309 923e af3f 15be
00000240: ae44 a9be a1c4 d6be b0e0 eebf 4220 88be
00000250: 24c7 643f 381c 23bf b488 ac3d 2475 45be
00000260: 00a3 973f d5cd c0bf 04e3 0cbf ac8c 0ebf
00000270: a76c d8bf 3332 f9bf c164 eebf 4a9e f6bf
00000280: 5e37 2ac0 37bb a23c d1a2 04c0 9b49 6cbf
00000290: 484b 14bf 48c8 d5bf e539 35bf 8a3e 91bf
000002a0: 91c2 653f 1b5c 52bf 4b63 ae3f dd91 d8bf
000002b0: cd70 efbf 5d2f 57bf 3349 9fbf 7fad 8bbe
000002c0: 1838 04c0 db64 60bf 9720 fabf 2562 0940
000002d0: 99bb 3d40 db5a dfbf 54cc be3f f212 f3be
000002e0: 9821 573d ffb7 333f db62 11bf 1cf4 36bf
000002f0: e44b 6cbf 052d d5bf fc43 03c0 3cff 4fc0
-1.4356735 0.19349049 -1.1800833 1.7271962 -0.12538482 0.18947229 -1.5829307 1.6446713
-0.41547427 -2.2754786 0.6461063 -1.8171322 0.8870784 -2.0634515 -1.8982929 1.6566966
0.9787872 -0.91985047 -1.3738885 0.09804495 -1.2318604 -2.445683 -2.1623416 -1.9425302
-1.7791202 -0.64602304 -2.1482203 -0.26361266 -0.9097127 -0.88421243 -1.6333325 0.13548811
-1.9869096 -0.6118411 -0.48661104 1.3232658 -0.6392018 -0.8644433 0.05144313 0.8715973
2.0455463 -0.38379848 0.8058248 -2.212124 -1.9310426 -0.59221333 -1.3315431 -1.4376624
-1.6766303 -0.41722736 -0.53588724 -2.4182954 -1.0445216 -0.54589075 -1.7567703 -0.35088888
-0.1990698 -0.098532975 0.076309465 -1.8462262 -0.9923145 -0.9509275 -2.0799646 -0.7541003
-0.7074815 -0.88829 -2.0473304 -2.815402 -1.2332573 -1.5825723 -1.3314651 0.8519092
-0.7257134 -1.0861003 -0.5322627 -0.4854837 -2.0611162 -0.14950335 -1.080645 -0.7226131
-2.0168693 -2.23126 -0.75472546 -0.8017968 -0.30807438 -2.431161 -0.9970897 -1.1966364
0.2858794 1.9748087 -1.6195228 0.3705228 -1.02214 -1.9646276 -0.7383466 -1.8627927
0.37244436 -1.1043596 -1.8905207 -0.7118475 -2.7251832 -1.2808647 0.480786 -1.902722
-2.6428757 -1.8380134 -2.42593 0.01618481 -0.4793189 -0.6714531 -1.9319012 1.5085588
-1.9178811 -1.4592527 -1.2223037 -1.3529335 -0.4841588 0.07837823 1.7050711 -1.8091848
-1.02117 -0.18655773 -0.6490392 1.4066412 -1.8077991 -2.4632072 -0.8206341 -2.0204108
2.7251806 -0.44549295 -1.7431308 0.16703618 -1.1296611 -2.4781942 1.5746558 -0.72589886
1.9635203 0.9775152 0.46284342 -0.33552647 -1.1688163 -0.18179165 0.28523216 -0.14575075
-0.3306021 -0.4194689 -1.8662319 -0.2658711 0.89366364 -0.63714933 0.084245116 -0.19282967
1.1846619 -1.5062815 -0.550339 -0.556834 -1.6908158 -1.9468445 -1.8624498 -1.9267056
-2.6596293 0.019864662 -2.0724375 -0.92299813 -0.5792737 -1.6701746 -0.70791465 -1.134721
0.8975001 -0.8217179 1.3624052 -1.6919514 -1.8706299 -0.84056646 -1.2444214 -0.27280805
-2.0659237 -0.87653893 -1.9541196 2.1466153 2.964575 -1.7449602 1.4906106 -0.47475392
0.052522272 0.7020263 -0.56791466 -0.7146623 -0.923033 -1.6654364 -2.0510244 -3.2499533

model/mobilenetv2_0.35_96/block_14_depthwise_BN/FusedBatchNormV3 f4 [336]
00000000: e61c b1be 6a5d 35c0 fc2d 1cbf 1020 1bc0
00000010: 4fab 85bf 510a 183f d474 02c0 6cc3 a4c0
00000020: 6c3b 24c0 5095 cebf 2673 97be 8294 07c0
00000030: 2438 c03e 20eb 0040 5015 8dbf e420 d0bf
00000040: 9baa 1ac0 2e58 21c0 8ebb db3f 929c 72be
00000050: 8352 1b3e db1e 3b40 3db0 de3f 8a9f 9c3f
00000060: 9ace 5040 f80a 38be 8e75 b0bf c453 b1bf
00000070: 641c 333f 29d8 9abf bf86 d0bf 5b33 35c0
00000080: 3d0f 59bf 1e9a 1d40 0acb abbf c873 24bf
00000090: ac62 58be d08a bebe f007 46bd 2c50 a9be
000000a0: 754e 1840 20fc 84c0 c0a8 97bc 70b3 32bd
000000b0: 9b5c 7540 0476 edbf 32be e63f bb75 98bf
000000c0: 40e4 16c0 5eb4 1ebf 3c2f edbf 5007 24bd
000000d0: d689 02c0 d653 5b40 0407 f3be eaae 973f
000000e0: 0ac9 8cbf 508a b2bf 0096 96bb 52c3 f0bf
000000f0: 46dc 86c0 9617 243f 209a 73be 449d 78c0
00000100: f0af a1c0 b4f6 41bf a078 2c40 df92 89bf
00000110: 7bff 18c0 ca22 eebf d809 b1be 5cc2 4c40
00000120: e46c a5bf 2873 563f 9f09 64bf d085 b6bf
00000130: 9643 9abf 91a2 69c0 2825 3ec0 ce3d d7be
00000140: b81a 06c0 5d88 06c0 e584 3ec0 954f 49c0
00000150: 8577 49c0 79c4 2bc0 6e8c 41c0 e16d 13bf
00000160: 8016 68bd 5f25 a03f 6841 1ebe b0af 5f3e
00000170: 5a09 76bf f086 9ac0 d15a 1140 bc55 98bf
00000180: d5fd b1bf 64ed a0bf fbdc 1bc0 6401 c83f
00000190: e01e 15c0 2875 cfc0 5560 3d3f 2dfe e63d
000001a0: 61b3 30bf 72a8 3ac0 c4c7 e2be 4d8a df3f
000001b0: 9832 9f3e 00b3 e53b c8e5 b1bf f021 06c0
000001c0: ccd2 81be 427f 9cc0 b38d 90bf 7d24 2ec0
000001d0: 98c9 6fc0 3894 b2be 2e93 ae3f be18 c1be
000001e0: f5d4 19c0 5a0f 333f 4f6b 6ac0 0cf9 013f
000001f0: bd7f f83f b363 1ac0 1e9e 13be cad9 15c0
00000200: 6e91 8ebe e830 c5be 3a46 72bf 520b ad3f
00000210: 9cc5 bdc0 a49f 5bc0 c5f5 5bbe 78cd 0fbf
00000220: 1005 193e 5407 b1be d23e f0bf 5e47 0bc0
00000230: 7c08 75bf 2021 c4c0 ec63 a5be a50e babf
00000240: ca7a f43f ad53 3dbf b78b 95c0 3806 3dbf
00000250: fa24 5cc0 b0da 3dbf 564f 30c0 51f8 0c40
00000260: 3ae5 64c0 42f0 50c0 4ecd 16c0 c3bd 3cbf
00000270: becd 44bf c682 c9be 3477 01c0 4c09 9fc0
00000280: 6031 2a3d 6ab4 b2c0 2097 d13e 4654 df3f
00000290: 980a 0fc0 acc4 06bf 0637 3e3f 6689 3b40
000002a0: 8a08 09bf 8f96 bec0 6789 34c0 2e5e a2bf
000002b0: de0b 1abf 4081 dcbd 3cc9 443e 4df5 16c0
000002c0: f0c4 18be c0c1 e53d 10a4 663e 05ab 20bf
000002d0: f324 9bbf 208b b7bf 78de 963e be70 6fbf
000002e0: 978f aebf 9c05 d73e 5cd7 34bf db11 45c0
000002f0: 0b20 8040 f477 d83e ee65 32c0 f186 cac0
00000300: b0a2 debe 7cfa a63f 6512 bac0 97a0 d5c0
00000310: 2309 a93e 803f b5bc a2c4 54be 745f 0cc0
00000320: 08db f3bc 6fdb 743f e473 1ebf 92d5 7b40
00000330: 6e18 4a3f 5a32 9ac0 d1e9 7e3f 2aac 44bf
00000340: 5e7e 12c0 b641 3c40 5545 2340 f299 63c0
00000350: 195d c5bf 6cb7 87c0 32a6 83c0 fc60 17c0
00000360: 69be 06c0 f8eb 603f d440 d5bf cafd 3b40
00000370: 7a09 bb3f 9da3 8dc0 b825 393e 1564 6dbe
00000380: 8a79 203f d035 f1bf 1f66 86bf 2c81 8ec0
00000390: 4810 a9c0 1a7c 273f d10e 0ec1 d1ae 8ac0
000003a0: 336f 7abf 92d7 d5bf 06d7 4ec0 340d 55c0
000003b0: 44b0 4fbf 7051 64bf 66bb abc0 8689 8fc0
000003c0: 2ce2 863f 98a2 3bbf 8ba8 a4bf 0b4e dfbf
000003d0: ceba 7ec0 2052 47c0 f4ea ddc0 cf0e 6fbe
000003e0: 345a 1cbf 9e73 bbbf 698b 3940 1c52 94be
000003f0: b09b 8fc0 b079 7b40 a3e7 8ac0 3a23 90c0
-0.3459236 -2.8338265 -0.61007667 -2.423832 -1.0442904 0.5939074 -2.0383806 -5.148855
-2.5661268 -1.6139317 -0.2958004 -2.1184392 0.37542832 2.014351 -1.1022129 -1.6260037
-2.416663 -2.521007 1.7166612 -0.2369254 0.15168194 2.9237583 1.7397534 1.2236187
3.26261 -0.17972934 -1.3785875 -1.3853688 0.69965196 -1.2097217 -1.6291121 -2.8312595
-0.84788877 2.4625316 -1.3421338 -0.6423917 -0.2113139 -0.3721528 -0.048347414 -0.3306898
2.3797886 -4.155777 -0.018513083 -0.043628156 3.8337772 -1.855164 1.8026793 -1.1910928
-2.3576813 -0.6199397 -1.853004 -0.040046036 -2.0396628 3.426992 -0.4746629 1.1850255
-1.0998852 -1.394846 -0.004595518 -1.8809607 -4.214389 0.6409849 -0.23789263 -3.8845987
-5.0527267 -0.75767064 2.6948624 -1.0747947 -2.3905933 -1.8604367 -0.34577823 3.1993628
-1.2923856 0.83769464 -0.8907718 -1.4259586 -1.2051876 -3.6505473 -2.9710178 -0.4203934
-2.0953808 -2.102073 -2.9768612 -3.1454823 -3.14792 -2.6838667 -3.0241961 -0.57589537
-0.056662083 1.2511405 -0.15454638 0.21844363 -0.9610802 -4.828972 2.271168 -1.1901164
-1.3905588 -1.2572446 -2.4353626 1.5625424 -2.3300095 -6.4830513 0.73975116 0.11278949
-0.6902371 -2.916531 -0.44293034 1.7464081 0.31093287 0.007009864 -1.3898249 -2.0958214
-0.25356138 -4.8905344 -1.1293243 -2.720977 -3.7466793 -0.34878707 1.3638666 -0.3771419
-2.4036229 0.699453 -3.6627996 0.5077064 1.9413983 -2.4123352 -0.14415786 -2.3414178
-0.2784533 -0.38513875 -0.9463841 1.351908 -5.930372 -3.4316187 -0.21480472 -0.56172895
0.14943337 -0.34575903 -1.8769171 -2.176231 -0.9571607 -6.1290436 -0.32302797 -1.4535719
1.9099972 -0.73955804 -4.673305 -0.73837614 -3.4397569 -0.74161816 -2.7548423 2.202656
-3.5764909 -3.2646642 -2.3562808 -0.73727053 -0.7687644 -0.39357585 -2.0229006 -4.969885
0.041550994 -5.584523 0.40935612 1.7447593 -2.2350216 -0.5264385 0.7430271 2.9302611
-0.53528655 -5.9558787 -2.8208864 -1.2684991 -0.6017436 -0.1076684 0.1921739 -2.358722
-0.14918876 0.112185955 0.22523522 -0.62760955 -1.2120651 -1.4339333 0.29466605 -0.93531406
-1.363757 0.41996467 -0.7064111 -3.0792148 4.0039115 0.42279017 -2.7874713 -6.3289723
-0.43483496 1.3045192 -5.8147454 -6.6758533 0.33014783 -0.022125006 -0.20778134 -2.193326
-0.029767528 0.9564733 -0.61895585 3.9349103 0.78943527 -4.8186464 0.99575526 -0.768252
-2.2889628 2.9415107 2.5511067 -3.556271 -1.5419036 -4.2411404 -4.1140375 -2.3652945
-2.1053717 0.8786006 -1.6660409 2.937365 1.4612267 -4.4262223 0.18080795 -0.2318271
0.62685454 -1.8844547 -1.0499915 -4.453268 -5.2832375 0.6542374 -8.878617 -4.33384
-0.97825927 -1.6706412 -3.231874 -3.3289309 -0.81128335 -0.89186764 -5.366626 -4.4855375
1.0537772 -0.73294973 -1.2863935 -1.7445692 -3.9801517 -3.1143875 -6.934931 -0.23345493
-0.6107514 -1.4644659 2.899134 -0.28968894 -4.487755 3.9293022 -4.340776 -4.5043
